model_checkpoint/model_best_SlidingWindowWaveNet_mse_all.pth (torch, 424917 bytes, 25 tensors)

input_conv.weight f4 [64, 6, 1]
00000000: 6f7d a7bd 3c02 89be 7cc5 eebd 2f8c f4bc
00000010: 1fef 8cbd 303d aa3e 2e57 57bd 34c4 8d3e
00000020: 5da8 0dbf d623 9cbe 8778 6b3e ad24 0dbd
00000030: b537 9ebe 8feb 92be 57b4 cb3e 567d 24be
00000040: 0d7d f33c 2282 71be 5f32 bfbe 2134 34bd
00000050: 16ee 8a3e 1d1e 133e 6d91 1fbe 6ca8 4f3a
00000060: 5cb3 1c3f 5ed9 0dbe 220d 18bf 4cf6 863d
00000070: 1952 3bbe 8b8d d93d 288d e7bc c306 d1be
00000080: bcb3 36be 3520 adbe 2fb9 7e3e 460a adbe
00000090: c1a9 d8be 7115 573e 2dd2 2a3f cf93 88be
000000a0: 97a3 61be 6ea3 6c3e 4f52 0b3e e820 11be
000000b0: 284a 0a3f 6588 86bd 61c1 623e ea73 853e
000000c0: 9678 1abe eaaa ca3e deeb 47be db40 7dbd
000000d0: eafd cc3c deac 643e aa69 10bf f24f c3be
000000e0: d499 aebe c6d0 613e 4875 c3be 103a bd3d
000000f0: 0231 b7bd c967 8cbe eb7a 8f3e 57a9 afbd
00000100: 5f63 de3d d44f a7be 14de c13e 649a aabe
00000110: c65c d7bd 2929 56be bf55 873e 9a02 27be
00000120: d00b 003f a31d cb3e 4c28 1fbf 24f2 b1be
00000130: 94ed bf3e 4dfb 8d3e 6b99 14bf cf23 4b3e
00000140: 9316 1dbe e33a 86be 50bc 87bc 9ad5 babd
00000150: 3bf9 3e3d eeb3 84be f080 dc3e a63e 31be
00000160: 6666 583d 45f1 173e 6c4a 213e 2f1a ecbe
00000170: f603 4abd ea52 abbe 4785 aabe 4e38 32be
00000180: 2e36 493e c7f7 a73e 17d8 c9be 6bf0 c13d
00000190: 79e6 a03e 8764 a73e 6ab3 67be 4d24 593b
000001a0: b576 10bd 1159 95be 7bb5 47be f47c a13e
000001b0: b894 e83e ba9d cabd 25a3 e2bb 8278 5abe
000001c0: b871 843e 36a8 9fbd 4678 31bf b709 5abe
000001d0: 88ce 193f da29 0ebe 4c88 95be d43b 62be
000001e0: 8bdc b5be 7390 d53e 2c8f 2dbe 8dcb d2bd
000001f0: b68e 823e 3cec 9dbe 9cfe 833c 9bbc b4be
00000200: cf53 11be 95e8 1abd a882 533e 90c5 1f3d
00000210: 5747 e4bd 0323 4ebe d32f 063f e938 813e
00000220: 4403 a8be 1427 d73d d913 00bf 15a8 c3be
00000230: e9be 333f 988d 73bd 45f5 9d3e 5e8a 20be
00000240: a5ff a5be 5dc4 543e 8b64 143f 63de 1ebc
00000250: 05a4 203c 6027 a73d ea2e 17be be61 8b3e
00000260: 5d33 18be 0796 6f3e b5c9 903e 0fed 903e
00000270: 027e a33e 29da 483e d7a0 07bf 1385 8ebe
00000280: 2a19 403e 61f5 19bd 5d80 e03d 57f3 c43d
00000290: 7222 873e 67c8 633e 7162 b4be 9558 8fbc
000002a0: b1b8 783d ebfd d9bd a0fc ac3d 0780 c63d
000002b0: c13c aabd 64ee 583e be44 bcbe b07b 913e
000002c0: 92dd 37be 9e75 89bd 91e8 babe 0335 663e
000002d0: 275a 15be e99d d13e f7ca 01bf d70b ae3d
000002e0: 698c 2b3c 89ee ad3e 2ada bfbc 1446 e43e
000002f0: 8139 58bf 0bc3 463e 6501 7c3d fbda 4bbe
00000300: fe17 e33e 72a5 d23e 74ae b7be f09e 2c3b
00000310: 72b5 6e3c 84b9 6abe 0b33 afbd bc1e 62be
00000320: ff15 4c3e 1d25 933e 8bf8 3cbd cd22 9ebe
00000330: 97c3 7ebe d88b e33e 8884 4b3c 570d b33e
00000340: d1e4 63be 8434 80be d60f fd3d b2c5 df3d
00000350: 08f0 2abe 0ce4 b83e 72f6 413d 75d2 b23e
00000360: 2cf7 583e 8836 abbd 1e64 89bd a19c acbe
00000370: 71fb 563e df03 32be cf52 453e 2188 ce3e
00000380: 0b3e 09bf 45f4 f13d ec2b 4b3d a56a 82be
00000390: 7856 bebe 61f0 8cbe eccd ea3d 9085 5b3e
000003a0: 0b1b 3b3d e76c a3bd 7de0 603c 404e 9bbe
000003b0: 256b bf3e 8f22 b5be 2ac0 4a3d 3d84 9a3e
000003c0: 545d b6be 07ef 73bd 3e2d 84be 758b 3abe
000003d0: 59c0 a83e d15b b73e 55ae b0be 5821 263e
000003e0: dcd0 373e e75b 97be 314e cbbe 2a02 b83e
000003f0: f765 c3be 7a3e 2cbe 8c51 27be 9653 233c
-0.081782214 -0.26759517 -0.11658761 -0.029852001 -0.06881546 0.33249807 -0.052573375 0.27688754
-0.55335027 -0.3049609 0.22995196 -0.034458805 -0.30901876 -0.28695342 0.39786026 -0.16063437
0.029722715 -0.23584798 -0.37343118 -0.043995026 0.2713477 0.14366956 -0.1558282 0.000792152
0.6121118 -0.1385245 -0.5939504 0.06589946 -0.18293037 0.106227 -0.02826555 -0.4082547
-0.17842 -0.33813635 0.2487533 -0.337969 -0.42317012 0.21004273 0.6672695 -0.2667527
-0.22035061 0.23109218 0.13605617 -0.14172709 0.54019403 -0.06568984 0.2214408 0.26064998
-0.15085062 0.39583522 -0.1952357 -0.06182943 0.02502342 0.22331569 -0.5641123 -0.3814693
-0.34101737 0.22052297 -0.38175416 0.0923959 -0.089448944 -0.27422932 0.28023466 -0.08577221
0.10858797 -0.32678092 0.37864745 -0.33320916 -0.10515742 -0.20914139 0.26432607 -0.16309586
0.50018024 0.3967105 -0.62170863 -0.3475505 0.37485945 0.2773079 -0.580466 0.19837879
-0.15340643 -0.26216802 -0.016569287 -0.091227725 0.046624403 -0.25918525 0.43067122 -0.17309055
0.05283203 0.14838131 0.15751046 -0.46113726 -0.049320184 -0.33461696 -0.33304808 -0.17404291
0.19649574 0.32806227 -0.39422676 0.09469684 0.31425837 0.32693884 -0.22627035 0.003313321
-0.035269458 -0.29169515 -0.19502823 0.31540644 0.45425963 -0.09893365 -0.006916421 -0.21335033
0.2586801 -0.077957556 -0.6932415 -0.21292768 0.60080767 -0.13883153 -0.2920555 -0.22093135
-0.35519823 0.41711769 -0.16949147 -0.102927305 0.25499505 -0.30844295 0.016112618 -0.35300145
-0.14192127 -0.037819464 0.2065531 0.03900677 -0.111464195 -0.20130543 0.52416724 0.25238732
-0.3281499 0.105055004 -0.50030285 -0.38214174 0.7021318 -0.059461206 0.30851188 -0.15677783
-0.32421604 0.20778032 0.57965916 -0.009696576 0.00980473 0.08161807 -0.1476399 0.2722301
-0.14863344 0.23397075 0.2827889 0.2830586 0.31932074 0.19614471 -0.529798 -0.27835903
0.187596 -0.037587527 0.10961983 0.09616726 0.26393467 0.22244416 -0.35231355 -0.017498294
0.06072301 -0.10644134 0.08446622 0.09692388 -0.08312369 0.21184689 -0.36771196 0.2841468
-0.17955616 -0.06711887 -0.3650556 0.2248116 -0.14585172 0.40940788 -0.50700325 0.08498352
0.010470488 0.3397105 -0.023419458 0.44584715 -0.84462744 0.1941034 0.061524767 -0.19907753
0.44354242 0.4114185 -0.35875285 0.0026339851 0.014569627 -0.22922331 -0.085546575 -0.22082037
0.19930266 0.28739253 -0.046135467 -0.30885926 -0.24879299 0.4444263 0.012421735 0.34971115
-0.22255255 -0.25040066 0.12356536 0.10926379 -0.16693127 0.36111486 0.04735417 0.3492619
0.21188039 -0.083600104 -0.06708549 -0.33713248 0.20994355 -0.17384289 0.1926987 0.40338233
-0.53610295 0.11814169 0.049602434 -0.25471988 -0.37175345 -0.27527145 0.11465058 0.21437669
0.045680087 -0.07979756 0.013725397 -0.30333138 0.37386432 -0.3537793 0.04949967 0.30179015
-0.3561808 -0.059554126 -0.25815767 -0.18217261 0.3295925 0.35812238 -0.34508005 0.16223657
0.17950767 -0.29562303 -0.39708093 0.3593915 -0.3816373 -0.16820708 -0.16339701 0.009968659

input_conv.bias f4 [64]
00000000: 4b9c bebb 40ea b9bc 0b5c adbe 525e c63e
00000010: af54 cd3d f928 9e3e c68a f6bd 119a 78bd
00000020: 4fc6 ab3e 9974 d23e 15d0 1dbe 41e7 66be
00000030: 8f46 70bd 7376 39be 7912 af3e d664 3f3e
00000040: cfe2 30be 5d43 163d 7f9c b63e ab8f f33d
00000050: 0c8b 1a3e 42fb aa3e 6ba1 e23e 4fc1 4ebc
00000060: 16e2 2ebd 8fe7 a43e 9013 e5be bc69 ac3d
00000070: ac1d 7a3e 7dcd 6cbd cd19 0a3f 22bb fdbd
00000080: 32a5 88be da80 773e a2ec b03e 4c1f acbd
00000090: 5f17 81be 6c52 71be 78cb dbbe fb3d 323e
000000a0: 6668 e8bd b7b5 f23d 1d9b 7cbd 26bb e73e
000000b0: 4c61 35bd c52e 753c ea75 3cbb 94e8 593e
000000c0: 9080 b43d 75b1 603d 0373 a73d 75a5 5ebe
000000d0: cc5e 69be 155d 963e e124 38be b7ae 8b3d
000000e0: 4f89 063e 95f8 02bf e352 7dbc 4d6b b33d
000000f0: 41ec b33e ca24 35be 37b2 c6bd f69e c5bc
-0.0058169714 -0.022694707 -0.33859286 0.38743836 0.10025918 0.30890635 -0.12038188 -0.060693804
0.33549735 0.41104582 -0.15411408 -0.22549154 -0.05866104 -0.18111591 0.3419378 0.1869081
-0.1727402 0.036685336 0.35666272 0.11892637 0.15092105 0.3339482 0.44263777 -0.012619331
-0.04269608 0.32207915 -0.44741488 0.08418605 0.24425381 -0.057813156 0.5394562 -0.123892084
-0.26688534 0.24170247 0.34555537 -0.08404407 -0.25213143 -0.23566598 -0.42928672 0.17406456
-0.113480374 0.118510656 -0.061671365 0.4525997 -0.044282243 0.014964764 -0.0028756806 0.21280128
0.08813584 0.054856736 0.081762336 -0.21742804 -0.22790068 0.2936789 -0.17982818 0.068204336
0.13138317 -0.51160556 -0.015461656 0.087607004 0.35141185 -0.17689815 -0.097019605 -0.02412365

blocks.0.causal_conv.weight f4 [64, 64, 2]
00000000: dcc4 bbbd 93f4 dc3c 5d10 13bd aa32 e0ba
00000010: 4664 c33d ee91 3d3c 8a07 a4bb 4ade 67bd
00000020: 56e0 e33b 4c50 a2bd 7e15 49bd ed55 d7bc
00000030: 0228 99bd 129b b03c 1e16 d2bd 4878 31bc
00000040: f427 353c 5393 12bd b0f3 473d 7d47 babc
00000050: 5df0 47bd 720b 63bd 38a1 cc3c f39a a5bc
00000060: 9be3 103d b142 f9bc 2499 2bbb 7d22 9cbd
00000070: 14f3 433d dc16 f63b b32d 2bbc d3df b0bb
00000080: 6f6f c0bd ed26 47bd 0780 a3bd 8c02 ae3c
00000090: 9c95 1e3d cfef cc3c b482 39bc 2a4c b8bd
000000a0: f754 b0bd e562 1bbd d5c4 3f3c 8266 e43d
000000b0: 387b 4c3d 97ab 97bd 8030 96bd ed06 083d
000000c0: ec7e 60bd b6fa 4c3d 578c 96bd e4f4 b03d
000000d0: dcb2 9fbd 000c 5bbd fef8 0d3c 5f84 8cbc
000000e0: f7b5 bcbd 4c12 b7bd 14e0 dc3d 2dd3 6dbd
000000f0: 9767 47bd 4232 9c3d e350 49bd 5f80 923b
00000100: 966c 4fbd 5366 273d 4945 92bc 1bed 943d
00000110: 42d7 89bd c007 9e3d c54e 8b3d b63c 43bd
00000120: cce5 8c3b 1626 b13c 154e 843d 43fe 7dbd
00000130: a319 63bd 7435 48bd f175 9fbd 1a46 7abd
00000140: 8520 9bbc 5aa3 93bd 9af9 0cbc 68cc 6b3c
00000150: bdfc c33d c22f dabc 5d89 32bd e0bc 1dbc
00000160: 4169 71bd 70b9 5abd f1df 9abd a3d7 9ebd
00000170: ae69 a83c 7937 11bd aee5 44bb d110 323b
00000180: a195 643d 6a68 a7bc 009c 0cbd cf27 90bd
00000190: 151c 1c3d 8d0e 2c3c 7446 703d ce69 c6bc
000001a0: 22c1 03bd b991 a43c acc0 d13c fa07 1aba
000001b0: ca4c e9bd 6ce1 bb3d a827 113d 461d 92bd
000001c0: 1cdf 843d e841 883c 658c 793d 099b 3e3d
000001d0: f54e 093c 34dc 773d 1d87 cfbb 65bd a9bd
000001e0: 3fa5 e83c 286e 10bd d31d 293d e75b e93c
000001f0: b20d a7bd 9ac8 5e3d 9d5a b43c 2926 58bd
00000200: 9a14 183c 635d dc3d 9146 643d a6fd 01bd
00000210: 8c61 463d ec19 52bd 7d0a 0dbd 0989 bf3d
00000220: 6988 7cbb 59e1 8b3d ae21 053d bc46 163d
00000230: 2e20 97bc 616e 463d 4bbe 9b3d 1141 a3bc
00000240: 5f47 5f3c 00ed b43d 0544 cf3d 1c38 903d
00000250: 2fbe b0bd 1ef5 bfbd b647 43bd 61e4 e5bd
00000260: d1e1 4ebd b4f1 f9bc aeac ea3c b11f d2bd
00000270: a275 a0bd d43c 553d 68f6 d73c 8ddf a83a
00000280: 6f52 413d 148a 913c 4908 b93c 013a 0e3d
00000290: 4a84 b8bd afe5 453d 5b38 773d 55ca b5bc
000002a0: 41d0 1e3d de64 94bd c89b aabc 467d 433b
000002b0: 66ff 33bc 5a15 bd3d f2e3 89bd 77c9 f2bd
000002c0: c3cc c73d edc7 333d b0d9 abbc d7d8 b63d
000002d0: 6ef2 4ebc 29d2 e8bd 4400 483d 0c88 c63c
000002e0: 6599 903b b833 93bb 192a 803d c1f1 f8bb
000002f0: 4253 be3d afa7 2fbd cce4 023c e785 93bd
00000300: cb84 bdbc 059b a1bc 54a6 623d 42b7 3bbc
00000310: e983 9c3d 0d41 20bd cb65 d2bc cdf8 13bd
00000320: 0066 2d3d 13ee 033b 42cc a7bd 34f2 393d
00000330: 71c5 89bd 9b39 83bd de58 be3d 0763 c0bc
00000340: 7752 a03d 446b 9abd 8f96 a23c 335b f23c
00000350: 61ef 863d ab04 ab3d a6fc b03d 1047 413d
00000360: f37d acbd 3abf 96bd 3c18 9d3d 9450 94bd
00000370: bccf 9d3d ccef 0fbd 6da1 973d b8ef 6d3d
00000380: e726 2fbd 3d19 9abd 94fd bd3d 10f2 82bd
00000390: ba61 b5bc 9fb7 68bc 3fd3 17bd e625 75bd
000003a0: d61c abbd 8b3d a9bd 5abd 2abd ab46 c03d
000003b0: c146 a63c 82ab 9e3b 76a2 43bd bfee c73a
000003c0: 25cb 33bd 864c 373d d298 bf3d 164d a63d
000003d0: 5532 29bc daf2 033d 78d7 033d 56cc 273d
000003e0: d3c5 f53d 0174 b73b 708b 92bd 3669 5ebd
000003f0: e4ed 60bd 5ccf 45bc fb33 b63c 4163 60bc
-0.09168407 0.02697209 -0.035904277 -0.0017104943 0.0954061 0.011570437 -0.0050057815 -0.056608476
0.006954233 -0.07925472 -0.049092762 -0.02628609 -0.07478334 0.021558318 -0.10258125 -0.0108319
0.011056889 -0.03578503 0.048816383 -0.022739166 -0.048813213 -0.055430837 0.024979219 -0.020215487
0.03537331 -0.030427309 -0.0026183808 -0.076237656 0.04783924 0.0075100493 -0.010447907 -0.0053977757
-0.09396254 -0.048621107 -0.07983404 0.021241449 0.038716897 0.025016693 -0.011322666 -0.08998902
-0.08609956 -0.03793611 0.011704643 0.11152364 0.049922198 -0.07405775 -0.073334694 0.03320973
-0.054808542 0.050043784 -0.073509865 0.08640459 -0.077977866 -0.05347824 0.008665321 -0.017152963
-0.092143945 -0.08939037 0.10784927 -0.05806272 -0.048682775 0.076267734 -0.049149405 0.0044708694
-0.050640665 0.04086907 -0.017855303 0.07271787 -0.0673051 0.07716322 0.068021335 -0.04766532
0.004299855 0.021624606 0.064602055 -0.06201006 -0.05544437 -0.048879102 -0.077861674 -0.06110201
-0.018936405 -0.07208891 -0.0086044315 0.014391996 0.095696904 -0.0266341 -0.04358803 -0.009627551
-0.05893827 -0.053399503 -0.07562245 -0.07755973 0.020558205 -0.035453293 -0.0030044126 0.0027170668
0.05580676 -0.02043553 -0.03432846 -0.07038843 0.03811272 0.010501516 0.05866094 -0.024220373
-0.032166608 0.020089017 0.025604568 -0.00058758224 -0.113915995 0.09173855 0.03543821 -0.0713449
0.06487867 0.016632989 0.060924906 0.04653457 0.008380641 0.060512736 -0.0063332454 -0.08288077
0.028399108 -0.035261303 0.04128821 0.028486205 -0.08156909 0.054390527 0.022015864 -0.052770767
0.009282256 0.107599996 0.05573136 -0.03173604 0.04843287 -0.051294252 -0.03443383 0.09352309
-0.0038533455 0.06830091 0.032502823 0.03668855 -0.018447962 0.04844511 0.07604655 -0.019928487
0.013627856 0.08834267 0.101203956 0.07041952 -0.08630025 -0.09372924 -0.04767581 -0.112252004
-0.050508324 -0.03051076 0.028646793 -0.10259951 -0.07834937 0.052059963 0.026362613 0.0012884006
0.047197755 0.017766036 0.022586958 0.034723286 -0.09009607 0.048314746 0.06035648 -0.022191206
0.038772825 -0.072458014 -0.020826235 0.0029829307 -0.010986185 0.09232588 -0.0673293 -0.118548326
0.09755852 0.043891836 -0.020977825 0.08928078 -0.012631042 -0.1136821 0.04882838 0.024234794
0.0044128173 -0.0044922493 0.062580295 -0.0075971787 0.09293224 -0.042884525 0.00798912 -0.07203274
-0.02313461 -0.01972724 0.055334404 -0.011457266 0.07642347 -0.039124537 -0.025683304 -0.036125947
0.042333603 0.0020130917 -0.08193256 0.045397 -0.06727112 -0.06407472 0.09294294 -0.02348472
0.07828229 -0.075399905 0.019847183 0.029584503 0.06588627 0.083505 0.08641939 0.04718691
-0.084224604 -0.07360692 0.07670638 -0.072419316 0.07705638 -0.035140797 0.074038364 0.05808994
-0.04276171 -0.07524345 0.09276882 -0.06393826 -0.022141326 -0.014203935 -0.037066694 -0.059850596
-0.083551094 -0.082636915 -0.041684486 0.09388479 0.02029741 0.0048422227 -0.047762357 0.0015253647
-0.043894906 0.044750713 0.0935532 0.08120172 -0.0103269415 0.032214023 0.03218791 0.040966354
0.120006226 0.0055985455 -0.07155502 -0.054299556 -0.05491437 -0.012073364 0.022241583 -0.013695539

blocks.0.causal_conv.bias f4 [64]
00000000: 496e 9f3c 7013 073e a7e3 82bc 17bc ec3d
00000010: 2be8 ad3d 831a debc eb28 9c3e 05a6 b53c
00000020: b3fb fcbc dbf3 b1bd c8ca e23d bbe3 48bc
00000030: f1f2 973d 0518 a7bd e217 eebd b301 383d
00000040: 981c 82bd e4fa 103e 0f6f 813c c5e0 d8bc
00000050: 7990 943c 4cb3 a9bd 21e8 8f3c 44ff 12be
00000060: 3fc9 b0bd 0a16 adbd e7fc 833b 14c6 afbc
00000070: 5fa4 803c 8b6e 8d3d 53f9 4cbd d2cb a2bc
00000080: c446 8bbc 5e10 403e 2a1a cabd c527 0fbd
00000090: 2eda 94bd c2a7 0b3c cef5 cbbd 706e a2bc
000000a0: c498 f3bd 126a 623e 43a7 4b3d e118 67bd
000000b0: 6321 153e 11a9 163e 2cf8 ef3c 445b f03c
000000c0: 18d2 4bbc d8f0 af3d 4410 d53d da90 96bd
000000d0: a444 09bd 6db4 303d 3e24 4a3d d1df 87bc
000000e0: c8aa 01bd 8d11 63bd c5c0 093e 7ef3 653d
000000f0: 0315 113d 5149 a33d c4ee 08bc 97c8 803d
0.019461768 0.13191009 -0.015977694 0.11559313 0.08491548 -0.027112251 0.30499968 0.02217389
-0.030881738 -0.0868909 0.11073834 -0.012261326 0.07419384 -0.08158878 -0.11625649 0.044923496
-0.0635311 0.14158207 0.015800027 -0.026474366 0.018135296 -0.08286151 0.017566742 -0.14355189
-0.08632135 -0.08451469 0.004027951 -0.021456756 0.015703378 0.0690585 -0.05004246 -0.01987258
-0.017001517 0.18756244 -0.09868272 -0.034950037 -0.07268177 0.008523883 -0.09958993 -0.019828051
-0.11894372 0.22110775 0.04972006 -0.05642021 0.14563517 0.14712931 0.029293142 0.029340394
-0.012440227 0.08590859 0.10403493 -0.07351847 -0.033512726 0.043140817 0.04935097 -0.016586216
-0.03165701 -0.05543666 0.13452442 0.056140415 0.03542043 0.07972968 -0.008357707 0.062882595

blocks.0.residual_conv.weight f4 [64, 64, 1]
00000000: 12e5 9b3c c1ee 7dbd 164d 24bd f494 f9bc
00000010: 472c 9b3c ad91 b2bc 02f0 d4bd 8709 debd
00000020: 766c 0e3d 918b b23c 7edf 603d 538a 583d
00000030: 2c92 89bd 8e39 b5bd c059 5ebd 92c1 a7bd
00000040: 19a3 a03d a330 923d 8730 a2bc cfab 7bbd
00000050: 9f9f ee3b d0e1 a23d a5e2 cfbd 5adc 95bd
00000060: 377c fc3c 9f8b 8b3c c40c abbd 8fec c93d
00000070: 4885 2ebc 9d9b ab3b fcf1 b3bd 95e7 a83c
00000080: af86 ff3d 0278 8d3d 4b2a 8e3d c38d f93d
00000090: 4042 d43d 4d98 743d 83d9 8dbd e4bd f6bd
000000a0: 22b6 d2bd 6165 1a3d 7872 353d 998d 593d
000000b0: 10d6 9dbd 9fd6 9ebd 9803 c0bd 443a c9bd
000000c0: 23df 9fbd 5091 3abd 34fa 393d 9db1 c8bd
000000d0: 8b50 d3bd 4705 533d d5b8 b9bd 96f2 7c3d
000000e0: 6b2a 023d 5ba1 fabc 325f a0bc b184 ee3d
000000f0: 0539 0c3e 2b31 963d 9afe 023e ab6f b4bd
00000100: 4992 22bd d306 713d 928d aabd 36f1 6abd
00000110: 6fed 003c a083 a73d 6857 8e3d 3f66 0abe
00000120: d38c 86bc 2d08 52bc f915 6fbd 5334 b5bd
00000130: c81a e63c 4bd3 663c a7b7 f8bc de84 683d
00000140: f73a 403d 42b9 8fbc 49cd b43c f9f5 be3d
00000150: 39a6 c23d bcda 303d 5e8d f2bd 6bf9 c3bd
00000160: 799a 82bd 37fb bbbc ab12 4ebd 912c 07be
00000170: eb2c 443d 2e31 5cbd 1b60 c9bc bbb5 ed3d
00000180: e43e dd3d ab40 203d d3f1 8fbd e69e 65bd
00000190: d80a 2c3d 5380 d2bd 545e 5e3d 35ed 92bd
000001a0: 7964 62bd aece 053e ebb2 de3d bff5 a53c
000001b0: 2691 a83d 1acb 743d eb1b d4bc 8c7e b63b
000001c0: 2610 cabd 4b5a 2a3d f239 de3d 1155 903d
000001d0: 1b4a 09be 7b62 9d3d 6e2f 273d 9f65 0f3d
000001e0: 38ba f9bc 1f09 f7bd ceac cdbb 813c b9bd
000001f0: 5965 a23d 175f 7dbd d9ce b3bd f3fb aa3d
00000200: 4ad8 f73c 5ba0 e63d d8d5 c2bd 871d e4bd
00000210: 12de 84bd ce10 3fbc f74f 0abd ceee e1bd
00000220: 4705 993d 0a97 41bd b09a 7ebd 16ec 9b3d
00000230: 6f47 85bb c82c 30bd 2401 eebd eac4 dd3d
00000240: 2c5e b53d 39f2 8f3d 00f7 a8bd 1347 8d3d
00000250: f4dd d03d aafc e1bd e2e9 02be 33b8 debc
00000260: 0b9b 873d ab38 b23d f1d6 543d 735b 85bd
00000270: 8855 acbd 6607 b3bd 18db e2bc b280 23bc
00000280: 2c8a 63bd 13a2 9ebd c589 ddbd 5f5c b53d
00000290: 6e71 fdbd e470 883b 83b3 f9bc dc34 34bd
000002a0: 852d 773d ccc8 c93d d74a 883d a222 2e3d
000002b0: 0097 abbd fb42 a13d 7779 f83d 356a 083d
000002c0: 88f2 9b3c 7a25 a5bd e835 a7bd bb00 3a3d
000002d0: 9015 de3d 387f 1dbd fe71 793d d11c 54bc
000002e0: 5d1d 6d3d 9772 dcbd 0948 ef3d f0c4 873d
000002f0: ca14 30bd 6b67 043c 8191 f0bd 149a b53d
00000300: ce46 b8bd f43c 793d 1f33 003e 5c55 aabd
00000310: 1ec8 863c c6a6 d0bd bed3 75bd b3fd ec3d
00000320: 6cc0 313d 33fa 85bd 1f6a 62bd 928b 15bd
00000330: d98d 79bc 95cb a2bd eafb 91bd 5984 3a3d
00000340: b422 813d 23e8 9d3c 2f0b 56bd da04 b1bd
00000350: 2bf6 2fbc 2a11 cebd 349b 05bb c1fc f6bc
00000360: fe3f ad3d 750c 04bd 8f39 123e 44a4 f9bb
00000370: 66bd 8fbb 2185 673d 5f5e a8bc 30ac a1bc
00000380: d0e1 d43d 4efb 013c 95c1 8c3b 9826 133d
00000390: 392b f5bb 45fb a0bc 9456 9bbd 6aa9 623d
000003a0: 8009 b53d 0815 ab3d 47ab af3d d115 bc3d
000003b0: 04f2 c6bd a674 7c3d ca93 48bc 0147 c2bd
000003c0: a95c 6f3d db7c 843d 86a7 b83c 6db9 d6bd
000003d0: 2aaf 63bd 50d4 a8bc 98b5 09bd 8613 afbd
000003e0: 4e96 cd3c adc0 e33d 97d2 abbd 08f2 a23c
000003f0: 2a07 88bd 8522 5c3c 3a62 a13d 5f85 26bd
0.019030128 -0.06199527 -0.040112577 -0.030466534 0.018942012 -0.02179798 -0.1039734 -0.10841661
0.034771405 0.021795066 0.05490064 0.05286629 -0.06717333 -0.08848868 -0.05428481 -0.081912175
0.078436084 0.07138183 -0.01979853 -0.061443146 0.007282212 0.079532266 -0.10150651 -0.07317419
0.030820949 0.01703435 -0.08352044 0.09859573 -0.010651894 0.0052370564 -0.08786389 0.02061824
0.12476861 0.06907655 0.069416605 0.12185242 0.10364199 0.059715558 -0.06926253 -0.120479375
-0.10288645 0.03769434 0.04429862 0.053113554 -0.07706845 -0.077557795 -0.093756855 -0.098255664
-0.07806232 -0.045548737 0.045404628 -0.09799502 -0.10318097 0.051518705 -0.09068457 0.061754785
0.031778734 -0.030594518 -0.019576643 0.116464026 0.13693626 0.07333597 0.12792435 -0.088103615
-0.03969029 0.0588444 -0.08327784 -0.057358943 0.007869109 0.08179402 0.06950265 -0.13515566
-0.016424572 -0.012819332 -0.058370564 -0.08847871 0.028088942 0.014088462 -0.03036101 0.056767337
0.046931233 -0.017544392 0.022070544 0.09324259 0.09504361 0.04317735 -0.1184337 -0.09569057
-0.063771196 -0.022946937 -0.050310772 -0.13200594 0.0478944 -0.05375784 -0.02458196 0.11606928
0.10803011 0.039124172 -0.07028546 -0.05605974 0.04200253 -0.10278382 0.054289177 -0.0717415
-0.0552716 0.13067123 0.1087397 0.020258782 0.0823081 0.059764005 -0.025892219 0.005569285
-0.09866361 0.041590016 0.10850896 0.07047475 -0.13407175 0.07684799 0.040816717 0.035009023
-0.030484304 -0.120622866 -0.0062767034 -0.09044743 0.07929487 -0.061858263 -0.087796874 0.08348837
0.030254502 0.11261054 -0.09513444 -0.111384444 -0.06487669 -0.011661721 -0.033767667 -0.110318765
0.0747171 -0.047263183 -0.06215924 0.07613389 -0.0040673534 -0.043011457 -0.11621311 0.10828574
0.088558525 0.07028622 -0.082502365 0.06898322 0.10198584 -0.1103452 -0.12784532 -0.027187442
0.06621369 0.08702215 0.051962797 -0.06511583 -0.08414751 -0.087416455 -0.027692363 -0.009979414
-0.055551693 -0.07745757 -0.10817293 0.08855509 -0.123751506 0.0041638482 -0.030481106 -0.043995723
0.060346145 0.09852752 0.066548996 0.042513497 -0.0837841 0.07874104 0.121325426 0.033304412
0.019036546 -0.08063789 -0.08164579 0.045410853 0.108439565 -0.038451403 0.060899727 -0.0129463235
0.05788933 -0.10764044 0.116836615 0.0662936 -0.042988576 0.008081297 -0.11746503 0.08867279
-0.0899788 0.060849145 0.12519501 -0.08317062 0.016452845 -0.101880595 -0.060016386 0.11571827
0.0433964 -0.06541862 -0.055276986 -0.036510058 -0.015231573 -0.079489864 -0.07128127 0.045536373
0.06305447 0.01927573 -0.05225676 -0.086435035 -0.010739843 -0.100618675 -0.0020386698 -0.03014982
0.08459471 -0.032238442 0.1427977 -0.007618459 -0.0043865917 0.056523446 -0.020552812 -0.019735426
0.10394633 0.007933451 0.0042955377 0.035925478 -0.007481959 -0.019651065 -0.07584873 0.055337347
0.088397026 0.08353621 0.085775904 0.09183849 -0.097141296 0.061634682 -0.012242267 -0.09486199
0.058437977 0.06469127 0.022540819 -0.10484586 -0.05558697 -0.020609051 -0.033620447 -0.08548646
0.025096085 0.11120734 -0.08389776 0.0198908 -0.066419914 0.0134359645 0.07880063 -0.040654536

blocks.0.residual_conv.bias f4 [64]
00000000: 1387 453d ff70 cd3d 76b9 f8bc 22a2 063e
00000010: 72cc 813d cf81 c63d 0fe8 02be 2288 2e3d
00000020: 4f86 93bb 5e9f dc3c 348d a8ba a440 f5bd
00000030: 72cd b23d 1e7a 8ebd bfef c73d d14d cc3d
00000040: 9d61 85bd 2ba5 2dbe 318e ad3d a134 993d
00000050: 19e5 973e dcf6 213e 9918 d33d ebc3 2fbd
00000060: c073 d8bd 3f88 16bd 6b2e 95be c028 d73c
00000070: 0599 69bc ac42 f53b b193 6a3e 1ad1 5dbc
00000080: 6054 923d 3ca0 e43d 3daa e7bd e81e e33c
00000090: 2ea3 28be ac39 4c3e 6e41 cebd 7100 813e
000000a0: 9578 90bc b8d0 ea3b 386a 32bd fb5c 6b3d
000000b0: 577a ba3d 8325 0cbe 9ae3 3c3c fca7 c83c
000000c0: e626 993d c29f dfbc 71bd aa3d 4eed 723e
000000d0: 0b81 d13d de50 cabd bfae 95bd 0e9b 083e
000000e0: 4ae5 22be 964b 73be 06f3 f4bd 5f30 853d
000000f0: bdd7 03bd f2bb e43d 8ded 0abe 3174 eabd
0.04822452 0.10031318 -0.030361872 0.13147786 0.06337823 0.09692728 -0.12783836 0.042610295
-0.004502095 0.026931461 -0.0012859465 -0.1197522 0.08730592 -0.06956886 0.09762525 0.0997578
-0.06512759 -0.16957538 0.084743865 0.07480741 0.29666975 0.15816826 0.10307426 -0.04291145
-0.105689526 -0.03675103 -0.29136977 0.026264548 -0.014257674 0.0074847545 0.22907902 -0.013538623
0.071449995 0.11163375 -0.11311767 0.027724698 -0.16468498 0.19943875 -0.100710735 0.2519565
-0.017635623 0.0071659945 -0.04355833 0.05746172 0.09105366 -0.13686185 0.011528874 0.024494164
0.074781224 -0.027297858 0.08336914 0.23723337 0.10229691 -0.098787054 -0.07308721 0.13340399
-0.1590778 -0.23759302 -0.119604155 0.06503367 -0.032188166 0.1116866 -0.13567181 -0.11447943

blocks.1.causal_conv.weight f4 [64, 64, 2]
00000000: 859a ccbd 0f3f 163d 4ab2 9ebc c8bc 883d
00000010: a6f8 18bd c7e1 103c 04e2 a73c 3479 043d
00000020: b79e 97bd 166b 293d 38c1 093d c683 58bd
00000030: b632 b83d 8d22 91bd 80de 93bb 82fe abba
00000040: 1cc0 59bd cd8e af3b f379 dd3d d4fe 83bd
00000050: 4b37 6fbd 53b0 a03c 010d 4d3c 9da6 503d
00000060: 191b 49bd ae1e 46bd 8b7c 333d c82f adbd
00000070: 11b1 9c3b 0fb4 20bd 8a94 ca3d ea0a 92bd
00000080: 6b2a 2abc 4fbc 63bd 4d4e 3ebd 41b0 453d
00000090: 5d76 60bd e3b7 d73c 49b5 ab3c c937 c3bd
000000a0: 2f9c 63bc 9963 a9bd 1334 a3bd 28cd 98bc
000000b0: 3906 363d 43fb 5abd 0659 2a3d e9ea 273d
000000c0: be58 56bd dda5 f73c 120a 463d 531f 6d3d
000000d0: 2761 7abd 70f2 383d 7a41 363d 4801 93bd
000000e0: e622 523d 8293 b63c 8b27 d43c 9aa3 a73b
000000f0: 91ff fabb 448f 8fbd 7055 7a3a 3746 48bd
00000100: f844 cc3d afc5 d93c 0220 c83d 9691 48bd
00000110: 72de 38bd 7f99 ba3b 7153 b9bd a6d0 9d3d
00000120: 62d2 1abd 010b 023d 45df 4d3d 7b15 8d3d
00000130: 1cd4 1b3d 6a96 af38 f862 f8bc 627f 4abd
00000140: 2b3e 93bd 531c 94bc 7dfe d73d bc8d 3ebc
00000150: df92 1ebd a8e1 193d d206 4a3d b720 89bc
00000160: 6244 143a ab9f 963d 1eb1 77bd fb02 47bb
00000170: 2a6f b03d 177c f03c 52f2 34bb 5c97 a7bd
00000180: 4ba7 92bd abab 883d 9383 cabd cb7e 793d
00000190: d69f 903d ee13 28bd 2fec 4fbc e60e 86bd
000001a0: b6bb f03d ab99 83bc d29a aa3d 9423 24bb
000001b0: 25a5 d7bd 60c4 f7bc 3921 d03d 39ea debc
000001c0: 1b58 7b3b 60a6 d0bd 232c 703d 32ae d5bc
000001d0: 0a40 9f3d 3fc7 bfbc c969 9d3c 50f0 5b3d
000001e0: cd4e 4fbd 9fa2 3abc 5a24 273c ba35 413c
000001f0: add3 663d cbf4 16bd bfb9 a2bd b64c 303d
00000200: 3772 333d 452c b1ba 7d3e c4bd 1c55 88bd
00000210: b8ca 7e3c 70af 4b3d 0ce6 403d f79b 13bd
00000220: e2aa 533d af1e 133d 5fa6 d0bc 6062 443c
00000230: ab38 bfbc 7ed6 6bbd 061e 65bc 3236 6a3d
00000240: 4600 403c 7587 353d 2ab1 0a3d a0b8 9e3a
00000250: 3e96 073d b375 85bd 59a8 78bd a3f9 a8bd
00000260: 7b58 b5bd ff88 553d 5a0c 63bd 50d5 6fbd
00000270: a999 6d3b 350b 7abc 1e86 3ebd 973e 4ebd
00000280: 1f2a 19bd 92e7 b9bc d52b 563d 8da7 1f3d
00000290: 08bf d8bc 5c48 d7bd eff5 3abc bc92 933c
000002a0: 352f b7bd 164c ff3c 8d0b 8d3c 239a acbd
000002b0: 2f57 10bd 0eaf 383d d2c9 1c3d beee bf3d
000002c0: ceb8 12bd 0f7c 833d 7af8 243d 6b6b 8e3d
000002d0: 56cc a9bc 2a1d 5dbd f254 43bd 6d68 99bd
000002e0: 79d4 a8bd d2fb 99bd 3747 123b 0203 2c3d
000002f0: 6f56 10bd 086a 703d 3bdb 5abd 4d5a 733d
00000300: 72a1 59bd 1755 e13c 9fff bdbc 7e2d 84bd
00000310: a741 6d3d 4fe7 883d 599b 393d b039 663d
00000320: 8fb0 933d f20d 29bd 8da4 383d ba19 663d
00000330: 1fdd 66bd 8341 b2bc 2d7c 9abd 8916 3b3d
00000340: 9813 933d 8863 233d d23a 41bd aa2e 86bd
00000350: 99d4 6a3c 20fa 8cbd e174 55bc e9b4 b83d
00000360: 56c0 12bd 1aad 483c faf8 a83d e8a5 a5bc
00000370: 53fa 32bd 35e4 493d 1b3f 843d e443 bcbc
00000380: 8831 243d cdcd 833d 9b88 7a3c a035 b83d
00000390: fb92 17bd de85 d1bc bfa9 723d 271a 733d
000003a0: f641 caba 0f8f b0bb e256 15bd d69b 8a3d
000003b0: f238 35bc b7db 51bb 5001 92bc 10e8 533d
000003c0: 63a6 783d 18e8 d9bd 63c6 42bd 9ad8 803d
000003d0: 9aba 053d 8ad7 623d efcc 753d 9e89 5b3d
000003e0: c071 333d 5dca 3f3b 3948 8b3c b5ca 4cbd
000003f0: bf20 a23c cfc9 0a3d ea29 92bc e257 8b3a
-0.0999041 0.03668123 -0.019372124 0.06676632 -0.037346505 0.008842892 0.020493515 0.03234215
-0.07403319 0.04136189 0.033631533 -0.052860044 0.08994047 -0.07086668 -0.004512608 -0.0013122114
-0.053161725 0.0053575994 0.108142756 -0.06445089 -0.05840234 0.019615328 0.012515307 0.050940145
-0.049098108 -0.048369102 0.043819945 -0.08456379 0.00478185 -0.039234217 0.09891613 -0.07130988
-0.01038609 -0.055599507 -0.046461392 0.048263792 -0.05480038 0.026332801 0.020960467 -0.095321245
-0.013892218 -0.0827095 -0.07968917 -0.018652514 0.04443953 -0.053462278 0.041588806 0.040995512
-0.052330725 0.030230457 0.048349448 0.0578912 -0.061127808 0.04515308 0.044496037 -0.07177979
0.051302813 0.022287134 0.025897762 0.0051159384 -0.0076598604 -0.070097476 0.00095494743 -0.048895087
0.09974092 0.02658352 0.0977173 -0.048966967 -0.045134015 0.0056945677 -0.09049118 0.07705812
-0.037798293 0.031748775 0.050261755 0.06888863 0.03804408 8.372667e-05 -0.03032063 -0.049437888
-0.07189592 -0.018079912 0.10546587 -0.011630472 -0.038714286 0.03756872 0.04932291 -0.016739232
0.0005655942 0.07354673 -0.060471646 -0.0030366767 0.08614953 0.029356046 -0.0027610254 -0.081831664
-0.07160815 0.06673368 -0.09888377 0.060911935 0.07061736 -0.04103463 -0.012690588 -0.065458104
0.11754553 -0.016064486 0.08330311 -0.002504562 -0.10529546 -0.030245006 0.10162587 -0.027211295
0.0038352075 -0.101879835 0.058635842 -0.02608404 0.07775886 -0.023410438 0.019215481 0.053695977
-0.05061226 -0.011391311 0.010201538 0.011792595 0.056354214 -0.036854547 -0.079455845 0.043041907
0.043810096 -0.0013517222 -0.09582231 -0.06656858 0.015551262 0.049727857 0.04709439 -0.03603741
0.05167664 0.035917934 -0.025469957 0.011986345 -0.023342451 -0.057577603 -0.013984209 0.05718059
0.011718815 0.044318635 0.033860363 0.0012109466 0.033102266 -0.0651659 -0.060707424 -0.082507394
-0.08854767 0.052132603 -0.0554317 -0.05855304 0.0036254919 -0.015261461 -0.046514623 -0.05035266
-0.037393685 -0.02269343 0.052287895 0.03897815 -0.026458278 -0.10511848 -0.011411174 0.018014304
-0.08944551 0.03116421 0.017217422 -0.08427837 -0.035239395 0.04508882 0.03827841 0.09371708
-0.035820775 0.06420147 0.04027603 0.06954082 -0.020727318 -0.05398289 -0.047688432 -0.07490621
-0.08243651 -0.07518734 0.002232028 0.041995056 -0.03523868 0.05869487 -0.05343173 0.05941229
-0.053132482 0.027506394 -0.023193179 -0.064539894 0.05792394 0.066847436 0.045314167 0.05620736
0.0721141 -0.041273065 0.045078803 0.05617688 -0.05636322 -0.021759754 -0.07543216 0.045675788
0.071814716 0.039889842 -0.047175236 -0.06551869 0.014332914 -0.06883645 -0.013028354 0.09018881
-0.035827957 0.012248302 0.082506135 -0.020220712 -0.04369576 0.0492899 0.06457349 -0.022981592
0.0400863 0.06435738 0.015291358 0.08994603 -0.037005406 -0.025576528 0.059243914 0.059351113
-0.0015431035 -0.0053881477 -0.03645981 0.067680046 -0.01106094 -0.003202183 -0.017822891 0.051734984
0.060705554 -0.106399715 -0.047552478 0.062913135 0.03264866 0.055381335 0.060009893 0.05359804
0.043809652 0.0029264905 0.017002212 -0.049998004 0.019791005 0.033883866 -0.017842252 0.001063105

blocks.1.causal_conv.bias f4 [64]
00000000: 7cc7 dabd 9566 1f3e 6a98 a23d 546d a2bd
00000010: d9c1 e0bc 219e b83d 27ac 06bd 0ab5 aebd
00000020: 7216 2cbd 7098 a13d ddac 973c 90a3 5d3d
00000030: 5ef7 673e 31eb 2a3e 579d 47bd b6b8 30bb
00000040: c9e2 bcbd 00e0 783d 2f58 423c d44c 13be
00000050: 58cb 0abd e964 e83c bddd 25bd beef 31bd
00000060: 86ab be3c a035 c63d ae46 0abb 0b30 5fbc
00000070: 6dc3 743d e241 39be 649a 843d 2735 c13b
00000080: 7a6d 8f3c 22a9 32be 833f 3f3d 2b4c ae3d
00000090: e393 21bc 38d0 ddbd 5bbf 553c def9 b3bc
000000a0: abc5 2ebe cc0b f9bd 0912 08be 9024 2c3d
000000b0: 1092 043d d001 e33d a013 98bd 2c2d 833d
000000c0: 9fc5 59bd 905e e83d 5eb0 50be 3a86 73bd
000000d0: bfa9 96bd 466f 5abd ddc3 83bc 7414 093c
000000e0: 2104 1abe a259 3abc 6e2a 47bc db50 0dbd
000000f0: 0d39 6fbd 36c4 98bc d5f9 c03d 26b5 52bd
-0.1068258 0.15566476 0.07939227 -0.07931009 -0.027436184 0.09014536 -0.03287902 -0.08530624
-0.042013593 0.07890403 0.018515045 0.054111063 0.22652957 0.16691281 -0.048734035 -0.0026965565
-0.09222943 0.060760498 0.011861845 -0.14384776 -0.03388533 0.02836843 -0.04049467 -0.043441527
0.023275148 0.09678197 -0.0021099257 -0.013622294 0.059756685 -0.18091539 0.0647476 0.005896229
0.017508257 -0.17447332 0.04669143 0.08510622 -0.009861919 -0.1083073 0.013046111 -0.021969732
-0.17067592 -0.12160453 -0.1328813 0.042027056 0.03236586 0.1108433 -0.07425618 0.064051
-0.05316698 0.11346161 -0.20379779 -0.05945418 -0.07356595 -0.053328775 -0.016084606 0.008366693
-0.15040638 -0.011373909 -0.012156112 -0.034500938 -0.058404017 -0.018648248 0.09422652 -0.051442288

blocks.1.residual_conv.weight f4 [64, 64, 1]
00000000: 5bb8 26bd 5044 ddbd 08f9 743d 1111 3c3e
00000010: be69 c5bc a5ea 30bb 1f52 1c3b 4058 3ebd
00000020: c083 073e 25be 313d 1957 d4bd 01a4 773d
00000030: ee02 d1bd 478d bc3d 0c3f 8f3d 4df4 6a3d
00000040: c670 62bc 91a9 273d ebe3 0e3c b1d5 0e3d
00000050: 3f8d af3d 807f 2bbd 2a03 94bd 8a5b 8dbd
00000060: 4e3f e1bd 8d1e aa3d bbac d7bc 18d0 463c
00000070: 89ad 403d 1264 673d e3d1 c23d af25 873d
00000080: 2bfa 1d3d 1a8c a73b 64e3 9abd 8190 19be
00000090: 8950 5f3d eec3 82bd 422f 183d b64a 893c
000000a0: 4444 b4bd 8dd2 f73d 987a d33d f863 093d
000000b0: 85a1 013e 335a 4abd 0da9 1e3d 8f68 d3bd
000000c0: 4aed c8bd 7994 fabd 8db4 cfbd 2e30 003e
000000d0: 14d6 c03c a4f7 053d 78fc c03d c0f8 69bd
000000e0: 7fc3 b63d 4de5 c13d d15e 6c3d b8f1 da3d
000000f0: d57c d73d f60e 7ebd 6650 dcbb e555 38bc
00000100: d094 8dbb 1878 f23d f821 d3bd bf34 893d
00000110: 25b7 83bc 5697 093e 7070 db3b ba56 793d
00000120: 2b60 3a3c 5e1e e73c 96a2 7bbd 4860 f8bd
00000130: a8c0 16bc 3131 97bd ed2a 64bd faa1 1a3d
00000140: 9c15 32bd 22e7 9fbd eefd f1bc 953a e13d
00000150: c9f7 003e 4975 f7bd d0a0 91bd 6ee0 eabc
00000160: 148e e13c d8fe cbbd b0c1 643d 2f19 fabd
00000170: a4bc e4bd 22f8 903d 6b6a 1bbd 6829 bdbd
00000180: c5bc 9c3c 0777 0b3d 5e85 17bd 0ceb 38bd
00000190: 662e 523c 32c7 033e 6438 47bd 9481 63bd
000001a0: 052a 08be 0232 babd 7da5 81bd e2b3 a3bc
000001b0: 96c2 eebd e73e d7bd 0613 bfbc c18f f2ba
000001c0: 4e51 e63d 91df f2bc 4519 a53d d7e0 523c
000001d0: bc6f 2dbc f169 dcbd 5623 a93d 19e7 77bd
000001e0: 9a9f 883c 1148 e13a 3003 a9bb 1b59 c73b
000001f0: 66f1 433d da80 c4bd 93f0 e33d e0ad edbd
00000200: 562e 883c 2396 073e 8edf aa3c e2c1 913d
00000210: 260d f13c 0911 d03d bd4c f1bd a335 393d
00000220: 9631 efbc 7527 b63d f9e9 10bd 29a7 2a3d
00000230: 4c14 f4bd 66dc 22bd 20b2 1bbb 60bf a13d
00000240: b39a 50bd 7aa9 1e3c ac07 b1bc 0d85 e23d
00000250: 0e5c 013d eab1 5a3d 0500 06be f9e2 f5bd
00000260: 87ac 323d 05b8 86bd 027b f33d 736b f7bd
00000270: 6b82 9e3d f692 94bd 63b5 303c 8e6c 97bd
00000280: b4c5 abbd f0a0 8dbd 5815 3fbd 6cc8 2fbd
00000290: 3519 c8bd e842 ef3c 8be9 f13d e796 f9bd
000002a0: 15f6 b33d 99e8 a73b 8656 ff3c 0cbe 05bd
000002b0: 891b 63bd 1720 c5bb c5e0 d03d 1003 b23c
000002c0: d1d3 4abd 1cab d13c 8adb 70bc f7f9 b63d
000002d0: 0813 a73d 8557 673d 5aa7 94bd dd4e b6bd
000002e0: 8c3a 3a3d 205c 033c 2dfd d2bc 9103 a3bd
000002f0: 6b37 dabd a2aa f9bd 0624 a03d 3568 273d
00000300: 64ea aabd e6e5 fbbc b0ab 30bc 1875 603d
00000310: aefa 953d 3305 223d 1a8b b6bd 2b52 86bd
00000320: b8ca 4bbc ea57 83bd a5fa c93d 45ee 93bc
00000330: fc46 173e 8688 3ebd 0bef b6bd 3145 0a3c
00000340: 47fb a2bd d4af 953a b794 e63c 14d6 90bd
00000350: fc1a 833c a8df cebc 1d2d 603d 6099 a6bd
00000360: 5dc7 08be f5a5 c13d 2142 c1bd 8e14 8ebd
00000370: 5eab 6aba a5af 40bd bae2 923d 891f d53c
00000380: d9cc a73d 8f82 eabb a9a7 073e da11 37bc
00000390: a9e2 a2bd c4ad 83bd ebd9 9d3b 2e87 51bd
000003a0: f551 b0bc 888f bc3d 048c abbd 058f e73c
000003b0: a819 fc3d a88f a13d b853 bfbc bd35 053e
000003c0: d19d 68bd 2876 e23d 4cd1 5dbd 532c b1bc
000003d0: eccd 823d 956d febd f0b7 a63d 0995 ddbc
000003e0: 8203 f1bd e7c8 95bc caba debb 04c7 84bd
000003f0: 4778 a53d 7821 0b3e 966e f4bb fa17 3b3d
-0.04070316 -0.10804045 0.059807807 0.18365885 -0.024098273 -0.0026995328 0.002385266 -0.04647088
0.13233852 0.043394227 -0.10368175 0.06045914 -0.10205637 0.09206634 0.06994447 0.05736189
-0.013820833 0.040933196 0.008721332 0.03487176 0.085718624 -0.04186964 -0.07227166 -0.06902225
-0.109984025 0.08306608 -0.026327481 0.012134574 0.047040496 0.05649192 0.09512689 0.065989845
0.038568657 0.005113137 -0.075629026 -0.1499653 0.054520164 -0.06385027 0.037154444 0.016759258
-0.08802083 0.12100706 0.10326117 0.033542603 0.12659271 -0.049402427 0.03873544 -0.10322677
-0.09810884 -0.1223535 -0.10141859 0.12518379 0.02353958 0.03270687 0.094231546 -0.057121992
0.08924007 0.09467564 0.05770761 0.106906354 0.10521857 -0.062025987 -0.0067234514 -0.011250948
-0.0043207183 0.11839312 -0.103092134 0.06699514 -0.016078541 0.13436636 0.006696753 0.060873725
0.011375467 0.028212722 -0.06143435 -0.12127739 -0.009201206 -0.073824294 -0.055705 0.03775213
-0.04347764 -0.07807757 -0.029540028 0.10997502 0.12594523 -0.12082917 -0.07110751 -0.02867147
0.027533568 -0.09960717 0.055848777 -0.12211835 -0.11168793 0.070785776 -0.037943285 -0.09236413
0.019132981 0.03404906 -0.036992423 -0.045146033 0.012828445 0.12868956 -0.048637763 -0.055543497
-0.13297279 -0.090915695 -0.063303925 -0.019983236 -0.11658208 -0.105100445 -0.0233245 -0.0018505977
0.112459764 -0.02964762 0.080614604 0.012870989 -0.010585722 -0.10762394 0.08258693 -0.060523126
0.016677666 0.0017187615 -0.0051578507 0.0060836202 0.047837637 -0.09594889 0.1112987 -0.1160543
0.016623657 0.13240866 0.020858552 0.07117058 0.029425215 0.10159499 -0.11782215 0.045217168
-0.02919845 0.088942446 -0.035379384 0.041663323 -0.11917934 -0.03976097 -0.0023757294 0.0789783
-0.050928783 0.009683961 -0.021610104 0.11060534 0.03158193 0.05339233 -0.13085945 -0.12006182
0.043621566 -0.06578068 0.11888696 -0.12081041 0.07739719 -0.07254593 0.010785433 -0.07393752
-0.08387318 -0.06915462 -0.046651214 -0.042915747 -0.09770433 0.029206708 0.11812123 -0.121869855
0.08787171 0.0051241633 0.031169187 -0.032651946 -0.05544618 -0.0060157883 0.101991214 0.021729976
-0.04951841 0.025594287 -0.01470078 0.08934396 0.08157927 0.05647995 -0.07258482 -0.08901761
0.04546599 0.00801757 -0.02575549 -0.079596646 -0.106551014 -0.12190749 0.07819371 0.040870864
-0.08345488 -0.030749273 -0.010783121 0.05479917 0.07323204 0.03955574 -0.0891325 -0.06558641
-0.012438469 -0.06413253 0.0986226 -0.018057952 0.14773172 -0.046516918 -0.089323126 0.008439348
-0.079580836 0.0011420199 0.028147085 -0.07072082 0.016004078 -0.025253132 0.054730523 -0.08134723
-0.13357301 0.09455482 -0.09436441 -0.06937514 -0.00089519273 -0.047042508 0.07172151 0.026016014
0.081933685 -0.007156677 0.13247551 -0.01117369 -0.07953388 -0.064296275 0.0048172376 -0.051154308
-0.021523455 0.09207064 -0.08376315 0.02826644 0.12309581 0.078887284 -0.02335535 0.13008781
-0.05679113 0.11057693 -0.05415468 -0.02162758 0.06386933 -0.12423245 0.08140552 -0.027048605
-0.11768247 -0.018284274 -0.0067971693 -0.06483272 0.08079582 0.13586986 -0.007459472 0.045677163

blocks.1.residual_conv.bias f4 [64]
00000000: 1a82 05bd ba4c 6e3c 6feb 943c 146e 8c3d
00000010: 3d9c 0bbe 7553 5bbb e0dc f53c 9063 27bb
00000020: 36b8 3b3d 55d7 303e cdab 033d 9c53 123c
00000030: f4ce a33d e579 eb3c b13f 833e 6f54 c83d
00000040: 3b86 8dbe 5191 8cbe e7de b83d beb9 b83d
00000050: 0424 c03e 60ee cf3d 745a 64bc 16ba c8b9
00000060: edaf e2bd c7cc d0bd cc04 9dbe 2079 ef3a
00000070: c9e5 d2bd c1e1 f53c c321 063e 94a6 363d
00000080: 9706 dcbc ee47 15bd 5a4a ff3c 1658 6d3c
00000090: e7e2 0cbe ca80 a53c c05e 013c 23de 8e3e
000000a0: 330f 683d 77ee 2e3d d206 fd3d 3e01 b1bd
000000b0: 9085 b93d 007d 80bd 03c7 c43c 7e7e eb3c
000000c0: fb82 583e 1d85 8bbd 13fc b5bd d602 7b3d
000000d0: ef24 023e 080c 50bd 466d d73d e035 c8bc
000000e0: a675 1b3d d108 2bbe 9020 2e3c 42c7 823c
000000f0: 7fe3 13be 9eaa 15bd ea38 f73c bf73 1abe
-0.032594778 0.01454466 0.01817867 0.06856933 -0.13633819 -0.0033466492 0.030012548 -0.0025541522
0.045829974 0.17269643 0.032146264 0.008931067 0.079984576 0.028744647 0.2563453 0.097817294
-0.27641472 -0.27454618 0.0902689 0.090198025 0.37527478 0.10152888 -0.013937581 -0.00038285617
-0.110687114 -0.10195308 -0.30667722 0.0018270351 -0.10297734 0.030014874 0.13098817 0.044592455
-0.026858611 -0.03644555 0.031163383 0.014486333 -0.13758431 0.020203013 0.007896125 0.27903852
0.05665512 0.042707887 0.123548165 -0.08642815 0.09058678 -0.06273842 0.024020677 0.02874684
0.21143715 -0.06812499 -0.0888597 0.061282 0.12709402 -0.050792724 0.10518889 -0.024439752
0.037953995 -0.16702582 0.010627881 0.015964154 -0.14442252 -0.036539666 0.030178506 -0.15083216

blocks.2.causal_conv.weight f4 [64, 64, 2]
00000000: 1d1c caba a154 0fbe c6e1 e83c 5299 00bd
00000010: d625 073e 9c37 f43c 5ade e1bc 8bf1 873d
00000020: da57 96bd bdfb adbd 7f0d 9c3d bd20 c73d
00000030: 4d04 6cbc 29e4 283d 2886 5cbb 00e1 933d
00000040: c9e7 9abb 3b37 13bd 76bc 1bbe e17a cfbd
00000050: ef88 483d f01a 1d3d aa7b 503d f9e4 593d
00000060: edc0 5dbc 4ff3 7abd 3636 f73d 9440 d73d
00000070: 00eb a6bc 9310 be3d 41e2 543d 6108 9c3d
00000080: 5ac2 abbc fbc3 95bd a81e e63d 8df9 10bd
00000090: ca50 9cbc 4b75 55bd 28c1 dbbc ea39 e8bc
000000a0: e29c 87bd e512 b63d 9a38 28ba 8271 813d
000000b0: 2113 2a3b 7c67 18bd 1cff 903d 9014 cbbc
000000c0: 1809 51bd 2e2d abbd fcc7 b8bd cdfc debc
000000d0: da08 873d 0efd 73bc d5b2 1b3d be94 8abd
000000e0: d887 4cbd aa05 99bd 37ee 85bd 9614 853d
000000f0: 5d46 dabd ffa7 54bd 50f3 833d 8d3b 54bd
00000100: 138a 603d c83b fdbc 154c f6bd eb2e 2b3d
00000110: a1d0 163c ca5c 003c 323e 323d b7e9 9cbd
00000120: e8c0 9d3c 1916 e53c 61ea f93c 3ca1 33bd
00000130: c699 e5bd d5a9 7abb 80d4 c33d 6964 c23c
00000140: a75f 023d e5ce 983d 26bb 9c3c eabb 723c
00000150: 0af5 5e3d 001b 463d ecb4 d7bd 3179 cb3d
00000160: dd98 0c3d 2247 84bd 6f39 6d3d 542b 633d
00000170: 7546 ba3b cd3e a8bd 8e16 2bbd 85f2 eebc
00000180: b6cc 8d3d 0a0d cdbd 570b 873d 33b8 173c
00000190: 576b 833c 0054 b2bc dd26 bbbd 47e4 8bbd
000001a0: 5ed1 e4bc d57a 703c 4375 bdbd 3819 643d
000001b0: c88c 893c a6bd 1cbd 44db 00be 6720 6bbd
000001c0: 6f60 073d 16c5 c1bd d06d 353d 7ffc 673d
000001d0: 76d5 07bd 0d04 343b 7479 003c c81d 98bd
000001e0: 787b 5ebd 1290 9abc 1257 e13c c27b 0fbd
000001f0: 2681 a2bd 7d41 3d3d 7ac1 1fbd 3df8 503d
00000200: b0ef 5b3d 6aef a3bc e578 ebbc 5ac1 593c
00000210: 8e29 abbd ca9d ad39 f6d2 77bd 48f6 5abd
00000220: ab31 a53d bc5f a73b 4163 943d 1ed2 d23c
00000230: 26f3 8ebd e1eb 2cbc bdcf a53d 0572 533c
00000240: 2bef 87bd a14b 023d 79c5 123c 5ce2 dc3c
00000250: c651 1dbd fab7 b83d a875 94bd 6202 f3bd
00000260: c184 d7bd e464 783b 5ed9 96bd 642f d2bd
00000270: 994a 1bbd 33b8 81bb 4d8b 8dbd a4ce 11bd
00000280: 2966 f2bd 64ac 223d 8f0c 66bd c61c 673c
00000290: dcfb c33c 290b 933c 69a1 30bc af59 8c3d
000002a0: bd71 c7bd 1163 8ebc a868 aabd 1218 67bd
000002b0: b40b 42bd 76f2 063e 3079 573d b6de 8f3d
000002c0: be2b abbc 6839 1a3d 0b4f 8b3d 4e2d 8b3d
000002d0: 8028 68bb feaf 883c 7ee3 3dbd 6ab8 e63d
000002e0: 0d30 743d 7b62 babd 6ace 943d 045d 783d
000002f0: 0bf4 033d 2927 d4bb 1e0c e8bc 44c1 663c
00000300: d3f8 953c cd37 693d a6c8 99bc fbf0 a23d
00000310: f15e 18bb ec97 e93d 4bfa c3bd 2058 0d3d
00000320: 4d09 0f3d f4fb f03a e64c 513d d8db f23c
00000330: c2fa 6cbd 4b79 2a3d 9faf 7dbd c1a9 423b
00000340: ac61 7ebc 0250 adbd 18b2 ed3d 90de 1d3d
00000350: 1923 33bd f15b 6b3d 921b 69bd 5194 d93d
00000360: 503d babb 2aea b43d cc5d cabd a6d8 e3bc
00000370: fd61 92bc a3b1 e03b 9dbd 24bd de4a 9fbd
00000380: 85b7 56bd 7c27 0fbd 9b04 523d 98cc 39bb
00000390: 2f1c 343d fa1e eb3d a107 b33b bf4e a63d
000003a0: 055b f8bd c999 80bb 9136 71bc 1ca0 373d
000003b0: c706 7b3d fcce 84bd 9f5e b7bc 4172 fb3d
000003c0: ebd4 983d 14ba 703d 7f67 69bc 3278 8cbd
000003d0: f586 603d 148b 9ebd 8421 11bd d18b d73c
000003e0: 3b38 2d3d 2737 b13d 4619 cfbc 3034 e0bd
000003f0: 2a08 a8bd 2a5f 0b3d d451 f53c 16d9 bb3d
-0.0015419755 -0.13997127 0.02842797 -0.031396218 0.13198027 0.029811673 -0.027571846 0.066378675
-0.07340975 -0.08495281 0.07619762 0.09723041 -0.014405322 0.041233215 -0.00336493 0.0722065
-0.004727338 -0.035941344 -0.15208611 -0.10130859 0.048958715 0.038355768 0.050899185 0.05319688
-0.013534767 -0.061267193 0.12070887 0.10510364 -0.020375729 0.09280505 0.051973585 0.07618786
-0.020966697 -0.07312771 0.11236316 -0.03539424 -0.019081492 -0.052113812 -0.026825503 -0.028347928
-0.0662172 0.088903226 -0.00064171257 0.06320478 0.0025951343 -0.037208065 0.07079908 -0.024790078
-0.051034063 -0.08358227 -0.09022519 -0.027220154 0.06593485 -0.014891876 0.038012344 -0.067666516
-0.04993424 -0.074717835 -0.065395765 0.06498067 -0.10657952 -0.051918026 0.064428926 -0.051814605
0.054819178 -0.030912295 -0.1202623 0.04179279 0.009205014 0.007834623 0.043516345 -0.07661765
0.019257024 0.027964639 0.030507268 -0.043854937 -0.112109706 -0.00382482 0.095620155 0.02372952
0.031829502 0.07461337 0.019132208 0.01481531 0.054432906 0.048365593 -0.10532555 0.09935225
0.03432547 -0.0645888 0.0579161 0.055461243 0.0056846687 -0.08215103 -0.041769557 -0.029168377
0.06923811 -0.10012253 0.0659396 0.009260225 0.016042395 -0.02176857 -0.09138272 -0.0683065
-0.027931865 0.014677723 -0.092508815 0.055688113 0.016790763 -0.0382668 -0.12583643 -0.05740395
0.03305095 -0.09461419 0.04429418 0.056637283 -0.033162557 0.0027468235 0.007841457 -0.07427555
-0.054316968 -0.018867526 0.027507339 -0.035030134 -0.07934789 0.046205033 -0.039002873 0.05101799
0.05369538 -0.020011622 -0.02874417 0.0132907275 -0.08357535 0.00033114693 -0.060503922 -0.05345753
0.08066114 0.005107848 0.07245494 0.025734957 -0.06979971 -0.010554285 0.080962636 0.012905602
-0.066374145 0.031810407 0.008958214 0.026963405 -0.038408063 0.09019466 -0.07249004 -0.11865689
-0.10523368 0.0037901932 -0.07365678 -0.10262945 -0.03791294 -0.003958726 -0.06911335 -0.03559746
-0.11835892 0.039715186 -0.05616432 0.014105981 0.023923807 0.017949658 -0.010780671 0.06853043
-0.09738491 -0.017381223 -0.08320743 -0.05641944 -0.047374442 0.13178429 0.052605808 0.070249006
-0.020894881 0.037652403 0.068021856 0.067957506 -0.003542453 0.016685482 -0.04635953 0.11265643
0.059616137 -0.09100815 0.07265933 0.06063558 0.03221516 -0.006474395 -0.02832609 0.014084164
0.018307125 0.05693798 -0.018772434 0.079561196 -0.002324995 0.1140593 -0.09569224 0.03450787
0.03492098 0.0018385635 0.051098727 0.029645845 -0.05785633 0.04161958 -0.061935063 0.0029703232
-0.0155262165 -0.08462526 0.11606234 0.03854233 -0.043734644 0.05746073 -0.05691106 0.10623992
-0.0056835786 0.08833726 -0.098811716 -0.027813267 -0.01786899 0.0068571134 -0.04021989 -0.07777952
-0.05242111 -0.034949765 0.051273923 -0.0028350707 0.04397219 0.11480518 0.005463556 0.081204884
-0.121267356 -0.0039245826 -0.014722482 0.044830427 0.06128576 -0.06484792 -0.022383986 0.122776516
0.07462486 0.058771208 -0.014245867 -0.06858863 0.054816205 -0.07741371 -0.035432354 0.026311787
0.042289954 0.086530976 -0.025280606 -0.10947454 -0.08204682 0.034026302 0.029946245 0.09172265

blocks.2.causal_conv.bias f4 [64]
00000000: a715 b23d 50c6 feb9 7e1c 243c f681 b03d
00000010: e561 19be 3714 b9bc c613 8c3d 707f 273d
00000020: 174e a3bd e84e d63d 8750 e9bd fd50 313d
00000030: 3c81 153e 3c83 c3bd 2212 2ebd 6c14 663d
00000040: 3088 363e e5a7 f2bc fab7 a33e fa58 1f3e
00000050: 23d5 5e3d 9aa6 763e 3844 1fbe 3dd5 d9bd
00000060: 750f b23c 9a76 23be fad6 273b f50f 92bc
00000070: 62bd 66bd 8301 e43d 67bc b2bd 072f 2bbc
00000080: 0916 5f3d 2146 443d d473 f63d 27dd 8bbd
00000090: 9d1b 5b3d df3c 57bd c0dc 8dbd b41e 01bd
000000a0: 0bc5 293e 8856 173e bd90 2ebe bf0d e73d
000000b0: 5c3d 2f3d 02cc 443d 2a8b aabd 5ff0 69bc
000000c0: 5474 b9bd 1c67 2d3e b98c 9abd 3d40 0ebd
000000d0: c68b 4d3b c812 9ebc 7e6a b33d 6e4b c93a
000000e0: 3cfb b03d 55b5 a8bd 9b0f ffbc 5bdc 073e
000000f0: 38e5 aabd 6091 73be cb07 e53d 9389 913d
0.08695536 -0.0004859441 0.010016559 0.08618538 -0.1497875 -0.022592647 0.06839709 0.04089302
-0.07973879 0.10464269 -0.113923125 0.043290127 0.1460008 -0.09546515 -0.04249776 0.05617182
0.17825389 -0.029621074 0.319763 0.15561286 0.05440248 0.24086991 -0.15553367 -0.10636375
0.021735886 -0.15963212 0.0025610314 -0.017829875 -0.056332953 0.11133101 -0.08727341 -0.010448224
0.054464374 0.047918443 0.12033811 -0.06829291 0.05349313 -0.052548286 -0.0692687 -0.03152342
0.16579072 0.14779103 -0.17047401 0.11281919 0.042783126 0.04804612 -0.08327325 -0.0142785
-0.09055391 0.16933864 -0.07546372 -0.03472923 0.003136383 -0.019296065 0.08760546 0.0015357563
0.08641669 -0.08237711 -0.031135371 0.13267653 -0.08344501 -0.23785925 0.11183127 0.07106318
