model_checkpoint/shubhranil/model_best_SlidingWindowWaveNet_mse_tricep.pth (torch, 425013 bytes, 25 tensors)

input_conv.weight f4 [64, 6, 1]
0.109070614 0.3653718 0.35257316 -0.030254649 -0.24652116 -0.31693038 0.3699325 -0.07457836
0.07420487 -0.055601884 0.17304395 0.04360042 0.21268623 0.10688424 -0.026775224 0.213319
0.07537257 -0.10624049 -0.17940052 -0.124302015 -0.0009325772 0.10986257 0.31865573 0.08900756
-0.0023268093 -0.052510586 0.038149178 0.19685163 0.061170597 -0.3337785 -0.23494413 -0.13669395
-0.08316697 0.18182552 0.14747527 0.09324506 0.009171314 0.33933717 -0.25795677 0.13061841
0.19311437 0.30473232 -0.30972376 0.2663702 -0.13157904 0.10988495 0.18372013 0.12986523
-0.34949374 0.31452963 0.08074522 -0.33772245 -0.16556905 -0.377245 -0.115433566 -0.28243053
-0.16856472 0.097283125 -0.0056039602 0.10570014 0.40043336 -0.3767813 0.034088317 0.2183987
0.062147334 -0.2098123 -0.37502685 0.36416775 -0.08843711 0.13533106 0.33316246 -0.064777136
-0.3309115 -0.13792168 -0.16468334 -0.36026898 0.06466187 0.01522816 -0.11368373 -0.31145775
-0.33896926 0.056211222 0.026468312 0.12141731 -0.0445012 0.30294535 0.028897012 -0.29254183
0.3345648 -0.207231 0.07637293 0.27288678 0.14659719 0.36500162 0.16410565 -0.18403138
-0.22034557 -0.2960432 0.07370714 -0.056797735 0.026212348 -0.1199445 -0.3913153 -0.35416275
-0.1778814 0.1759949 -0.27875295 0.30203158 0.38155615 0.16389258 -0.36509636 0.035603464
0.37466046 -0.1279117 0.05737443 -0.009752582 -0.15424964 -0.08719831 0.0485366 -0.056844346
-0.103002295 -0.111536294 -0.07570903 -0.23313719 0.060006455 0.17252833 -0.09130079 -0.19810675
0.23304565 -0.22143443 -0.13594551 0.3252913 -0.25920612 -0.008947228 -0.27364835 -0.21487379
-0.2906708 0.17213163 -0.029014058 -0.20249535 -0.270605 0.325636 -0.29143107 0.15487668
-0.062422194 -0.33915478 -0.10975914 -0.0028678193 0.2903826 -0.14773871 0.21482053 0.11415635
-0.27190605 -0.37999487 0.041218545 -0.31364956 0.23872367 0.39034268 -0.24243088 0.07543672
-0.31444508 -0.10867227 -0.15832719 -0.27729067 0.28085664 -0.37924042 0.049660116 -0.06914478
-0.37515166 -0.048174016 -0.05983767 0.15566672 0.037265018 0.3692312 0.2063262 0.08832183
0.2041664 -0.32733336 -0.0691272 -0.10759824 -0.038751982 -0.00090348074 0.11084391 0.0892538
0.17828904 0.007691166 -0.34066173 -0.19954546 -0.34704202 -0.21824726 -0.06891603 -0.038452324
-0.20913342 0.40684003 0.008613801 0.23761736 -0.26006505 0.2579923 0.16865046 -0.26938534
-0.3455149 -0.20262581 -0.3863224 -0.3184632 0.08454025 -0.008574952 0.0010273892 -0.18259305
0.119586036 -0.25276685 0.044081777 -0.032775264 -0.012868086 0.1707803 -0.03720654 0.13742954
-0.2697852 0.31447682 -0.05925922 0.05275251 -0.18525654 0.13467626 0.039638452 -0.20789166
0.3529671 0.032982804 0.16192794 -0.10849657 -0.25928718 -0.07337234 0.3167605 0.083279856
-0.064550966 0.19462696 -0.25682056 -0.25597954 0.21665888 0.046341784 -0.049810193 0.20375112
0.17694283 0.058034714 0.13633956 0.13977481 -0.26170865 0.2634527 -0.070555285 0.21482906
-0.0025292996 -0.140813 -0.12907445 -0.2727955 0.37802085 0.18110807 0.11227045 -0.35948214
00000000: 6a60 df3d 0312 bb3e 7884 b43e 99d8 f7bc
00000010: 0b70 7cbe b344 a2be cb67 bd3e 8abc 98bd
00000020: b9f8 973d cdbe 63bd 6f32 313e 5b96 323d
00000030: 6bca 593e 20e6 da3d b757 dbbc 4c70 5a3e
00000040: ef5c 9a3d 9d94 d9bd c5b4 37be 0e92 febd
00000050: 3278 74ba a1ff e03d d826 a33e 9849 b63d
00000060: 627d 18bb 5715 57bd 5042 1c3d 7993 493e
00000070: 058e 7a3d 04e5 aabe 3295 70be 80f9 0bbe
00000080: 7253 aabd 7830 3a3e c203 173e 44f7 be3d
00000090: 4743 163c 9abd ad3e e912 84be d5c0 053e
000000a0: c6bf 453e e005 9c3e 1d94 9ebe ad61 883e
000000b0: a8bc 06be 5c0b e13d 2121 3c3e 64fb 043e
000000c0: d8f0 b2be 070a a13e c05d a53d f5e9 acbe
000000d0: ef8a 29be 4226 c1be 6f68 ecbd bc9a 90be
000000e0: 3b9c 2cbe 603c c73d 6da1 b7bb 5179 d83d
000000f0: 9a05 cd3e 7be9 c0be 31a0 0b3d e9a3 5f3e
00000100: 348e 7e3d 09d9 56be 8503 c0be 3274 ba3e
00000110: 841e b5bd 3a94 0a3e 4594 aa3e e0a9 84bd
00000120: 3b6d a9be 573b 0dbe c0a2 28be 2d75 b8be
00000130: 716d 843d 887f 793c 04d3 e8bd 6477 9fbe
00000140: 618d adbe bd3d 663d 13d4 d83c a3a9 f83d
00000150: e446 36bd a71b 9b3e 6db9 ec3c 0bc8 95be
00000160: 144c ab3e 5d34 54be 6969 9c3d d1b7 8b3e
00000170: 931d 163e 7ee1 ba3e 500b 283e b972 3cbe
00000180: 45a2 61be f992 97be c5f3 963d bea4 68bd
00000190: 47bb d63c 76a5 f5bd 7b5a c8be d254 b5be
000001a0: 8b26 36be 0238 343e b5b8 8ebe e2a3 9a3e
000001b0: 545b c33e 75d3 273e e9ed babe f0d4 113d
000001c0: 7fd3 bf3e 49fb 02be 7301 6b3d 4bc9 1fbc
000001d0: 9ef3 1dbe 0795 b2bd 50ce 463d 9ed5 68bd
000001e0: def2 d2bd 246d e4bd 560d 9bbd 84bb 6ebe
000001f0: 54c9 753d 44ab 303e e9fb babd 7fdc 4abe
00000200: 85a3 6e3e b5bf 62be 4d35 0bbe 958c a63e
00000210: aab6 84be 6597 12bc a31b 8cbe e007 5cbe
00000220: ced2 94be 4643 303e e4ae edbc f15a 4fbe
00000230: bd8c 8abe c3b9 a63e 7436 95be fe97 1e3e
00000240: 6aae 7fbd b2a5 adbe 66c9 e0bd 06f2 3bbb
00000250: 07ad 943e d148 17be eaf9 5b3e ceca e93d
00000260: 4537 8bbe b08e c2be c7d4 283d ad96 a0be
00000270: fa73 743e ffda c73e cd3f 78be 917e 9a3d
00000280: f2fe a0be 918f debd 8620 22be 0bf9 8dbe
00000290: 71cc 8f3e cd2b c2be 6868 4b3d c79b 8dbd
000002a0: e113 c0be 1e52 45bd 5818 75bd 1967 1f3e
000002b0: 34a3 183d df0b bd3e 2d47 533e 13e2 b43d
000002c0: ff10 513e 3d98 a7be 9092 8dbd 775c dcbd
000002d0: 66ba 1ebd 91d7 6cba 2202 e33d b2ca b63d
000002e0: 6791 363e 2d06 fc3b 376b aebe a555 4cbe
000002f0: 7eaf b1be 367c 5fbe d923 8dbd 2f80 1dbd
00000300: 1227 56be 564d d03e e620 0d3c f751 733e
00000310: 3f27 85be 9117 843e b5b2 2c3e e0ec 89be
00000320: 54e7 b0be 247d 4fbe 0dcc c5be 9c0d a3be
00000330: 7023 ad3d f57d 0cbc 76a9 863a acf9 3abe
00000340: 86e9 f43d a86a 81be 188f 343d 5b3f 06bd
00000350: aad4 52bc 08e1 2e3e e365 18bd 54ba 0c3e
00000360: 4921 8abe 1b03 a13e ccb9 72bd 0413 583d
00000370: e4b3 3dbe 93e8 093e ee5b 223d 8de1 54be
00000380: 1bb8 b43e fa18 073d 70d0 253e 7333 debd
00000390: 4ac1 84be 3d44 96bd 6f2e a23e a18e aa3d
000003a0: 4c33 84bd 4a4c 473e fc7d 83be c00f 83be
000003b0: d3db 5d3e e2d0 3d3d c605 4cbd 22a4 503e
000003c0: 8030 353e cfb5 6d3d 999c 0b3e 2121 0f3e
000003d0: adfe 85be 46e3 863e 4a7f 90bd 26fc 5b3e
000003e0: 9bc2 25bb 4831 10be 182c 04be daab 8bbe
000003f0: f38b c13e 6574 393e 0dee e53d 0b0e b8be

input_conv.bias f4 [64]
0.40088832 0.23176809 -0.2003019 -0.37707606 0.03587169 -0.2193744 -0.11633538 -0.09646846
0.2137708 -0.11698191 -0.19334349 -0.24094145 0.07202159 -0.31658712 -0.38328746 0.10578723
-0.29824 -0.036494568 0.09134968 -0.0034067084 -0.36508882 -0.390719 0.21043435 0.045778047
-0.0091941105 0.0016390764 -0.19705558 0.059447806 0.3391511 -0.032655977 0.13062991 0.067459114
0.16922463 0.17388454 -0.3695873 -0.0988545 0.0982219 0.12927966 0.30001798 0.0961086
0.19863503 0.34597945 -0.2067669 -0.26034963 -0.37179416 0.25640818 0.12072464 -0.36827424
-0.3351781 0.13786983 -0.4075444 -0.39876494 0.0035667156 0.27587938 -0.23862796 0.2848034
-0.13512185 0.13752255 -0.40192312 -0.013111053 0.014694601 0.0952148 -0.06018722 -0.18050782
00000000: 3c41 cd3e 9d54 6d3e f11b 4dbe 1d10 c1be
00000010: 31ee 123d afa3 60be 3e41 eebd 4291 c5bd
00000020: bce6 5a3e 3694 efbd d6fb 45be 5bb9 76be
00000030: 0e80 933d b517 a2be 413e c4be faa6 d83d
00000040: eab2 98be 547b 15bd 8b15 bb3d 1543 5fbb
00000050: ecec babe 520c c8be 1a7c 573e c381 3b3d
00000060: e5a2 16bc 47d6 d63a f0c8 49be 8b7f 733d
00000070: 37a5 ad3e 46c2 05bd d9c3 053e 0128 8a3d
00000080: 3949 2d3e ca0e 323e 8c3a bdbe 3a74 cabd
00000090: 9028 c93d e361 043e f59b 993e 96d4 c43d
000000a0: fb66 4b3e 3824 b13e b4ba 53be 8c4c 85be
000000b0: ce5b bebe ef47 833e 7b3e f73d 718e bcbe
000000c0: 779c abbe c02d 0d3e a9a9 d0be eb2a ccbe
000000d0: 8fbf 693b 1040 8d3e e35a 74be c0d1 913e
000000e0: 625d 0abe b6d2 0c3e dec8 cdbe becf 56bc
000000f0: a0c1 703c faff c23d e086 76bd 0bd7 38be

blocks.0.causal_conv.weight f4 [64, 64, 2]
0.0030590876 0.06300156 -0.048127912 -0.03662231 0.061138272 -0.08330044 -0.055812433 0.028272063
-0.08283683 0.0362102 -0.053298857 -0.06777598 0.07575073 -0.0722933 -0.009904095 -0.038658027
0.064455144 0.01598312 0.0034847145 0.07473838 -0.09045809 -0.011966864 -0.06083232 -0.042774398
0.010096517 -0.009582883 -0.031045988 0.03100947 0.06017007 0.055264525 0.043483533 -0.013461816
0.041846357 0.019873247 0.025204249 -0.068510264 -0.02088593 -0.0113174515 0.050798275 0.085604906
-0.07827823 -0.043833286 0.0596695 0.0664589 -0.08467873 -0.06785004 -0.042410877 0.054179452
0.049459577 -0.04728374 0.040002316 0.01324172 -0.055640567 -0.013279623 -0.05784174 -0.015884621
0.007123792 -0.032730486 0.076085754 0.0697542 -0.06773061 -0.05857512 -0.028300276 -0.02539354
0.008260388 0.006512424 -0.06075164 0.018273182 -0.0075247027 -0.00757445 0.036758903 -0.08501409
-0.02589667 -0.07005309 -0.072346106 0.030513955 -0.054117374 0.03999486 -0.02889921 -0.084620535
0.03113662 -0.07950984 -0.052803658 -0.047306597 0.03513474 -0.07511104 -0.03360014 0.07946059
-0.077387296 0.045224316 -0.03311787 -0.0457647 0.056110308 0.0034141866 0.08110991 -0.032758884
-0.043753568 -0.0536115 0.009640339 -0.067243405 -0.063466914 0.014663428 0.07477599 0.085324384
-0.004947917 0.017130032 -0.0043544974 0.050160587 -0.08298107 -0.08993421 -0.061891302 0.070006505
-0.024132578 0.06417458 -0.05647206 0.04403851 0.05986427 0.06915182 -0.03507319 0.037366558
0.07253877 -0.023867859 -0.07934072 -0.0021360428 0.078451246 0.0038667154 -0.004661561 0.05699368
-0.010330033 -0.006315534 -0.06225292 -0.0020140198 -0.0020278918 0.0552965 0.00071540574 -0.10156146
-0.040973175 -0.030510694 0.017936016 0.008446785 -0.088873744 0.008071335 -0.103902996 0.026229812
0.03317505 -0.07269721 0.05512544 0.06760229 -0.037394535 -0.091726944 -0.06424499 0.008972208
0.0014994362 0.06723871 -0.07628364 -0.0040811514 0.026563799 -0.029708516 -0.10183641 0.0032566579
-0.06762034 0.007673103 0.04800984 -0.0016071874 -0.089952 -0.048069775 -0.10301023 -0.020507684
-0.022947693 0.007929315 0.05199296 0.10739997 -0.026373193 0.03777631 -0.014726682 -0.041111257
0.034868546 0.053660773 -0.012896015 0.03498704 -0.052637897 0.07527575 -0.0018595394 -0.086675435
0.0032737746 0.04267997 -0.056343596 0.031321313 -0.062174242 -0.060198527 0.022267444 0.06755315
-0.059659187 0.0407939 -0.007320992 0.0873849 -0.036614884 -0.030130316 -0.010424278 0.041350666
-0.032168675 -0.06162485 0.054516412 -0.008455766 -0.007781445 -0.002239638 0.031130625 0.051998246
-0.02868047 0.007297206 0.052497998 -0.03730859 0.081119865 -0.05947553 -0.043402527 0.018412665
0.012939596 -0.026326824 0.043054454 0.0068925633 0.027767302 0.048962 -0.10511097 -0.068205155
-0.05522374 -0.0011295413 -0.07095159 0.0048067234 -0.06271562 -0.013905169 0.015256112 -0.09021551
-0.1064148 -0.009753392 0.09453006 0.06532558 0.021193128 0.06481802 0.04404708 0.016400274
-0.0856811 -0.042026665 0.039009534 0.06587612 -0.04466128 -0.074155055 -0.07270577 -0.018315177
0.051021367 -0.09549787 -0.01667456 0.071001954 0.024908673 0.033594787 0.08346642 0.000801002
00000000: f97a 483b f606 813d c621 45bd 4601 16bd
00000010: 206c 7a3d 6c99 aabd 949b 64bd d09a e73c
00000020: 5ba6 a9bd 2651 143d e74f 5abd 22ce 8abd
00000030: 3323 9b3d 820e 94bd c944 22bc e157 1ebd
00000040: 0f01 843d 08ef 823c cf5f 643b 7010 993d
00000050: 1742 b9bd aa10 44bc 502b 79bd 3534 2fbd
00000060: dd6b 253c 8601 1dbc 2854 febc 9207 fe3c
00000070: e474 763d 0e5d 623d ca1b 323d f38e 5cbc
00000080: 1667 2b3d 38cd a23c 2479 ce3c 1c4f 8cbd
00000090: f818 abbc d56c 39bc da11 503d a051 af3d
000000a0: 5650 a0bd 888a 33bd 0168 743d 9b1b 883d
000000b0: 0b6c adbd f6f4 8abd 07b7 2dbd 46eb 5d3d
000000c0: 2096 4a3d 98ac 41bd 78d9 233d cdf3 583c
000000d0: 5de7 63bd c792 59bc 76eb 6cbd 7720 82bc
000000e0: b36e e93b 6710 06bd d9d2 9b3d 4adb 8e3d
000000f0: 59b6 8abd 77ec 6fbd fbd5 e7bc 1d06 d0bc
00000100: 9456 073c 2c66 d53b b6d6 78bd a4b1 953c
00000110: c891 f6bb 1833 f8bb 8190 163d de1b aebd
00000120: 4125 d4bc ff77 8fbd 322a 94bd 67f8 f93c
00000130: 2eaa 5dbd a6d1 233d 09be ecbc 884d adbd
00000140: 3a12 ff3c 0ed6 a2bd a648 58bd 90c4 41bd
00000150: 72e9 0f3d d1d3 99bd 4da0 09bd 3cbc a23d
00000160: 3b7d 9ebd 223d 393d 9ba6 07bd c473 3bbd
00000170: ecd3 653d 8cc0 5f3b f41c a63d 2e2e 06bd
00000180: f136 33bd bb97 5bbd 83f2 1d3c e9b6 89bd
00000190: f1fa 81bd e03e 703c 2724 993d 8dbe ae3d
000001a0: 2322 a2bb 4854 8c3c 2cb0 8ebb 3075 4d3d
000001b0: fbf1 a9bd 6d2f b8bd bc81 7dbd 925f 8f3d
000001c0: afb1 c5bc f66d 833d 3f4f 67bd ba61 343d
000001d0: 3d34 753d 789f 8d3d e8a8 0fbd ad0d 193d
000001e0: 358f 943d 8786 c3bc 637d a2bd dafc 0bbb
000001f0: 0cab a03d b868 7d3b 02c0 98bb 3472 693d
00000200: 4c3f 29bc 8af2 cebb ebfc 7ebd a5fd 03bb
00000210: 61e6 04bb 957e 623d 118a 3b3a 74ff cfbd
00000220: 7dd3 27bd 90f1 f9bc 8dee 923c 6264 0a3c
00000230: 7003 b6bd a23d 043c 18cb d4bd e7df d63c
00000240: 90e2 073d 46e2 94bd 37cb 613d 1273 8a3d
00000250: 032b 19bd 56db bbbd e192 83bd 2b00 133c
00000260: bb88 c43a 73b4 893d 993a 9cbd 2ebb 85bb
00000270: 539c d93c 465f f3bc 9c8f d0bd a76d 553b
00000280: 887c 8abd a76e fb3b f7a5 443d 43a8 d2ba
00000290: c138 b8bd d0e4 44bd 07f7 d2bd bbff a7bc
000002a0: cdfc bbbc f5e9 013c 92f6 543d 84f4 db3d
000002b0: 980c d8bc 55bb 1a3d 2e48 71bc 4764 28bd
000002c0: 52d2 0e3d 66cb 5b3d cf49 53bc 924e 0f3d
000002d0: d69a 57bd 2c2a 9a3d cabb f3ba e482 b1bd
000002e0: d38c 563b 31d1 2e3d 8bc8 66bd c74a 003d
000002f0: 6baa 7ebd bb92 76bd 376a b63c 4e59 8a3d
00000300: 315d 74bd 8117 273d efe4 efbb dbf6 b23d
00000310: 7df9 15bd dad3 f6bc 97ca 2abc 515f 293d
00000320: 4dc3 03bd 576a 7cbd 9a4c 5f3d 0e8a 0abc
00000330: 7efb febb e4c6 12bb a705 ff3c 1dfc 543d
00000340: 4ef3 eabc 671d ef3b 2408 573d e4d0 18bd
00000350: 2c22 a63d 9d9c 73bd d9c6 31bd 28d6 963c
00000360: 9900 543c 5aab d7bc de59 303d 03db e13b
00000370: 4178 e33c 618c 483d 6c44 d7bd 25af 8bbd
00000380: 4a32 62bd 1e0d 94ba 114f 91bd b881 9d3b
00000390: 0c71 80bd 82d2 63bc c6f4 793c e9c2 b8bd
000003a0: 01f0 d9bd b1cc 1fbc fa98 c13d 6bc9 853d
000003b0: 369d ad3c 4fbf 843d b66a 343d de59 863c
000003c0: 9379 afbd 2724 2cbd 76c8 1f3d 0fea 863d
000003d0: bfee 36bd 9bde 97bd c3e6 94bd b609 96bc
000003e0: c8fb 503d 6394 c3bd 1699 88bc 7969 913d
000003f0: 460d cc3c b09a 093d 71f0 aa3d 56fa 513a

blocks.0.causal_conv.bias f4 [64]
0.0028088822 0.07099982 0.087878704 -0.06085712 -0.013041951 0.04244967 -0.051128063 -0.07720666
-0.0034821231 0.00615212 0.045702595 0.06521185 -0.0026911695 -0.0792144 -0.0842618 0.043183707
-0.079653546 -0.04144608 -0.015354068 0.035798408 0.08742083 0.0012497345 0.047394745 -0.035322607
0.047905706 -0.034382023 0.09880134 -0.020457242 0.07818647 -0.059034463 0.04070904 0.07905247
-0.02068169 0.06375084 -0.024921913 -0.06438821 0.092847355 0.06512607 -0.054704048 -0.068812855
0.036106694 0.017866008 0.06492773 -0.082502246 -0.042685095 -0.04619941 0.032399226 0.056062948
0.0498351 -0.079836205 0.06739947 0.055494085 -0.105795674 0.06719578 0.046997346 0.03243229
0.028039502 -0.02483618 0.011847502 0.013042436 0.0188855 0.0019389164 -0.022779262 -0.045882974
00000000: 3915 383b 5b68 913d c0f9 b33d 5145 79bd
00000010: e8ad 55bc b5df 2d3d a96b 51bd 861e 9ebd
00000020: 5534 64bb b997 c93b a532 3b3d ca8d 853d
00000030: 555e 30bb 293b a2bd 7391 acbd 66e1 303d
00000040: 6621 a3bd 5dc3 29bd a18f 7bbc 5aa1 123d
00000050: b109 b33d 22ce a33a fe20 423d 70ae 10bd
00000060: c638 443d 2ad4 0cbd 5b58 ca3d f295 a7bc
00000070: 3a20 a03d 1fce 71bd 86be 263d 43e6 a13d
00000080: a66c a9bc cd8f 823d 0a29 ccbc f7dd 83bd
00000090: c126 be3d d160 853d 5a11 60bd c1ed 8cbd
000000a0: 9de4 133d bc5b 923c d4f8 843d f0f6 a8bd
000000b0: 91d6 2ebd 983b 3dbd 0db5 043d 43a2 653d
000000c0: e41f 4c3d 2a81 a3bd bc08 8a3d c44d 633d
000000d0: 67ab d8bd f19d 893d 4a80 403d b9d7 043d
000000e0: 19b3 e53c 3f75 cbbc 061c 423c f1af 553c
000000f0: c4b5 9a3c 3d23 fe3a 939b babc c9ef 3bbd

blocks.0.residual_conv.weight f4 [64, 64, 1]
0.09747529 0.038075693 -0.039652154 -0.0575388 -0.009973584 -0.078286625 -0.09114595 -0.025028927
-0.09572063 0.004631325 0.0676388 0.115021765 0.06512121 0.100568384 -0.033502456 -0.12248628
0.09323012 -0.08943173 -0.05796462 -0.13546644 0.05132826 -0.07055771 -0.13159567 -0.056876514
-0.023265852 -0.04136308 -0.031555638 0.0073124827 0.10577117 0.10941062 0.024134982 -0.052565314
-0.05377373 0.025026979 -0.044825226 0.06872031 -0.062538184 -0.10647671 -0.008827426 -0.016380766
0.071330994 0.08025333 -0.11626494 -0.010837386 0.09020409 -0.028450545 -0.0071752397 -0.08033388
0.08669409 -0.047928628 0.058730517 0.0028012942 0.02593009 0.007536143 0.118940644 0.07597256
-0.022664323 0.13090183 -0.089120425 -0.041394517 -0.06362924 0.056408927 -0.0901495 -0.05008432
0.0060427445 -0.08554874 -0.01796924 -0.040364336 0.13097763 -0.13454157 -0.06472334 -0.03394467
-0.028643928 0.053712837 -0.11187802 0.03684256 0.10038111 0.07343909 -0.037723165 -0.10741375
-0.0820883 0.061751828 -0.0589926 -0.014717205 0.12903525 0.03291556 0.10416997 0.060372517
-0.055945337 0.099170044 -0.055237252 -0.081946455 0.07155218 -0.09890596 0.06892119 0.019867493
0.04156642 -0.055957112 -0.06059106 -0.081786014 -0.11170858 0.0045276177 0.09281597 0.00027508152
-0.069305696 -0.062115226 -0.03957539 0.11834401 -0.038196802 0.06287281 0.09831703 -0.09038834
-0.056718923 0.024045357 -0.074756026 -0.06765858 -0.020493843 -0.007110532 0.04156153 -0.02200856
-0.07101867 0.029949205 0.02718763 0.12076979 0.057266742 0.02537944 0.036786932 -0.063918784
-0.026394773 -0.031354237 -0.096534215 -0.06165962 -0.05677139 0.09428568 -0.07863357 0.10118706
0.0101514915 -0.09638974 -0.08826488 0.12897883 -0.03056227 -0.056394245 -0.061381042 -0.010543689
-0.111309774 0.1305099 0.062459674 -0.049962357 0.11754116 -0.055547167 0.041341666 0.07194844
-0.038818717 -0.005253059 -0.08302752 -0.074049346 0.024728736 0.12351279 0.06789268 -0.017212957
0.056275897 0.121337384 -0.023681575 -0.011353183 -0.016898626 -0.10524704 -0.10805955 0.025135675
-0.018921781 -0.011304792 -0.05413389 -0.026397187 0.016852114 -0.06167748 -0.10065298 0.0755757
-0.11428806 -0.06344636 -0.011070618 0.021268304 0.044143226 -0.06238725 0.019848341 -0.075374015
0.079093285 0.055112407 0.03490886 0.04462386 -0.02763681 0.09409665 0.10959327 0.12156166
-0.03336681 0.035072967 0.041071773 -0.095358066 0.077752315 0.105666034 -0.116652094 0.016903376
-0.02123125 -0.07718504 -0.034279693 -0.10069121 0.116320685 0.10011878 0.09484671 0.04213775
0.0035333745 0.0028351117 -0.12458691 0.046543337 -0.10159637 0.06687342 0.06594337 -0.0032200785
0.05190705 0.017806746 0.101424515 0.07529921 -0.016999155 0.0492005 -0.13020127 -0.116326526
-0.003172525 -0.10106144 -0.09924647 0.07592528 0.059098866 0.034997948 -0.021024095 0.018232074
0.111137345 0.09843979 0.017920583 0.0072354367 -0.070771 -0.0945513 0.057635967 -0.031737532
0.05319369 -0.07327475 0.112427555 -0.019905498 -0.016025579 -0.10966252 0.020836305 -0.08484083
-0.10109194 -0.11151254 -0.055331018 0.09608809 0.034956723 0.05185104 0.10280545 -0.076744705
00000000: 20a1 c73d 42f5 1b3d 4c6a 22bd cead 6bbd
00000010: 3e68 23bc bd54 a0bd baaa babd 7709 cdbc
00000020: 2d09 c4bd 5fc2 973b 3686 8a3d 8890 eb3d
00000030: 455e 853d ccf6 cd3d df39 09bd 16da fabd
00000040: 6fef be3d fc27 b7bd 4f6c 6dbd b7b7 0abe
00000050: 953d 523d 9080 90bd 04c1 06be 59f7 68bd
00000060: 0798 bebc 556c 29bd 7c40 01bd 8d9d ef3b
00000070: 8e9e d83d ad12 e03d bab6 c53c ba4e 57bd
00000080: d841 5cbd 6105 cd3c a89a 37bd 3cbd 8c3d
00000090: 0514 80bd 7610 dabd e8a0 10bc f530 86bc
000000a0: fc15 923d dc5b a43d 501c eebd 4b8f 31bc
000000b0: ecbc b83d 1e11 e9bc 461e ebbb 1786 a4bd
000000c0: ac8c b13d cf50 44bd 698f 703d eb95 373b
000000d0: 576b d43c c0f1 f63b 2797 f33d 8097 9b3d
000000e0: 88aa b9bc 210b 063e c584 b6bd 4c8d 29bd
000000f0: 0c50 82bd 0c0d 673d 4da0 b8bd 3725 4dbd
00000100: 3702 c63b 2e34 afbd 3a34 93bc 1355 25bd
00000110: 001f 063e 44c5 09be ac8d 84bd 9109 0bbd
00000120: aca6 eabc fe01 5c3d 4e20 e5bd 39e8 163d
00000130: 9d94 cd3d 3c67 963d 9b83 1abd bdfb dbbd
00000140: e91d a8bd 7cef 7c3d 39a2 71bd 6f20 71bc
00000150: d121 043e 77d2 063d 1157 d53d 2c49 773d
00000160: f026 65bd aa19 cb3d 7540 62bd 8bd3 a7bd
00000170: f389 923d 358f cabd 8e26 8d3d 27c1 a23c
00000180: 8d41 2a3d 4933 65bd 552e 78bd 6d7f a7bd
00000190: 78c7 e4bd 695c 943b 4d16 be3d d138 9039
000001a0: 25f0 8dbd 896c 7ebd ce19 22bd 585e f23d
000001b0: 4074 1cbd 76c3 803d 705a c93d 861d b9bd
000001c0: 1a52 68bd c5fa c43c b019 99bd 9590 8abd
000001d0: b4e2 a7bc 77ff e8bb 6c3c 2a3d 4c4b b4bc
000001e0: 3d72 91bd 0958 f53c 98b8 de3c 2756 f73d
000001f0: 8890 6a3d 8be8 cf3c e5ad 163d dae7 82bd
00000200: da39 d8bc 4d6d 00bd bbb3 c5bd cc8e 7cbd
00000210: 1e89 68bd da18 c13d a30a a1bd 293b cf3d
00000220: 7152 263c fc67 c5bd 38c4 b4bd 0713 043e
00000230: ba5d fabc a7fd 66bd b06a 7bbd 70bf 2cbc
00000240: 61f6 e3bd 63a4 053e b7d5 7f3d 54a5 4cbd
00000250: 6bb9 f03d 6d85 63bd e155 293d b459 933d
00000260: 6000 1fbd da21 acbb 550a aabd 2fa7 97bd
00000270: eb93 ca3c 46f4 fc3d 510b 8b3d 3002 8dbc
00000280: 8e81 663d bc7f f83d ddff c1bc b302 3abc
00000290: fd6e 8abc c38b d7bd 534e ddbd 55e9 cd3c
000002a0: da01 9bbc bc37 39bc 7fbb 5dbd ea3e d8bc
000002b0: 720d 8a3c 86a1 7cbd 2623 cebd 6fc7 9a3d
000002c0: dc0f eabd 2af0 81bd 8a61 35bc de3a ae3c
000002d0: 87cf 343d c689 7fbd fd98 a23c b15d 9abd
000002e0: a9fb a13d 8cbd 613d 98fc 0e3d 82c7 363d
000002f0: 9766 e2bc bfb5 c03d 7072 e03d 52f5 f83d
00000300: a3ab 08bd aca8 0f3d e03a 283d 174b c3bd
00000310: 9b3c 9f3d 6f67 d83d 4be7 eebd f378 8a3c
00000320: 29ed adbc 3113 9ebd dd68 0cbd 3137 cebd
00000330: 8a39 ee3d 130b cd3d fe3e c23d a298 2c3d
00000340: 3090 673b 48cd 393b 6c27 ffbd 3aa4 3e3d
00000350: c211 d0bd eef4 883d 510d 873d f407 53bb
00000360: 7d9c 543d 74df 913c a8b7 cf3d 7936 9a3d
00000370: d041 8bbc 7786 493d 7b53 05be 9a3c eebd
00000380: 23ea 4fbb 4df9 cebd bc41 cbbd b77e 9b3d
00000390: a711 723d 025a 0f3d b93a acbc 6e5b 953c
000003a0: fa9b e33d cd9a c93d 30ce 923c 3e17 ed3b
000003b0: 63f0 90bd 1da4 c1bd b113 6c3d 37ff 01bd
000003c0: a0e1 593d 1211 96bd 6b40 e63d db10 a3bc
000003d0: 1348 83bc be96 e0bd e6b0 aa3c 07c1 adbd
000003e0: 4b09 cfbd b060 e4bd c7a2 62bd d5c9 c43d
000003f0: c82e 0f3d c261 543d aa8b d23d 542c 9dbd

blocks.0.residual_conv.bias f4 [64]
-0.028293168 0.10140917 0.08759042 0.042317927 0.051337563 -0.0814174 0.02477987 0.017490147
0.109591976 0.052983534 -0.05975063 0.11861671 0.03835272 -0.07523285 0.03594644 -0.0507439
-0.032882858 0.07595245 0.09311981 -0.06530492 0.027119739 0.08421695 -0.11048516 0.029954499
0.0011908013 -0.048906196 -0.016203517 -0.060717076 0.057738803 -0.063214734 -0.034963552 0.033863645
-0.092361905 0.03907378 -0.050856832 -0.07867617 0.051524002 -0.12565592 -0.056575954 0.1031014
-0.059044175 0.06686652 -0.005526935 -0.026441772 -0.09462197 -0.07500818 0.05098467 -0.071868844
-0.009056338 -0.07084517 0.09927292 0.09073534 0.09719208 0.0280511 -0.08481562 0.087903894
-0.028631909 0.07754941 -0.10219759 0.06712306 -0.06772158 -0.09119569 0.037141025 -0.037735168
00000000: 13c7 e7bc 9caf cf3d 9b62 b33d 9055 2d3d
00000010: 5647 523d 2abe a6bd 27ff ca3c 7f47 8f3c
00000020: c271 e03d 4305 593d 14bd 74bd 51ed f23d
00000030: be17 1d3d ae13 9abd 933c 133d d6d8 4fbd
00000040: 2db0 06bd f58c 9b3d 99b5 be3d 96be 85bd
00000050: 372a de3c f079 ac3d 0b46 e2bd 2363 f53c
00000060: a914 9c3a dd51 48bd 3dbd 84bc 78b2 78bd
00000070: 867f 6c3d ba76 81bd f135 0fbd 9bb4 0a3d
00000080: 3d28 bdbd d40b 203d 414f 50bd f920 a1bd
00000090: d50a 533d f2ab 00be 30bc 67bd d426 d33d
000000a0: 4ed8 71bd 50f1 883d 4b1b b5bb 6a9c d8bc
000000b0: 2ac9 c1bd e49d 99bd 4dd5 503d f92f 93bd
000000c0: 0961 14bc 4617 91bd 9a4f cb3d 73d3 b93d
000000d0: a40c c73d 6ccb e53c d0b3 adbd f506 b43d
000000e0: 778d eabc 3ad2 9e3d f84c d1bd d177 893d
000000f0: 9db1 8abd cec4 babd 3021 183d 3190 1abd

blocks.1.causal_conv.weight f4 [64, 64, 2]
0.088834815 0.02522891 -0.006263194 0.022724105 0.08736141 -0.018498242 -0.029344814 0.07298727
0.0071185427 -0.014838768 0.080667816 0.03770672 0.029814666 0.017305402 0.064759396 0.008235678
0.003786723 -0.025680736 -0.050184272 -0.010447846 0.09728766 -0.024438808 0.03270551 -0.066730455
-0.07752264 0.075819016 -0.02223789 0.04470757 -0.08656821 -0.055069897 -0.059076764 0.052102335
0.024630845 -0.0046154177 0.018247435 -0.0747537 -0.03304591 -0.008073593 0.010608744 -0.07146092
-0.052050825 -0.04212253 0.03742855 -0.019966977 -0.02334917 0.010927711 0.023966447 -0.01380557
-0.07017907 0.013831354 -0.020600451 -0.038797926 0.037014145 -0.024015762 -0.045608744 -0.043167207
-0.055377755 -0.028683301 0.04455617 -0.059560467 -0.05735346 0.0347078 -0.049649946 0.08085498
-0.035881896 0.026021797 0.035128217 0.005626329 -0.069568194 -0.0445892 0.041722637 0.038335312
0.06610217 -0.06643577 0.05536771 -0.04715696 -0.07884017 -0.02143401 0.0091469055 -0.02600266
-0.04920281 0.032760557 -0.025366724 0.060282055 0.03105598 0.0048415046 -0.07950222 0.034058597
0.012534104 0.031457428 -0.01530889 0.071456306 -0.058811434 0.00044195767 -0.027323926 0.07424054
-0.027444812 -0.07923921 0.069345646 -0.07311208 -0.072744526 -0.046095647 0.07184613 -0.024414018
0.052919663 -0.012849948 -0.0875842 0.0003795253 0.017443798 -0.077990815 -0.009570074 -0.014481093
-0.06650743 0.038706325 -0.07090994 -0.0033818446 0.056468368 0.029555323 -0.06926835 -0.068578035
-0.04314702 -0.03142348 0.054186236 -0.013973194 -0.0005624994 -0.08030372 0.066002734 0.01552063
0.016498178 0.018545052 0.02957623 -0.047634583 -0.040551618 -0.06450299 -0.043629635 -0.0893433
0.043357626 -0.03572509 0.010803338 0.020749148 0.049830932 0.025830053 -0.07255043 -0.08536947
-0.0643845 0.06710588 -0.04259842 0.056959253 -0.059927642 0.04170852 -0.06986466 0.0037751342
0.0578818 -0.04073591 -0.024857428 0.121650256 -0.05233212 0.008717273 -0.09070889 0.053441353
-0.0053331763 -0.043121345 0.0006626764 -0.06182694 0.033035465 -0.043970965 0.03152159 -0.096334085
0.062695816 0.054430008 0.019441046 0.039508767 -0.05737921 -0.051213626 -0.022037197 0.08200519
0.0610954 -0.046169106 -0.1035898 -0.044048425 0.037487704 0.036888212 -0.08325587 0.017437616
-0.07318381 0.00026191535 -0.073793106 -0.040044684 -0.037373286 0.009477145 0.028902106 -0.07401421
0.07646971 0.034704816 -0.07590197 0.095692374 0.061174754 -0.056093782 -0.04850552 -0.030410217
0.049841728 -0.04805004 -0.017282158 0.045985468 0.06786363 -0.016251827 0.043405637 0.013640436
0.09752636 -0.05900998 0.08780612 0.08957868 0.010374809 0.03702048 0.044354126 0.019652234
0.019323079 -0.10293166 0.054966837 0.059266 0.039676692 -0.034627523 0.07239664 -0.09416446
0.05156586 -0.05601514 0.01109039 -0.051969193 0.071313426 -0.092833616 -0.06360294 -0.059258852
-0.021728393 -0.012039674 0.054034565 0.039803706 -0.018099409 -0.005030747 0.048389178 -0.032721348
0.047771435 -0.026368259 -0.0029832323 0.04726191 -0.06693842 -0.026404167 0.061317775 -0.056865
-0.02636585 -0.02682241 -0.0063687535 0.066529244 -0.03043662 -0.025591735 -0.05773888 0.06725101
00000000: 07ef b53d dcac ce3c 7b3b cdbb e727 ba3c
00000010: 8aea b23d a089 97bc 8964 f0bc 5a7a 953d
00000020: aa42 e93b 4e1e 73bc 2b35 a53d 5d72 1a3d
00000030: e33d f43c 0fc4 8d3c 93a0 843d f0ee 063c
00000040: ab2a 783b 6860 d2bc 068e 4dbd 712d 2bbc
00000050: c13e c73d e533 c8bc 36f6 053d faa9 88bd
00000060: 31c4 9ebd 0047 9b3d 3c2c b6bc 491f 373d
00000070: ac4a b1bd f990 61bd 7afa 71bd 4269 553d
00000080: a0c6 c93c ee3c 97bb a57b 953c 7818 99bd
00000090: 265b 07bd 1a47 04bc 4cd0 2d3c 1a5a 92bd
000000a0: 3f33 55bd ad88 2cbd ae4e 193d c991 a3bc
000000b0: c246 bfbc 240a 333c 4855 c43c c230 62bc
000000c0: 0bba 8fbd e79c 623c 47c2 a8bc 93ea 1ebd
000000d0: 259c 173d b4bc c4bc 3cd0 3abd 19d0 30bd
000000e0: c9d3 62bd 3ef9 eabc 8880 363d adf5 73bd
000000f0: 76eb 6abd c429 0e3d be5d 4bbd 4c97 a53d
00000100: e5f8 12bd aa2b d53c 9be2 0f3d 125d b83b
00000110: c579 8ebd 2aa3 36bd 5be5 2a3d 7d05 1d3d
00000120: 9360 873d 7a0f 88bd 40c9 623d a827 41bd
00000130: f476 a1bd 6096 afbc e7dc 153c 8803 d5bc
00000140: e388 49bd ef2f 063d e0cd cfbc 51ea 763d
00000150: 1c69 fe3c 7ca5 9e3b 0fd2 a2bd 0781 0b3d
00000160: d85b 4d3c 81d9 003d 23d2 7abc af57 923d
00000170: 42e4 70bd 8eb6 e739 6dd6 dfbc 6d0b 983d
00000180: f1d3 e0bc 2b48 a2bd 1705 8e3d c9bb 95bd
00000190: 15fb 94bd cace 3cbd 1024 933d e8ff c7bc
000001a0: 4ac2 583d 9788 52bc 585f b3bd 06fb c639
000001b0: 4ce6 8e3c a6b9 9fbd cdcb 1cbc 1b42 6dbc
000001c0: 0c35 88bd 868a 1e3d 3b39 91bd f0a1 5dbb
000001d0: 604b 673d 011e f23c 91dc 8dbd a472 8cbd
000001e0: eeba 30bd e8b5 00bd 63f2 5d3d d3ef 64bc
000001f0: b274 13ba 4776 a4bd 712c 873d 3e4a 7e3c
00000200: 3027 873c cbeb 973c da49 f23c 7b1c 43bd
00000210: 7419 26bd 251a 84bd fdb4 32bd 9ff9 b6bd
00000220: c497 313d 7954 12bd 7c00 313c 1efa a93c
00000230: 851b 4c3d 8c99 d33c 5295 94bd 30d6 aebd
00000240: 05dc 83bd cf6e 893d ae7b 2ebd 1b4e 693d
00000250: b076 75bd 8ed6 2a3d 3415 8fbd 3e68 773b
00000260: 7715 6d3d b3da 26bd cea1 cbbc c523 f93d
00000270: 345a 56bd e5d2 0e3c 95c5 b9bd 52e5 5a3d
00000280: edc1 aebb 02a0 30bd 76b7 2d3a 3f3e 7dbd
00000290: 3250 073d e61a 34bd c81c 013d ce4a c5bd
000002a0: aa66 803d 00f2 5e3d d442 9f3c f2d3 213d
000002b0: 7606 6bbd 61c5 51bd 5a87 b4bc 56f2 a73d
000002c0: 2c3f 7a3d d11b 3dbd e426 d4bd 1f6c 34bd
000002d0: b58c 193d 1818 173d 0e82 aabd 55d9 8e3c
000002e0: 65e1 95bd af51 8939 d720 97bd e505 24bd
000002f0: bb14 19bd 0746 1b3c 1cc4 ec3c c394 97bd
00000300: 279c 9c3d a326 0e3d 7e72 9bbd 5dfa c33d
00000310: 6192 7a3d 98c2 65bd b9ad 46bd d91e f9bc
00000320: d726 4c3d 1ed0 44bd 5093 8dbc 425b 3c3d
00000330: 16fc 8a3d 8d22 85bc 1cca 313d 237c 5f3c
00000340: e6bb c73d 73b4 71bd b2d3 b33d 0775 b73d
00000350: 1afb 293c c9a2 173d acac 353d b9fd a03c
00000360: 6f4b 9e3c d6cd d2bd e824 613d e8c0 723d
00000370: 0784 223d 97d5 0dbd b144 943d 4cd9 c0bd
00000380: b936 533d 2270 65bd 78b4 353c a6dd 54bd
00000390: c60c 923d 8d1f bebd 4242 82bd 69b9 72bd
000003a0: beff b1bc 0e42 45bc 5953 5d3d 3609 233d
000003b0: 3645 94bc f7d8 a4bb bb33 463d d206 06bd
000003c0: fbab 433d 3f02 d8bc 5582 43bb b495 413d
000003d0: 0317 89bd 8d4d d8bc 5928 7b3d 46eb 68bd
000003e0: 32fd d7bc acba dbbc fab0 d0bb 7c40 883d
000003f0: 3856 f9bc c2a5 d1bc 9b7f 6cbd e6ba 893d

blocks.1.causal_conv.bias f4 [64]
-0.016503304 0.014097082 -0.028392836 -0.0058442457 0.08959525 -0.021734947 0.025744466 0.01114379
0.0058232676 -0.0083246175 -0.1045594 -0.010200335 -0.049691115 -0.036670394 0.011784419 -0.044240773
0.0698384 -0.021415208 -0.07288541 0.07831546 0.10167829 -0.08415993 -0.08695766 0.02011889
-0.080705106 0.030883854 0.083688684 0.009632345 0.07941835 0.053724904 0.048768178 -0.049778167
-0.067962006 0.049566574 0.08325236 -0.03380287 -0.056641296 0.040714964 -0.0133877825 0.059253745
-0.0072667985 0.037060108 -0.00074593595 0.08928741 -0.09046056 -0.02797961 -0.0855832 -0.041949943
0.07326099 0.055061795 -0.021038868 0.02421897 0.058134656 0.017312663 -0.07095745 -0.03583398
-0.04786904 -0.072795436 0.027168978 0.06834848 -0.04290646 -0.020528734 -0.047241773 -0.03589527
00000000: f031 87bc 73f7 663c 1898 e8bc 1681 bfbb
00000010: b77d b73d 7d0d b2bc 0fe6 d23c 7194 363c
00000020: 1cd1 be3b fa63 08bc 3d23 d6bd 4e1f 27bc
00000030: e988 4bbd b233 16bd 7013 413c d035 35bd
00000040: 6f07 8f3d f26e afbc f244 95bd db63 a03d
00000050: b53c d03d 0b5c acbd dc16 b2bd 5fd0 a43c
00000060: b848 a5bd 2300 fd3c f964 ab3d fcd0 1d3c
00000070: 16a6 a23d a50e 5c3d 24c1 473d 31e4 4bbd
00000080: aa2f 8bbd 5206 4b3d 3780 aa3d e174 0abd
00000090: b400 68bd bcc4 263d 6e58 5bbc 0eb4 723d
000000a0: 531e eebb 57cc 173d ea8a 43ba 51dc b63d
000000b0: 6343 b9bd 7f35 e5bc 3f46 afbd b4d3 2bbd
000000c0: dc09 963d 7a88 613d b459 acbc dd66 c63c
000000d0: 9b1e 6e3d 49d3 8d3c 2452 91bd a7c6 12bd
000000e0: 5412 44bd c615 95bd 7a91 de3c 4afa 8b3d
000000f0: afbe 2fbd e02b a8bc 9780 41bd eb06 13bd

blocks.1.residual_conv.weight f4 [64, 64, 1]
-0.009034162 -0.10791179 -0.0745677 -0.08297654 0.0706004 0.084237576 0.10556607 0.09670003
-0.0880788 0.013331199 0.112053 0.013478238 0.014694655 -0.08518513 -0.0883322 -0.032611486
0.035203833 -0.112868205 0.021774098 -0.0026809261 0.13804372 0.11652407 0.107227944 -0.019349394
0.109976575 -0.03136452 0.09205573 -0.10618493 0.09502028 0.05713349 0.08427739 -0.030018471
-0.034438428 0.013841071 -0.03952237 -0.10433102 -0.031197162 -0.057886656 0.041479465 0.11702777
0.039636414 0.13782722 -0.089420386 0.04095137 -0.0008053682 0.097193174 0.12357593 0.095195755
-0.03617435 -0.02738456 -0.02691382 -0.07670214 -0.047636498 -0.024562564 -0.0455951 0.07514284
0.0011159759 0.098501064 -0.002617124 -0.07509475 0.02031578 -0.024614241 0.09954992 0.13272211
-0.047054686 0.044400543 -0.08200732 -0.07330009 0.0374571 -0.1082892 -0.0042690667 -0.070109785
-0.040007554 0.061187655 -0.057608142 -0.06757886 0.02079694 0.0093470495 -0.034736287 -0.02507417
0.076018736 0.05903541 -0.08200255 0.046496246 -0.08538161 0.01364046 -0.0955456 0.043605182
-0.09224039 0.0903573 -0.111397155 -0.119799405 -0.0228464 -0.09683787 0.004293314 0.006358884
-0.015139815 0.08748802 0.12683678 -0.08423798 -0.04164086 0.10465425 -0.049436256 -0.10601753
-0.06033904 0.00777699 0.034975074 0.018872641 -0.007330601 0.075007305 0.11982825 0.06960677
0.11185823 -0.038976923 -0.12221281 0.07449442 -0.044814102 0.05013493 -0.111028574 0.1039226
-0.10868532 0.062094286 0.08056071 0.032392286 0.07666763 -0.052836817 0.08329237 -0.1221412
-0.11669241 0.06160764 0.06594542 -0.047777828 -0.018263604 -0.049952112 -0.047141835 -0.035715915
-0.12013323 -0.083267376 0.059884354 0.00091706787 0.025962003 -0.037451316 -0.0240329 0.11048951
0.11879044 0.013916852 0.10269969 0.07591899 -0.111869745 0.016863657 -0.07084905 -0.014254213
-0.033907853 0.062428664 0.013874225 -0.020237684 0.0036319233 0.030420136 -0.022870066 0.08478814
0.07416957 -0.08100085 0.13014509 0.0971547 -0.08860865 -0.034414243 -0.067841016 0.09966534
0.013520146 0.0471563 0.0010196344 -0.090220444 -0.06869391 -0.10490133 0.09686641 0.10882372
-0.08626143 0.10980412 -0.013174599 0.11937038 -0.12288079 -0.047780175 0.037598353 -0.08718219
0.00039702567 0.050183862 0.11312669 0.074605286 0.03960282 -0.1136956 0.045193817 -0.061395627
-0.035966586 -0.09458151 -0.05399035 -0.06603775 0.062231414 0.07724216 0.053497415 0.0480926
-0.01167414 -0.038812287 -0.0098796245 -0.050729796 0.024283808 -0.10764544 0.027841795 -0.102308854
-0.049922097 0.07358142 0.058158316 0.023576574 -0.026976064 0.08582396 -0.09882561 0.040890582
0.05384689 -0.07082355 0.034507476 -0.0456688 0.088769466 -0.10747589 0.04053568 0.08106383
0.08045361 -0.068881325 0.039659433 -0.08331929 0.018568812 -0.10575582 -0.1088765 0.037509732
0.059209075 -0.01654865 -0.026776843 -0.03739899 -0.01705846 -0.045937207 -0.010639305 -0.081233695
-0.03707486 0.06283672 0.03195404 0.024120936 0.06281485 -0.120926715 0.062338404 0.011022146
0.117889166 -0.043769874 -0.02457355 -0.02676886 -0.11796522 -0.008060638 0.037812274 0.053984765
00000000: 0604 14bc db00 ddbd f3b6 98bd 9bef a9bd
00000010: f196 903d c084 ac3d 0633 d83d aa0a c63d
00000020: a862 b4bd 1a6b 5a3c 0b7c e53d d4d3 5c3c
00000030: dac1 703c 8b75 aebd 83e7 b4bd 9f93 05bd
00000040: e531 103d 7227 e7bd 985f b23c 7ab2 2fbb
00000050: 555b 0d3e 2ca4 ee3d 539a db3d 9f82 9ebc
00000060: 663b e13d 1578 00bd b787 bc3d 7c77 d9bd
00000070: fe99 c23d ce04 6a3d a099 ac3d 4ce9 f5bc
00000080: 4f0f 0dbd a9c5 623c 35e2 21bd 80ab d5bd
00000090: 3191 ffbc 8f1a 6dbd 5fe6 293d 41ac ef3d
000000a0: cb59 223d 9422 0d3e 0922 b7bd a0bc 273d
000000b0: 581f 53ba 370d c73d 6115 fd3d fef5 c23d
000000c0: 8e2b 14bd 9655 e0bc 5f7a dcbc 0316 9dbd
000000d0: 7d1e 43bd 6e37 c9bc edc1 3abd 7de4 993d
000000e0: f045 923a edba c93d 0e84 2bbb 47cb 99bd
000000f0: 476d a63c cea3 c9bc d4e0 cb3d 4ee8 073e
00000100: 6abc 40bd 58dd 353d 74f3 a7bd 5c1e 96bd
00000110: 9e6c 193d bac6 ddbd 87e3 8bbb b895 8fbd
00000120: f6de 23bd e89f 7a3d 84f6 6bbd c966 8abd
00000130: 585e aa3c 5e24 193c a347 0ebd 5968 cdbc
00000140: b6af 9b3d 1dcf 713d f4f0 a7bd d972 3e3d
00000150: 8edc aebd 3c7c 5f3c 69ad c3bd 599b 323d
00000160: 88e8 bcbd 400d b93d 3124 e4bd 6459 f5bd
00000170: 6028 bbbc ef52 c6bd eeae 8c3b 2f5e d03b
00000180: fd0c 78bc eb2c b33d 80e1 013e f684 acbd
00000190: 9b8f 2abd f854 d63d ac7d 4abd b81f d9bd
000001a0: 1226 77bd 1fd6 fe3b 0642 0f3d cc9a 9a3c
000001b0: 8a35 f0bb 6e9d 993d 8368 f53d ff8d 8e3d
000001c0: ed15 e53d 44a6 1fbd b64a fabd 8890 983d
000001d0: fe8e 37bd 495a 4d3d f362 e3bd 5fd5 d43d
000001e0: 6996 debd 9456 7e3d 03fd a43d c6ad 043d
000001f0: eb03 9d3d 6b6b 58bd 3195 aa3d 2a25 fabd
00000200: 6efc eebd 4b58 7c3d 640e 873d afb2 43bd
00000210: 8e9d 95bc 969a 4cbd cc17 41bd da4a 12bd
00000220: 6908 f6bd 1688 aabd 4c49 753d 6267 703a
00000230: 44ae d43c 8d66 19bd a5e0 c4bc 5348 e23d
00000240: 6748 f33d 8203 643c 3754 d23d 6a7b 9b3d
00000250: f71b e5bd a725 8a3c 4f19 91bd 818a 69bc
00000260: f6e2 0abd 33b5 7f3d b850 633c 80c9 a5bc
00000270: 9005 6e3b a633 f93c 015a bbbc 68a5 ad3d
00000280: 37e6 973d c6e3 a5bd c144 053e 0bf9 c63d
00000290: 7478 b5bd f3f5 0cbd 3bf0 8abd 571d cc3d
000002a0: 9a83 5d3c f726 413d 41a5 853a 7fc5 b8bd
000002b0: 65af 8cbd 82d6 d6bd e561 c63d f8de de3d
000002c0: d5a9 b0bd fce0 e03d 46da 57bc 7578 f43d
000002d0: eca8 fbbd 25b5 43bd bb00 1a3d 938c b2bd
000002e0: e227 d039 988d 4d3d f7ae e73d a8ca 983d
000002f0: 9136 223d 3dd9 e8bd 271d 393d fb79 7bbd
00000300: b351 13bd f3b3 c1bd fc24 5dbd cd3e 87bd
00000310: 5ee6 7e3d 2331 9e3d 1b20 5b3d bffc 443d
00000320: e444 3fbc a2f9 1ebd 26de 21bc 0cca 4fbd
00000330: d6ee c63c 3675 dcbd 7a14 e43c 4e87 d1bd
00000340: 1d7b 4cbd dbb1 963d 6a37 6e3d a923 c13c
00000350: e8fc dcbc 79c4 af3d 1565 cabd e27c 273d
00000360: 8e8e 5c3d f00b 91bd b657 0d3d 350f 3bbd
00000370: c4cc b53d 521c dcbd be08 263d cb04 a63d
00000380: ddc4 a43d a711 8dbd ee71 223d 4ea3 aabd
00000390: 9f1d 983c 8296 d8bd a4fa debd cea3 193d
000003a0: 3785 723d 0991 87bc 1c5b dbbc af2f 19bd
000003b0: 2fbe 8bbc a728 3cbd 7b50 2ebc da5d a6bd
000003c0: cfdb 17bd 8ab0 803d 3de2 023d 4599 c53c
000003d0: 12a5 803d 6da8 f7bd 8e56 7f3d 3b96 343c
000003e0: e06f f13d 0a48 33bd 784e c9bc 5e4a dbbc
000003f0: c097 f1bd c410 04bc 0be1 1a3d 211f 5d3d

blocks.1.residual_conv.bias f4 [64]
0.033388827 0.085156575 0.018717092 0.08280481 0.071698695 0.0015067373 0.0627361 0.107228994
-0.06946142 0.05935711 -0.11629736 0.04595929 0.014326331 -0.099246636 0.0732771 -0.08496139
-0.016143868 0.0040155672 -0.05345925 0.02667613 0.07449738 0.11857893 -0.00044972703 -0.036944706
0.07740743 -0.08817418 -0.11324636 -0.0036937906 -0.11178164 -0.0114505375 -0.07866841 0.09528414
0.07194515 0.04031729 -0.041884977 -0.0105027575 0.0463575 0.017575873 0.11816511 0.0003035205
-0.082715996 -0.0025914498 0.039686825 0.087472245 -0.031107856 0.09018743 0.090599515 0.02969323
-0.053508546 -0.10309879 -0.08232858 -0.0034410423 -0.09260114 -0.028741587 0.041044176 -0.08488017
0.095975816 0.11205612 0.0012935887 0.0034320687 -0.042702217 0.100625075 -0.08285098 -0.027718756
00000000: b9c2 083d 9266 ae3d 9654 993c 9195 a93d
00000010: c4d6 923d b77d c53a c97b 803d e09a db3d
00000020: ca41 8ebd 7120 733d 4f2d eebd cf3f 3c3d
00000030: fdb8 6a3c d241 cbbd 4e12 963d 3d00 aebd
00000040: 2540 84bc 0595 833b 16f8 5abd e687 da3c
00000050: 1592 983d 83d9 f23d 57c9 ebb9 5553 17bd
00000060: c987 9e3d aa94 b4bd b5ed e7bd 8613 72bb
00000070: c6ed e4bd 099b 3bbc e71c a1bd 5524 c33d
00000080: fb57 933d be23 253d 958f 2bbd c213 2cbc
00000090: 5de1 3d3d 47fb 8f3c 8d00 f23d d521 9f39
000000a0: 0167 a9bd 50d5 29bb a78e 223d a624 b33d
000000b0: e7d5 febc 30b4 b83d 3d8c b93d 373f f33c
000000c0: c72b 5bbd 7525 d3bd e39b a8bd 1c83 61bb
000000d0: aba5 bdbd 7a73 ebbc f01d 283d a8d5 adbd
000000e0: f88e c43d ae7d e53d a28d a93a 8fec 603b
000000f0: 85e8 2ebd 8514 ce3d c6ad a9bd 7212 e3bc

blocks.2.causal_conv.weight f4 [64, 64, 2]
-0.014456324 0.03553017 -0.0058326153 -0.014673292 -0.073591195 0.041534185 0.048766907 -0.012617415
-0.022343766 0.028032765 0.08337865 0.057210606 -0.029312141 0.059679557 0.08319305 -0.009665794
0.037649315 -0.020167524 0.0117928935 0.085166655 -0.028646875 -0.03586841 -0.031511374 0.062037338
-0.08472712 -0.016385226 0.018292302 -0.020292094 0.0022713854 0.044939995 0.073565535 -0.0060045375
-0.024729399 0.06653892 0.059697676 -0.068562426 0.031932298 0.030670518 0.055366695 0.008539654
-0.040291864 0.08848762 0.04771434 -0.03305333 -0.053039387 -0.0075272424 -0.024499392 -0.010940804
-0.090018734 -0.010724917 -0.020754995 -0.052543465 0.012455962 -0.05740869 0.008612812 -0.08729968
-0.008421742 -0.04537734 0.023392234 -0.04407792 0.049106598 0.020578649 -0.02930678 0.08005272
0.035665806 -0.03678952 -0.061174233 -0.020893225 0.048795216 -0.035324037 0.058516324 0.06259002
-0.06704129 0.020717615 -0.08810308 0.08318363 0.048778743 -0.019846378 -0.08652339 -0.0716178
0.033407547 0.01682964 0.086447395 -0.07069653 -0.042560484 -0.08197356 -0.079777434 0.0015550443
0.07866385 0.027131312 -0.015965758 0.008672398 -0.002288936 -0.08643292 0.06521202 -0.029936789
-0.023501644 -0.021402359 -0.073318094 0.083179556 0.027356554 0.080471046 -0.041145753 0.02227888
0.010651013 -0.08831707 -0.023147926 -0.052984923 0.011964172 0.024551876 0.080495305 0.03438472
0.08364845 0.004757078 -0.047065858 0.0006294408 -0.062054314 -0.07228979 0.048812192 0.0046397527
-0.056220822 0.0033956748 -0.017778175 -0.02516789 0.029625036 -0.049649373 -0.08299015 0.060681764
0.08209429 -0.012286467 0.085289024 0.061837215 -0.0014803004 0.033995815 0.08135664 0.015359721
-0.07025898 -0.035738826 -0.047333986 -0.033554602 0.05837379 0.029762093 -0.086682685 -0.031640373
0.0093910685 -0.04674795 -0.08264664 0.06192267 0.06023892 0.02820996 -0.04722586 -0.050167203
-0.0029164888 -0.03945243 0.043755434 0.06611888 0.08629118 -0.053649332 0.021282095 -0.077051565
-0.06302837 -0.086320914 -0.03786539 -0.05176307 -0.08565561 0.08250767 -0.07467148 0.030728078
-0.053339247 -0.01931023 -0.043789014 0.06281551 0.052583966 0.06502563 0.06896362 -0.04383022
-0.05674582 0.013678319 0.055685144 -0.01869061 0.00904078 -0.04819941 -0.0291005 -0.035353933
-0.061611082 0.02339251 -0.070787236 -0.046464603 -0.02362302 6.93435e-05 -0.009770747 0.071609326
0.004041931 -0.029646738 0.07065458 -0.08909307 -0.025298934 -0.009900404 0.09317336 -0.051261336
-0.08714561 0.03313755 0.029778419 -0.018347038 -0.0012262793 0.049830455 -0.03032005 -0.06881158
0.06359544 0.044946533 0.0639083 0.063485906 0.038069014 -0.08119106 0.08743771 0.027522339
-0.018542005 -0.0386896 -0.060765322 -0.05336757 0.06701535 0.057688955 0.07361352 -0.044395484
-0.038623918 -0.03531713 0.016156912 -0.034062654 -0.020108193 -0.07663355 0.0806189 -0.015677888
0.058520813 -0.06215978 -0.07976762 -0.026063614 -0.08958454 -0.009019005 -0.038466055 -0.07210842
0.051611397 -0.07290567 0.06311516 0.016355712 -0.04988685 0.09631542 -0.048052385 -0.07762112
0.036967933 0.03138729 -0.037400607 -0.081915535 -0.05033904 -0.07887186 -0.061996277 0.09755584
00000000: 38da 6cbc 1588 113d 861f bfbb 3f68 70bc
00000010: fbb6 96bd c01f 2a3d cfbf 473d 46b9 4ebc
00000020: 460a b7bc f8a4 e53c 6dc2 aa3d ab55 6a3d
00000030: 0420 f0bc 8d72 743d 1e61 aa3d 475d 1ebc
00000040: 2b36 1a3d 5d36 a5bc fb36 413c db6b ae3d
00000050: daac eabc c1ea 12bd 1212 01bd dd1a 7e3d
00000060: 6a85 adbd 4f3a 86bc bdd9 953c 9b3b a6bc
00000070: 86db 143b 0013 383d 87a9 963d b6c1 c4bb
00000080: 4f95 cabc 8f45 883d 8d85 743d 756a 8cbd
00000090: 71cb 023d bd40 fb3c 30c8 623d e8e9 0b3c
000000a0: 1509 25bd ff38 b53d 1d70 433d ee62 07bd
000000b0: d43f 59bd 16a7 f6bb f3b2 c8bc 0f41 33bc
000000c0: be5b b8bd 90b7 2fbc 6106 aabc d137 57bd
000000d0: 1714 4c3c 6025 6bbd c01c 0d3c 2dca b2bd
000000e0: 59fb 09bc 97dd 39bd 12a1 bf3c 0d8b 34bd
000000f0: 0024 493d 8e94 a83c c614 f0bc aef2 a33d
00000100: 4f16 123d 9cb0 16bd d591 7abd 4528 abbc
00000110: 7edd 473d f0af 10bd d0ae 6f3d 322f 803d
00000120: f24c 89bd fdb7 a93c 636f b4bd 2e5c aa3d
00000130: 38cc 473d df94 a2bc 2d33 b1bd 5aac 92bd
00000140: 5ad6 083d 50de 893c 550b b13d 58c9 90bd
00000150: e753 2ebd c1e1 a7bd 5a62 a3bd a1d2 cb3a
00000160: 831a a13d 7c42 de3c 9fca 82bc ac16 0e3c
00000170: f901 16bb be03 b1bd e18d 853d ff3d f5bc
00000180: 8586 c0bc 0054 afbc cc27 96bd 0b5a aa3d
00000190: da1a e03c 01ce a43d 7388 28bd 3382 b63c
000001a0: 9681 2e3c 94df b4bd b8a0 bdbc b806 59bd
000001b0: 6005 443c 0421 c93c b9da a43d fed6 0c3d
000001c0: e14f ab3d 43e1 9b3b 21c8 40bd 0f01 253a
000001d0: aa2c 7ebd ab0c 94bd 4bef 473d 1109 983b
000001e0: ce47 66bd f889 5e3b 89a3 91bc e42c cebc
000001f0: 34b0 f23c 245d 4bbd bdf6 a9bd 718d 783d
00000200: 0d21 a83d 2d4d 49bc 03ac ae3d 0549 7d3d
00000210: a406 c2ba 323f 0b3d 4f9e a63d 57a7 7b3c
00000220: f1e3 8fbd e062 12bd 48e1 41bd 8d70 09bd
00000230: 5b19 6f3d a2cf f33c b186 b1bd 5699 01bd
00000240: ffdc 193c c77a 3fbd a442 a9bd a0a2 7d3d
00000250: 16bd 763d 9318 e73c e76f 41bd 207c 4dbd
00000260: 9022 3fbb df98 21bd e638 333d 5669 873d
00000270: 6eb9 b03d 67bf 5bbd ca57 ae3c 36cd 9dbd
00000280: 0515 81bd 05c9 b0bd bd18 1bbd 8305 54bd
00000290: 356c afbd c8f9 a83d 5ced 98bd 73b9 fb3c
000002a0: 417a 5abd 7d30 9ebc 1c5c 33bd 6ba5 803d
000002b0: 4962 573d 282c 853d cc3c 8d3d 5187 33bd
000002c0: 4e6e 68bd 071b 603c 1b16 643d 0d1d 99bc
000002d0: c81f 143c bf6c 45bd 2c64 eebc 49cf 10bd
000002e0: e75b 7cbd a6a1 bf3c e6f8 90bd ab51 3ebd
000002f0: 1085 c1bc 826c 9138 7c15 20bc e9a7 923d
00000300: 2d72 843b b7dd f2bc 59b3 903d 6d76 b6bd
00000310: b63f cfbc 4e35 22bc add1 be3d 68f7 51bd
00000320: 6679 b2bd 3dbb 073d dff1 f33c 874c 96bc
00000330: 1bbb a0ba 051b 4c3d c161 f8bc 16ed 8cbd
00000340: 533e 823d db19 383d 5be2 823d e604 823d
00000350: 41ee 1b3d 8047 a6bd 8b12 b33d 8776 e13c
00000360: 67e5 97bc fc78 1ebd 0fe5 78bd f497 5abd
00000370: 583f 893d 414b 6c3d afc2 963d 0ad8 35bd
00000380: 1d34 1ebd b2a8 10bd 805b 843c 4885 0bbd
00000390: f0b9 a4bc 0df2 9cbd 861b a53d ea6e 80bc
000003a0: 85b3 6f3d 419b 7ebd 355d a3bd 5c83 d5bc
000003b0: 1978 b7bd 73c4 13bc 958e 1dbd 94ad 93bd
000003c0: 7966 533d 914f 95bd 8542 813d 6afc 853c
000003d0: 2756 4cbd 0541 c53d 94d2 44bd d2f7 9ebd
000003e0: b06b 173d f68f 003d 6131 19bd 55c3 a7bd
000003f0: 4f30 4ebd 9287 a1bd cfef 7dbd 5bcb c73d

blocks.2.causal_conv.bias f4 [64]
0.031137092 0.075161666 0.08372289 -0.024112923 0.028854186 0.058092088 -0.03994287 -0.03147573
-0.07285203 0.07225963 0.085861586 -0.07054635 -0.03338377 -0.02092799 0.046696357 0.08514419
0.036488652 0.009551615 0.0049979663 0.060073663 0.0075921956 0.006763226 -0.055951077 0.021917358
0.08724379 -0.016931098 -0.023984373 -0.016314372 0.02614363 0.079371445 0.0038759515 -0.024607403
0.019022629 -0.0795743 -0.07727077 0.0802793 0.06823887 0.056377728 -0.06942284 0.08685434
0.077052645 -0.07408865 -0.02731907 0.010642785 -0.025953146 0.0435064 0.037597172 0.010949462
0.07203797 0.091726154 0.040655382 -0.030867353 0.041025795 -0.021887476 0.0032503153 0.053999435
0.0029175133 0.07514071 0.018724792 -0.021170283 0.031870086 0.04835917 0.012540582 0.04625847
00000000: 3713 ff3c 5cee 993d e876 ab3d 7788 c5bc
00000010: 9d5f ec3c f8f1 6d3d 239b 23bd b2ec 00bd
00000020: 7233 95bd dbfc 933d 33d8 af3d 9b7a 90bd
00000030: 6cbd 08bd 2d71 abbc ae44 3f3d 1460 ae3d
00000040: 2075 153d 617e 1c3c fbc5 a33b cd0f 763d
00000050: f4c7 f83b 0d9e dd3b f52c 65bd 088c b33c
00000060: dfac b23d 16b3 8abc e07a c4bc b8a5 85bc
00000070: 2a2b d63c 7f8d a23d ad03 7e3b 7795 c9bc
00000080: 58d5 9b3c daf7 a2bd 2340 9ebd 7969 a43d
00000090: d2c0 8b3d 55ec 663d 902d 8ebd b0e0 b13d
000000a0: c7cd 9d3d cabb 97bd 3ecc dfbc 135f 2e3c
000000b0: b19b d4bc c433 323d 7eff 193d 5f65 333c
000000c0: a588 933d ecda bb3d 4286 263d 88dd fcbc
000000d0: aa0a 283d 5d4d b3bc 3e03 553b 832e 5d3d
000000e0: c033 3f3b 5fe3 993d bc64 993c 4d6d adbc
000000f0: 358a 023d 4414 463d 0377 4d3c 8579 3d3d
