model_checkpoint/shubhranil/model_best_SlidingWindowWaveNet_mse_bicep.pth (torch, 424981 bytes, 25 tensors)

input_conv.weight f4 [64, 6, 1]
0	0xbe0ef4bc	-0.13960546
1	0x3e074c92	0.13212803
2	0xbef91adf	-0.48653314
3	0x3e2d4ed4	0.16924602
4	0x3eb6e41f	0.35720918
5	0x3dc65f67	0.09686165
6	0x3ce68f20	0.02814442
7	0xbf062423	-0.5239889
8	0x3e9cfada	0.30660135
9	0xbe6ada66	-0.22934875
10	0xbe8f05e4	-0.27934182
11	0xbd3c8c35	-0.04603215
12	0x3d021e62	0.031767257
13	0x3e475d91	0.19469287
14	0x3e80828b	0.25099596
15	0xbacecabe	-0.0015776975
16	0xbe7b462a	-0.24538484
17	0xbe1acf3a	-0.15118113
18	0xbe521d3b	-0.20518963
19	0x3e3e14c0	0.18562603
20	0x3f087198	0.5329833
21	0xbeb8f6f0	-0.36125898
22	0x3e79e794	0.24404746
23	0xbe84554a	-0.2584632
24	0xbe6a3ddf	-0.22875164
25	0xbed25f45	-0.4108831
26	0x3ec7054f	0.38871238
27	0xbd3d7a99	-0.046259496
28	0x3e039817	0.12850986
29	0xbec8de87	-0.39232275
30	0x3e604dfe	0.21904752
31	0x3dbb99c6	0.09160189
32	0xbe1a29b6	-0.15054974
33	0xbdbdf619	-0.09275455
34	0x3e99dc2e	0.30050796
35	0x3d70bba3	0.058772694
36	0x3e4760ec	0.19470567
37	0xbe0ee35b	-0.13953917
38	0x3e657190	0.22406602
39	0xbe71fb90	-0.2363112
40	0xbe4f3b2c	-0.20237416
41	0x3ec1cf0b	0.37853274
42	0xbe4e7090	-0.20160127
43	0xbe8bd52a	-0.2731107
44	0xbeca27e4	-0.3948356
45	0xbeac1746	-0.33611506
46	0x3e4e9e3b	0.20177548
47	0xbe3aa773	-0.1822794
48	0xbddda773	-0.10822954
49	0xbdf95101	-0.121736534
50	0x3dc1ceaa	0.09463246
51	0x3e214dfb	0.15752403
52	0x3dd91f45	0.10601667
53	0x3b67dfed	0.0035381273
54	0xbefe1a66	-0.49629515
55	0xbe95aa99	-0.29231718
56	0xbd19ebd6	-0.037578426
57	0x3d61246f	0.054966386
58	0xbe855b52	-0.26046234
59	0xbc456715	-0.012048502
60	0x3e9aeeaa	0.3026021
61	0xbe97746f	-0.2958102
62	0x3db14ee0	0.08657622
63	0xbe82fb79	-0.25582483
64	0x3e8f8a4b	0.28035197
65	0xbe09a466	-0.1344162
66	0xbe1476d1	-0.1449845
67	0xbd872a01	-0.065998085
68	0xbdd85815	-0.10563675
69	0xbe8a8d57	-0.2706096
70	0x3e368aa0	0.17826319
71	0xbd80e874	-0.06294337
72	0xbead8b4e	-0.33895344
73	0x3c406a0d	0.0117440345
74	0x3eceb588	0.40372872
75	0x3e9a8a29	0.30183533
76	0xbec21299	-0.37904814
77	0xbe361f00	-0.17785263
78	0xbe573c89	-0.21019186
79	0xbdad4d2b	-0.08461984
80	0x3e89dd5b	0.26926693
81	0xbeac4293	-0.33644542
82	0x3eb8cb13	0.36092433
83	0x3e8e83d4	0.27834952
84	0xbdc7a925	-0.09749059
85	0xbe38a398	-0.18031156
86	0x3e6c5d65	0.23082502
87	0x3c7027b3	0.0146579025
88	0xbda95c75	-0.08269588
89	0xbe32e15b	-0.17468779
90	0xbd39a997	-0.04532775
91	0x3ef54882	0.47906882
92	0x3e7e43bf	0.2483053
93	0xbcd9b656	-0.026576202
94	0x3e1afd97	0.151358
95	0x3e966c9d	0.2937974
96	0x3d5ae7bf	0.053443667
97	0xbe7f9de2	-0.24962571
98	0x3f0d73bb	0.55254716
99	0xbd85dc38	-0.06536144
100	0x3e83a3b1	0.25710824
101	0xbe87c98e	-0.26520962
102	0xbe955c44	-0.29171956
103	0x3d961ab3	0.07329311
104	0xbeaac0f9	-0.3335035
105	0x3e9d29d8	0.30695987
106	0xbe88720b	-0.26649508
107	0x3dce0bd9	0.100608535
108	0xbe8903e1	-0.26760772
109	0xbedef7fa	-0.43548566
110	0x3d4134bd	0.047169436
111	0xbe50a40d	-0.2037508
112	0x3e70fa47	0.23532973
113	0x3e5354ef	0.20637868
114	0x3e828d5a	0.25498468
115	0x3e61f070	0.22064376
116	0x3ebf673b	0.37383446
117	0x3ccfa933	0.025349235
118	0x3df17e68	0.11791688
119	0x3e043677	0.12911402
120	0x3e2fbb66	0.1716133
121	0x3e8c7399	0.27431944
122	0x3e5c7b3e	0.21531388
123	0xbe822c34	-0.2542435
124	0xbec28264	-0.37990105
125	0xbe2debd0	-0.16984487
126	0x3eced6b4	0.4039818
127	0x3f0091f4	0.50222707
128	0xbf13d33f	-0.5774421
129	0xbcf14078	-0.029449686
130	0xbe22c754	-0.1589635
131	0xbe0b05d4	-0.13576442
132	0xbf094b11	-0.5363017
133	0x3d86eea5	0.065884866
134	0x3e458623	0.1928945
135	0xbea0beef	-0.3139567
136	0xbe8050e5	-0.25061718
137	0xbe0cdda5	-0.13756426
138	0x3d7ca474	0.061680272
139	0xbda1e44f	-0.079048745
140	0xbf025155	-0.5090535
141	0x3deb9a97	0.11504095
142	0xbdf1ba78	-0.11803144
143	0xbeb39d0e	-0.3508076
144	0xbe31ba44	-0.17356211
145	0x3eb61f80	0.35570908
146	0x3e59e260	0.21277761
147	0x3e88a7f3	0.26690635
148	0x3e89e9a0	0.26936054
149	0xbe4c9bc3	-0.19981293
150	0xbdce5a44	-0.100758106
151	0xbdbbecb0	-0.09176004
152	0xbee20b37	-0.4414918
153	0xbe63a4d0	-0.2223084
154	0x3ebeec3e	0.37289613
155	0xbd8e0e29	-0.069362946
156	0xbe25d390	-0.16193986
157	0x3ead73fb	0.3387755
158	0xbe92300a	-0.28552276
159	0x3c84760b	0.016169569
160	0x3ec8f34b	0.39248118
161	0xbe85021e	-0.25978178
162	0xbe3a0fbf	-0.18170069
163	0x3dcaff65	0.09911994
164	0x3b635821	0.003468998
165	0x3e0d7515	0.13814195
166	0x3ec562f1	0.3855205
167	0x3ea36f07	0.31920645
168	0xbf16d80a	-0.589234
169	0x3c21f72a	0.009885589
170	0x3dcf94eb	0.10135826
171	0xbea80a0a	-0.3282016
172	0xbe8ecea1	-0.2789202
173	0x3e16d0c6	0.14728078
174	0xbebbd3f7	-0.36685154
175	0xbebcd465	-0.36880794
176	0xbd04869b	-0.032354932
177	0xbdbf180c	-0.093307585
178	0x3e14b8a2	0.14523557
179	0xbccaeafe	-0.024770256
180	0xbe4e8b3d	-0.20170303
181	0x3ee4e509	0.4470599
182	0xbeb30e08	-0.34971642
183	0xbda6a259	-0.08136434
184	0x3e3b6512	0.18300274
185	0xbe59cf01	-0.21270372
186	0xbf078f9c	-0.52953506
187	0xbe3fcbe1	-0.18730117
188	0xbdfec892	-0.124405995
189	0xbe260c9f	-0.16215752
190	0x3e69f3fb	0.22846977
191	0x3e53f3a8	0.20698416
192	0xbe88d4d2	-0.2672487
193	0x3da6cf5c	0.081450194
194	0x3e7229f4	0.23648816
195	0xbe171ca1	-0.14757015
196	0x3e6fcf2f	0.23418878
197	0x3ea3f2fb	0.32021317
198	0x3e521b66	0.20518264
199	0xbd27dae6	-0.040980242
200	0x3eeb8dd1	0.46006635
201	0x3e644c9d	0.2229485
202	0xbe918543	-0.28421983
203	0xbe08c416	-0.13356051
204	0x3e668ea7	0.22515355
205	0xbe050c70	-0.12993026
206	0xbe25450a	-0.16139618
207	0xbeb10e00	-0.34580994
208	0x3ec97b36	0.39351815
209	0xbe5c251c	-0.21498531
210	0xbeed73f6	-0.46377534
211	0xbedc537c	-0.43032444
212	0x3f2cd77c	0.67516303
213	0xbd8a0820	-0.06739831
214	0xbe5249a0	-0.20535898
215	0x3d07c5c2	0.03314758
216	0x3e89ba52	0.26899964
217	0x3d8af63b	0.06785246
218	0xbe532ded	-0.20622988
219	0xbe7a8c3f	-0.24467562
220	0x3ed1e70e	0.40996593
221	0xbe7a299b	-0.24429934
222	0xbf0a1c80	-0.5394974
223	0xbeaadcc8	-0.33371568
224	0x3ed14e43	0.4088002
225	0xbe8c6e48	-0.27427888
226	0x3dc02532	0.093820944
227	0xbd8dff40	-0.06933451
228	0x3cec3be6	0.028837156
229	0xbe277131	-0.16351773
230	0x3e033d52	0.1281636
231	0x3d2ea36c	0.04263632
232	0x3ea13da1	0.31492332
233	0xbeb38427	-0.35061762
234	0x3deb9e7c	0.11504838
235	0x3e063227	0.13105069
236	0x3eb6f4f0	0.35733747
237	0xbe6d8b7d	-0.23197742
238	0xbe218665	-0.15773924
239	0xbe9b07d1	-0.302794
240	0xbf15a7fe	-0.5845946
241	0xbee3efa8	-0.4451878
242	0xbd052d33	-0.03251381
243	0xbec304f5	-0.3808972
244	0x3dfb5a0c	0.122730345
245	0x3d441cdc	0.047879085
246	0xbe6e255d	-0.2325644
247	0x3e3228c5	0.17398365
248	0xbd982157	-0.07428234
249	0x3e9baa4a	0.30403358
250	0xbe8a853a	-0.2705477
251	0x3e9a8c89	0.30185345
252	0xbe0a8da4	-0.13530594
253	0x3e029c8d	0.12755032
254	0xbe930d47	-0.28721067
255	0x3d3fc986	0.046823047

input_conv.bias f4 [64]
0	0x3e819c2b	0.2531446
1	0xbd5db3b6	-0.054126464
2	0xbd9900cf	-0.07470857
3	0x3e4cd141	0.20001699
4	0xbea8e3ba	-0.32986242
5	0x3d8d7217	0.069065265
6	0x3db139d0	0.08653605
7	0x3d9f987e	0.077927575
8	0x3e5f0cee	0.21782276
9	0x3ea6d227	0.3258221
10	0x3d914a5b	0.0709426
11	0x3e9f9642	0.31169325
12	0xbe5b854a	-0.21437564
13	0xbe4a305b	-0.19745009
14	0xbe8afdc4	-0.27146733
15	0xbe3add0a	-0.18248382
16	0x3c02485b	0.007951821
17	0xbd96d4cd	-0.07364807
18	0x3d24531e	0.04011833
19	0x3e1c1b70	0.15244842
20	0xbdcd687a	-0.10029693
21	0xbe8fdcf9	-0.28098276
22	0x3dd37623	0.10325267
23	0x3eb66b24	0.35628617
24	0x3d073e62	0.033018477
25	0xbdee6c7e	-0.11641787
26	0xbed9410b	-0.42432436
27	0xbb31edb0	-0.002714973
28	0xbe04e9cd	-0.12979813
29	0xbeac349a	-0.33633882
30	0x3dc5c8f5	0.0965747
31	0x3cbaf3d7	0.02282135
32	0x3e053dee	0.13011906
33	0xbd15722b	-0.036485832
34	0x3e112a9a	0.14176407
35	0xbdd3b288	-0.103367865
36	0x3d7d41e3	0.061830413
37	0xbebd0342	-0.36916548
38	0xbe99756b	-0.29972395
39	0x3e849482	0.25894552
40	0xbe997228	-0.29969907
41	0xbe6f3363	-0.23359446
42	0xbd95b0e7	-0.07309132
43	0xbe88549a	-0.26627046
44	0x3ec23e96	0.37938374
45	0xbd89731f	-0.06711411
46	0xbe83eacd	-0.25765076
47	0xbe8ccc78	-0.27499747
48	0x3eca554d	0.39518204
49	0x3ea1f978	0.31635642
50	0xbe9c60a5	-0.30542484
51	0xbe990ac7	-0.29891035
52	0x3e9f3065	0.3109161
53	0x3d88f101	0.06686593
54	0x3ec8b3d1	0.3919969
55	0xbe738f79	-0.23785199
56	0xbe9cd824	-0.30633652
57	0x3e368eb7	0.17827879
58	0xbea44b77	-0.32088825
59	0x3ec8096a	0.39069682
60	0xbbbc43b7	-0.005745377
61	0x3ec9287a	0.39288694
62	0xbe5adaf1	-0.21372582
63	0xbecfbf4d	-0.40575638

blocks.0.causal_conv.weight f4 [64, 64, 2]
0	0x3b92844b	0.004471337
1	0xbd8e0aa9	-0.06935627
2	0x3d852af2	0.06502332
3	0xbd18a913	-0.037270617
4	0x3d87c0d4	0.06628576
5	0xbb7b6250	-0.003835816
6	0xbd65bbe0	-0.056087375
7	0xbc5d18b7	-0.013494662
8	0xbda5b725	-0.08091573
9	0xbd801108	-0.062532485
10	0xbd6e0372	-0.058108754
11	0x3c20e16f	0.009819373
12	0x3d62142e	0.055195026
13	0xb9d41bc2	-0.00040456472
14	0x3d867dc2	0.06566955
15	0x3d9c90f9	0.07644839
16	0x3ba61de7	0.0050694826
17	0xbb26d59a	-0.0025456906
18	0x3d78b0bb	0.06071542
19	0xbda87a04	-0.08226398
20	0x3b67fb70	0.003539767
21	0x3cbcfca8	0.023069695
22	0xbd91572b	-0.07096704
23	0xbd26b9cd	-0.040704537
24	0xbd681b56	-0.056666695
25	0x3c533242	0.0128904
26	0x3cdfbb7e	0.027311083
27	0x3d1fc125	0.039002556
28	0x3db5932c	0.088659614
29	0xbd96873c	-0.07350013
30	0xbbed6639	-0.007244852
31	0xbc63d150	-0.013904884
32	0x3d11ef68	0.035628706
33	0xbce88035	-0.028381446
34	0xbdbbc2b1	-0.09167994
35	0xbd499061	-0.049209956
36	0xbccd5b35	-0.025067905
37	0x3cd53f4e	0.026031163
38	0xbd8fbe41	-0.0701871
39	0xbc4011fc	-0.011723038
40	0x3d850ab8	0.06496185
41	0x3db6b301	0.08920861
42	0xbd56ee7d	-0.052473534
43	0x3d7939cf	0.060846146
44	0x3c816279	0.015794026
45	0xbd13369e	-0.03594076
46	0xbd0819a7	-0.03322759
47	0xbaf03562	-0.0018326456
48	0x3d152704	0.03641416
49	0x3ccd8c21	0.025091233
50	0x3c4ba20e	0.012428774
51	0xbd05051e	-0.032475583
52	0x3d95e66f	0.07319342
53	0xbc802533	-0.015642738
54	0xbd4d1487	-0.050068405
55	0xbb45d782	-0.0030188267
56	0xbba486eb	-0.0050209663
57	0x3dd4ae2a	0.10384782
58	0xbda4cd06	-0.080469176
59	0xbd0b7979	-0.034051392
60	0xbce7f11e	-0.028313216
61	0x3ca171c5	0.01970757
62	0x3b772d12	0.0037716073
63	0x3cae5b06	0.021283638
64	0xbd520385	-0.051272888
65	0xbd264cc7	-0.040600564
66	0xbc25313e	-0.010082541
67	0xbd4f6026	-0.050628804
68	0xbc584202	-0.013199331
69	0x3dac2ad4	0.08406606
70	0xbca53678	-0.020167574
71	0x3c8cb8d1	0.017177971
72	0x3d681982	0.05666495
73	0x3d8dc4ed	0.06922326
74	0x3dbbfe2e	0.0917934
75	0x3c49acf0	0.012309298
76	0x3c4fb69c	0.012677815
77	0xbd7f66ec	-0.062354013
78	0xbd32da37	-0.043665137
79	0xbd0867ac	-0.033301994
80	0xbc3d9bcb	-0.0115727885
81	0x3d90c08c	0.070679754
82	0x3cb0098a	0.021488924
83	0xbda2931f	-0.07938217
84	0xbd05638b	-0.032565635
85	0x3d411792	0.04714162
86	0xbc22d59b	-0.009938623
87	0xbcc2daf7	-0.023786051
88	0xbd42bed2	-0.04754526
89	0xbcc3f195	-0.023918906
90	0xbc9ecb85	-0.019384155
91	0x3cb5ec49	0.022207396
92	0x3d1a277d	0.037635315
93	0x3d5049b0	0.050851524
94	0xbdac6956	-0.08418529
95	0xbc8bf7f6	-0.01708601
96	0x3c62fcbe	0.013854204
97	0x3d8c86df	0.06861662
98	0x3daff49e	0.08591579
99	0xbc7a5c04	-0.015280727
100	0xba165fca	-0.00057363196
101	0xbcb0c05d	-0.021576101
102	0xbbcf458d	-0.00632543
103	0x3da217e0	0.0791471
104	0x3c16dfce	0.009208633
105	0xbd733cad	-0.059384037
106	0xbcf6d29f	-0.030129729
107	0xbd85a51e	-0.06525634
108	0xbc9d1514	-0.01917509
109	0x3d862c9c	0.06551477
110	0x3d9a2911	0.07527364
111	0xbd5eafab	-0.05436675
112	0x3d8dde59	0.06927175
113	0x3d161a65	0.036646266
114	0xbcbbd818	-0.02293019
115	0x3ba7cfae	0.005121193
116	0x3c1c60be	0.0095445495
117	0xbd744a87	-0.059641387
118	0x3cb1c26e	0.021699157
119	0xbcd9bc9f	-0.0265792
120	0xbc9155aa	-0.017741043
121	0x3d80636c	0.06268963
122	0xbd884bfe	-0.06655119
123	0x3d01a4dc	0.031651363
124	0x3a0ae99a	0.00052990916
125	0x3a542542	0.000809271
126	0x3d234f08	0.039870292
127	0xbd911fb4	-0.07086125
128	0xbc972743	-0.018451339
129	0xbca8f4bf	-0.020624517
130	0x3c111d34	0.00885706
131	0xbd416623	-0.047216546
132	0x3d6cc88f	0.057808455
133	0xbd431b1c	-0.047633275
134	0xbd67dcc4	-0.056607023
135	0xbd59ba6f	-0.053156313
136	0xbd258236	-0.040407382
137	0x3d7210e7	0.05909815
138	0xbcae66fe	-0.021289345
139	0xbc2c1bda	-0.010504687
140	0xbc6917ae	-0.014226837
141	0x3d0215de	0.031759135
142	0xbb3c7471	-0.0028755928
143	0xbd8c5c35	-0.068535246
144	0xbda1970f	-0.0789014
145	0x3d315121	0.04329026
146	0x3ce4e502	0.02794123
147	0x3d31bfc8	0.043395787
148	0xbd3e9f4e	-0.046538644
149	0x3d5f2fcd	0.054488946
150	0xbc53ddda	-0.0129313115
151	0xbd24bd08	-0.040219337
152	0x3d03c9b1	0.03217477
153	0xbdb53544	-0.0884805
154	0xbd4cff1f	-0.05004799
155	0x3da7ffde	0.082031
156	0x3d9a3d44	0.07531217
157	0xbaba5d64	-0.0014218506
158	0x3dab75d4	0.08372083
159	0x3c50706f	0.012722119
160	0x3d6ee631	0.058324996
161	0xbdc00edc	-0.09377834
162	0x3d91e9b0	0.071246505
163	0x3db92ac8	0.09041363
164	0x3d1c2e09	0.03812984
165	0xbd2fb604	-0.042898193
166	0xbd144ef0	-0.036208093
167	0xbd1d5652	-0.0384124
168	0x3c6a8bda	0.01431557
169	0x3d116a06	0.035501502
170	0xbcbc28de	-0.022968706
171	0xb9e12360	-0.000429417
172	0xbcee262a	-0.029070932
173	0xbd559f06	-0.05215361
174	0x3d56086d	0.05225413
175	0xbcfa9776	-0.0305898
176	0xbdde6ffe	-0.108612046
177	0x3d4bf4e5	0.049794096
178	0xbd646157	-0.055756893
179	0xbd90892d	-0.07057414
180	0xbd696a21	-0.056985978
181	0x3c13bf33	0.009017753
182	0x3d6af777	0.057364907
183	0xbd1113da	-0.035419323
184	0xbd49e419	-0.049289797
185	0xbaf6482a	-0.0018789817
186	0xbc8232f7	-0.015893443
187	0xbd7e9add	-0.062159408
188	0xbd2e4064	-0.042541876
189	0x3ca3ebf6	0.020009976
190	0x3d91a77f	0.071120255
191	0xbd86634c	-0.06561908
192	0xbba61feb	-0.005069723
193	0x3c12620b	0.008934508
194	0xbd549e79	-0.051908944
195	0xbdb77ea4	-0.08959702
196	0xbd8cdb9b	-0.06877824
197	0xbaefd7ff	-0.0018298625
198	0xbad9271c	-0.0016567442
199	0x3d588704	0.052863136
200	0x3d1b9740	0.03798604
201	0x3d6d2f2b	0.05790631
202	0x3d4e3ad5	0.050349075
203	0xbd66186a	-0.056175627
204	0xbc892fa2	-0.016746346
205	0xbdb52dd9	-0.08846635
206	0xbb2666d4	-0.002539088
207	0xbb9629d3	-0.0045826226
208	0xbdb0be80	-0.08630085
209	0xbd7ec9cf	-0.06220418
210	0x3d135b09	0.03597549
211	0xbcd0f4e0	-0.02550739
212	0xbb8d9cdc	-0.0043216776
213	0xbdbd345f	-0.092385046
214	0xbd5790ac	-0.052628204
215	0xbc12e2a3	-0.008965167
216	0x3d437ca9	0.047726307
217	0x3ce69aca	0.028149981
218	0xbd8a1519	-0.06742305
219	0x3c262651	0.010140971
220	0xbdc6d468	-0.09708482
221	0xbd3d0c6a	-0.046154417
222	0x3dc5ff12	0.096677914
223	0xbd992f2b	-0.074797
224	0x3d3f67b6	0.046729766
225	0xbd610f2b	-0.054946106
226	0xbcbbc092	-0.022918973
227	0x3d65627f	0.056002136
228	0x3bb18748	0.005417738
229	0xbda2298d	-0.079180814
230	0xbcada704	-0.021197803
231	0xbc5b6264	-0.013390157
232	0x3d96ac22	0.073570505
233	0x3d9d7065	0.07687453
234	0x3cd51960	0.026013076
235	0x3db35dc9	0.087581225
236	0xbd0aacc1	-0.033856157
237	0x3d8d602b	0.06903108
238	0xbd473039	-0.048629973
239	0x3d15b08e	0.03654533
240	0xbc3bab60	-0.011454433
241	0xbbc866d3	-0.006115773
242	0xbd6da272	-0.058016248
243	0xbc565ae8	-0.013083197
244	0xbb00bfb4	-0.0019645514
245	0x3d991cb8	0.07476181
246	0x3e05cbc8	0.13066018
247	0xbd92c661	-0.07166744
248	0x3d935b53	0.07195153
249	0xbd9f3f90	-0.077757955
250	0x3bf6500d	0.007516867
251	0xbd55dff6	-0.05221554
252	0x3c4e408a	0.0125886295
253	0x3ce8477b	0.028354397
254	0xbd4d023c	-0.05005096
255	0x3d8f2472	0.06989373

blocks.0.causal_conv.bias f4 [64]
0	0x3d35d34d	0.044390965
1	0x3bbac963	0.0057002767
2	0x3c10957f	0.008824705
3	0x3abd5300	0.0014444292
4	0xbda8b228	-0.082371056
5	0xbc2eef71	-0.0106772045
6	0xbd39e098	-0.045380205
7	0xbe048609	-0.12941755
8	0xbda3353c	-0.07969138
9	0xbd00bc91	-0.03142983
10	0xbb60470a	-0.003422203
11	0xbb962b6a	-0.004582812
12	0x3c618c6c	0.013766389
13	0x3d037ee0	0.03210342
14	0xbd015540	-0.03157544
15	0xbdbf1eba	-0.093320325
16	0x3b520e11	0.0032051841
17	0xbc98a271	-0.018632146
18	0x3d0a6afd	0.03379344
19	0x3d11ed51	0.035626713
20	0xbcb51389	-0.022104042
21	0x3c8b31f2	0.01699159
22	0x3d4a39db	0.04937158
23	0x3d7477f7	0.05968472
24	0x3e6d66b4	0.2318371
25	0xbd7f760c	-0.062368438
26	0xbcd0566f	-0.02543184
27	0x3c9c9b95	0.019117156
28	0xbd2faada	-0.042887546
29	0xbd965045	-0.07339529
30	0xbd565afc	-0.052332863
31	0x3db5cf30	0.088774085
32	0x3dd69073	0.1047677
33	0xbc0966dd	-0.008386341
34	0xbc9caa0e	-0.019124057
35	0x3cce8450	0.025209576
36	0xbc400a24	-0.011721168
37	0x3b5e222e	0.0033894884
38	0xbc1ac8fa	-0.009447331
39	0x3ddc7e7e	0.10766314
40	0xbd9c84b5	-0.07642499
41	0x3dbe89aa	0.09303601
42	0xbd890015	-0.06689469
43	0xbd705be1	-0.058681373
44	0x3d6eab2a	0.058268704
45	0xbcd3dbf8	-0.025861725
46	0x3d3deb39	0.046366904
47	0x3be373f8	0.006941315
48	0xbb9b8c6e	-0.004746965
49	0x3cc76067	0.02433796
50	0x3db579a4	0.08861092
51	0x3ac8a99c	0.0015309337
52	0xbd575130	-0.05256766
53	0xbca3daf1	-0.02000186
54	0x3d2ca040	0.042145014
55	0x3d8c4a18	0.0685007
56	0x3cd8a154	0.026444115
57	0x3dbefa66	0.093251035
58	0x3cccc590	0.024996549
59	0xbc5d4622	-0.0135054905
60	0x3dac18a4	0.08403137
61	0xbcb50505	-0.02209712
62	0x3b4c5ccf	0.0031183248
63	0xbda6b8e3	-0.08140733

blocks.0.residual_conv.weight f4 [64, 64, 1]
0	0xbdc02fe4	-0.093841344
1	0x3e0a559c	0.1350922
2	0xbd295bb2	-0.041347213
3	0x3c836025	0.016037056
4	0xbe0aa004	-0.13537604
5	0xbdac2513	-0.08405509
6	0xbd08cec3	-0.03340031
7	0x3ccf3a46	0.025296342
8	0x3b3edff3	0.0029125183
9	0xbda12789	-0.07868869
10	0x3dcedb56	0.10100429
11	0x3cd988ea	0.026554544
12	0xbb125b07	-0.0022332089
13	0x3cf46715	0.02983431
14	0x3db5942a	0.08866151
15	0x3d4a11a8	0.049333245
16	0x3d996b4c	0.074911684
17	0x3cbb7fb6	0.022888046
18	0xbde975b7	-0.113994054
19	0x3c759ab5	0.014990498
20	0x3c6ea4e9	0.014565685
21	0x3ca6a0b3	0.0203403
22	0xbdbc55e1	-0.091960676
23	0x3e0c6e1d	0.1371388
24	0x3db6fc44	0.089348346
25	0x3cbd78e9	0.023128944
26	0xbd87811d	-0.06616423
27	0x3dc082c7	0.09399944
28	0xbcd3554d	-0.02579751
29	0xbbc4624d	-0.0059931637
30	0xbceaac8f	-0.028646735
31	0xbc8dcc4f	-0.017309336
32	0x3d8d0ca1	0.068871744
33	0xbd94e7fc	-0.0727081
34	0xbd6e7d25	-0.058224816
35	0xbdb2c645	-0.08729223
36	0x3cdccb8c	0.026952527
37	0x3d9632c7	0.07333904
38	0x3da8bd30	0.0823921
39	0x3cd0eb91	0.025502952
40	0xbcaed413	-0.02134136
41	0x3d28f5be	0.041249983
42	0x3dd3320b	0.10312279
43	0xbe0963ad	-0.1341693
44	0xbacb745d	-0.001552235
45	0x3da48d59	0.080347724
46	0x3dc77c0b	0.09740456
47	0x3ded384d	0.11583004
48	0x3dcca4db	0.09992381
49	0xbdea4a17	-0.11439913
50	0xbb892a05	-0.0041859173
51	0xbe04ca4c	-0.12967795
52	0xbda8e04c	-0.08245906
53	0xbc71ea69	-0.01476536
54	0x3d85027e	0.06494616
55	0x3da710c3	0.08157494
56	0xbd450aa1	-0.04810584
57	0x3d3fed10	0.04685694
58	0xbd79fa7c	-0.061029896
59	0xbe0236cf	-0.1271622
60	0xbd961118	-0.07327479
61	0x3d685970	0.05672592
62	0x3d505fe4	0.0508727
63	0xbe02af22	-0.1276212
64	0x3c4ee44e	0.012627674
65	0x3de10a01	0.10988236
66	0xbdce0c7d	-0.10060976
67	0x3dbd4b08	0.09242827
68	0xbd3b255b	-0.04568992
69	0x3d7c81f3	0.061647367
70	0xbbec282f	-0.0072069387
71	0xbcc64c46	-0.024206292
72	0x3df67c97	0.120354824
73	0xbd349e7f	-0.044096466
74	0xbdc33580	-0.09531689
75	0x3da46a33	0.080280684
76	0xbd05ebff	-0.032695767
77	0x3d9c88bd	0.07643268
78	0xbd85d1d0	-0.06534159
79	0xbc59fcd4	-0.013304908
80	0x3de1264b	0.10993632
81	0x3d1a9dc1	0.037748102
82	0xbcb47c8d	-0.022032047
83	0xbdbc1903	-0.09184458
84	0xbc0adb5a	-0.008475149
85	0xbab56b96	-0.0013841267
86	0xbdcd0b1a	-0.10011883
87	0xbcddba09	-0.027066248
88	0xbd303419	-0.043018434
89	0xbdab640b	-0.08368691
90	0x3d15f919	0.03661451
91	0x3dec4727	0.11537009
92	0x3de67a18	0.11253756
93	0x3af6e5b2	0.0018836765
94	0x3db90088	0.090333045
95	0xbe1a7356	-0.1508306
96	0xbd90b675	-0.07066051
97	0x3d249c76	0.040188275
98	0xbddd0903	-0.107927345
99	0xbc0551cb	-0.008137177
100	0xbdad84f8	-0.084726274
101	0x3d3b6d1d	0.045758355
102	0x3dd2568c	0.10270414
103	0xbd84f352	-0.06491722
104	0x3c75a312	0.014992492
105	0xbd5379d5	-0.05162986
106	0xbdaf3382	-0.08554746
107	0x3e002399	0.1251358
108	0x3cedde27	0.029036595
109	0x3d535346	0.051593088
110	0xbc359745	-0.011083429
111	0xbd626c07	-0.055278804
112	0xbd8eb7d8	-0.06968659
113	0xbd6e7dd7	-0.05822548
114	0x3dc80ae6	0.09767704
115	0x3dc3064c	0.095226854
116	0xbd866431	-0.06562079
117	0xbcf75525	-0.030191967
118	0x3dcdf7c4	0.10057023
119	0x3cf19319	0.029489087
120	0xbdc1bd42	-0.09459926
121	0xbdad9253	-0.08475175
122	0xbce890b7	-0.028389318
123	0x3deeb9d4	0.11656538
124	0xbd6cfb7c	-0.05785702
125	0xbb1a4cfa	-0.0023544417
126	0xbb28ef9a	-0.002577758
127	0xbd0b9049	-0.034073148
128	0x3da5a94c	0.080889314
129	0xbcccc2e1	-0.02499527
130	0x3d8508ce	0.0649582
131	0x3d4f7723	0.050650727
132	0xbd8edf3d	-0.06976173
133	0xbcf8af14	-0.030356921
134	0xbdd95d29	-0.10613472
135	0xbd1510dc	-0.03639303
136	0x39fbe544	0.00048045267
137	0x3dd2e41a	0.10297413
138	0xbdf93d77	-0.121699266
139	0xbd83344a	-0.06406458
140	0x3d30c169	0.0431532
141	0xbd821a94	-0.063527256
142	0x3cf9f300	0.03051138
143	0xbddbebb0	-0.10738313
144	0x3c3afcf9	0.011412852
145	0xbd6da91f	-0.058022615
146	0xbdba2a16	-0.090900585
147	0xbd9f5f2b	-0.07781824
148	0x3d13a4e9	0.036045942
149	0x3d85a683	0.065259
150	0x3ba68d22	0.0050827423
151	0x3d8529e5	0.065021314
152	0xbc1b7c11	-0.009490029
153	0x3d87e8e3	0.066362165
154	0x3dcaa7ad	0.09895263
155	0x3d8b5862	0.06803967
156	0x3dcb73b0	0.09934175
157	0xbdecadd7	-0.11556595
158	0xbc8dc104	-0.017303951
159	0x3dd476de	0.103742346
160	0x3d2e8182	0.042603977
161	0x3da94da4	0.08266762
162	0xbd12792e	-0.035760097
163	0x3ba5d894	0.0050612185
164	0xbd2dec5a	-0.04246173
165	0xbd7fc9d3	-0.062448334
166	0xbd9f6ae3	-0.07784059
167	0xbd5cee7f	-0.053938385
168	0xbdd15335	-0.102209486
169	0x3dbf8c8a	0.093529776
170	0xbc863516	-0.016382735
171	0x3dfab464	0.12241438
172	0x3d462ae7	0.04838076
173	0xbd93164c	-0.07181987
174	0x3dbeef7b	0.09323021
175	0xbc112c51	-0.0088606635
176	0xbdcbd91f	-0.09953522
177	0xbcb4504e	-0.022010949
178	0x3db1fc41	0.08690692
179	0x3d2d7cd4	0.042355374
180	0xbd393547	-0.045216825
181	0xbd6ae23f	-0.05734467
182	0xbdc0e86c	-0.09419331
183	0xbd90838d	-0.07056341
184	0x3cf94830	0.03042993
185	0x3ddb8e09	0.107204504
186	0xbd8c6836	-0.06855814
187	0x3e04d2ed	0.12971087
188	0xbdb1f418	-0.08689135
189	0x3d0c46c5	0.03424718
190	0xbd69d966	-0.057092093
191	0x3dfea847	0.1243444
192	0xbded24fa	-0.11579318
193	0x3d17b821	0.037040833
194	0x3e022787	0.12710391
195	0xbd6fb8af	-0.058525737
196	0x3d5a5828	0.05330673
197	0x3d806d91	0.06270898
198	0xb98b1c32	-0.00026533153
199	0x3d8587ba	0.065200284
200	0xbd430fde	-0.047622554
201	0x3c9b9047	0.018989695
202	0xbd7f478d	-0.062324096
203	0xbe0d4024	-0.13793999
204	0xbd8d090d	-0.06886492
205	0x3da78d91	0.081812985
206	0x3db88353	0.09009423
207	0x3cae1e06	0.02125455
208	0x3d99c596	0.0750839
209	0x3d7391dd	0.059465278
210	0x3da771c3	0.08175995
211	0xbbe61b79	-0.007022318
212	0x3d2a4de0	0.041578174
213	0xbd678269	-0.056520853
214	0x3d446809	0.04795078
215	0xbdaa557c	-0.08317086
216	0xbdcc43bf	-0.09973859
217	0x3df59f81	0.119933136
218	0xbda87cc3	-0.082269214
219	0xbdea3c40	-0.11437273
220	0xbcd711bf	-0.02625358
221	0xbd7e26a1	-0.06204856
222	0x3ce15528	0.027506426
223	0xbde333d9	-0.110938735
224	0x3dfe19ba	0.12407251
225	0xbce7ac69	-0.028280454
226	0xbc4419ed	-0.011969072
227	0x3dc0b212	0.09408964
228	0xbc83460d	-0.016024614
229	0xbd1b4496	-0.037907206
230	0x3d99ea9e	0.07515453
231	0xbd74a78a	-0.05973009
232	0x3d04f67e	0.032461636
233	0x3c24c085	0.010055666
234	0xbdff1ad5	-0.1245629
235	0x3da58f09	0.080839224
236	0x3de28741	0.11060954
237	0xbd15232d	-0.0364105
238	0xbd693d86	-0.05694344
239	0x3b9d5a02	0.0048019895
240	0x3da6b0d3	0.08139195
241	0x3cb496f9	0.022044646
242	0xbd4558fd	-0.04818057
243	0xbca16d27	-0.019705368
244	0x3d54b944	0.051934496
245	0xbd8586e9	-0.06519873
246	0x3dc8472b	0.09779199
247	0x3d96a28e	0.073552236
248	0xbcbd53e2	-0.023111288
249	0xbbc0003a	-0.005859402
250	0xbdd99e9c	-0.106259555
251	0xbd6fe696	-0.058569513
252	0xbd9e60a3	-0.07733276
253	0xbe0737c4	-0.13204867
254	0x3d6387c1	0.055549387
255	0x3d8cfcb5	0.068841375

blocks.0.residual_conv.bias f4 [64]
0	0x3bd31342	0.0064415047
1	0xbce62575	-0.028094033
2	0x3db2f146	0.087374255
3	0xbde2003e	-0.110352024
4	0xbdddc7ff	-0.10829162
5	0xbdd3e7d7	-0.10346954
6	0x3c3c2227	0.011482752
7	0x3c894cef	0.016760318
8	0xbdda5f6c	-0.106627315
9	0x3d417a9e	0.047236077
10	0x3c96ae10	0.018393546
11	0xbda15531	-0.07877577
12	0xbda61b91	-0.081107266
13	0xbd9afe62	-0.07568051
14	0x3db101b3	0.08642902
15	0xbd3f3fa7	-0.046691563
16	0x3d95720a	0.07297142
17	0x3dfd47df	0.12367224
18	0xbcef52cf	-0.02921429
19	0x3db2cf1d	0.0873091
20	0xbd333460	-0.04375112
21	0x3d8ee330	0.06976926
22	0xbd0f2bb7	-0.0349538
23	0xbc84665a	-0.016162086
24	0xbe056789	-0.13027777
25	0x3d120854	0.035652474
26	0xbdf24ee2	-0.11831452
27	0xbde586b8	-0.11207336
28	0x3c64dc01	0.013968469
29	0xbca37714	-0.019954242
30	0x3d9b91cb	0.07596167
31	0x3d4206ef	0.047369894
32	0x3d4d512b	0.050126236
33	0x3a48689c	0.00076449825
34	0xbd36158c	-0.044454142
35	0x3d0b2ce7	0.03397837
36	0x3dbb8e3b	0.09157988
37	0x3d33df9d	0.043914426
38	0xbd7738c1	-0.06035686
39	0x3dba0455	0.090828575
40	0xbcb860ed	-0.022507155
41	0x3dc19e62	0.09454037
42	0x3d18e9ab	0.03733222
43	0x3d7e3bb9	0.062068675
44	0xbdb51f53	-0.08843865
45	0x3e1c1a5b	0.15244429
46	0xbddee016	-0.10882585
47	0x3daf9e54	0.085751206
48	0xbc7927ab	-0.0152072115
49	0xbcbff609	-0.023432748
50	0xbdbee39d	-0.093207575
51	0xbe11cdbb	-0.14238636
52	0xbc87a361	-0.016557397
53	0xbd0c7c3e	-0.034298174
54	0xbd1a4d68	-0.037671477
55	0xbbe27142	-0.006910474
56	0x3deb3439	0.1148457
57	0x3c9343ab	0.017976603
58	0x3c2e8b47	0.0106533235
59	0xbda72ff8	-0.08163446
60	0x3d70a9f5	0.058755834
61	0xbd94de25	-0.07268933
62	0xbd747aa6	-0.05968728
63	0xbc9c32a5	-0.019067118

blocks.1.causal_conv.weight f4 [64, 64, 2]
0	0x3dc7d2d2	0.09757008
1	0xbd7f2018	-0.062286466
2	0xbde892d2	-0.11356129
3	0xbcd76daa	-0.02629741
4	0xbc6378cd	-0.013883782
5	0xbcb6184f	-0.022228388
6	0xbd339b25	-0.04384913
7	0x3c1ca2cc	0.009560298
8	0x3cf6d2a5	0.03012974
9	0x3d48a221	0.048982743
10	0xbd062f93	-0.032760214
11	0x3d21397e	0.03936147
12	0xbd87595d	-0.066088416
13	0x3a629a32	0.0008644193
14	0x3cd97fd0	0.026550204
15	0x3c725cba	0.014792616
16	0x3b1fe24d	0.002439636
17	0x3c9604e3	0.018312877
18	0x3d4f1516	0.05055722
19	0x3d8becfc	0.068323106
20	0xbcdbc4f1	-0.026827307
21	0x3d8014ba	0.06253953
22	0x3c6336d7	0.013868055
23	0xbd1ff7d6	-0.039054714
24	0x3d9accd0	0.07558596
25	0x3d5e33ab	0.054248493
26	0x3d7c246d	0.061558176
27	0x3cf5fd50	0.030028015
28	0xbd5aa247	-0.053377416
29	0xbdadf3fb	-0.08493801
30	0x3d3fbfcb	0.046813767
31	0x3d2643b2	0.040591903
32	0xbc6eddc5	-0.014579241
33	0x3d56860a	0.052373923
34	0x3dcc635d	0.099798895
35	0xbd8fdcbf	-0.07024526
36	0xbd1e340f	-0.038623866
37	0xbd9535de	-0.07285665
38	0x3d3e51ca	0.04646472
39	0x3db77bfe	0.089591965
40	0xbc20c88f	-0.009813442
41	0xbd73bf68	-0.05950871
42	0xbcb40471	-0.021974774
43	0x3c3405c3	0.010987702
44	0xbd9d3c49	-0.07677514
45	0x3c0ac6b6	0.008470228
46	0xbd210728	-0.039313465
47	0x3d91bba5	0.071158685
48	0x3d64b272	0.05583424
49	0xbdb72b63	-0.08943822
50	0x3db19124	0.086702615
51	0x3c8dba66	0.017300796
52	0xbc63f481	-0.013913275
53	0xbd57f516	-0.052723967
54	0xbc3fa19e	-0.011696247
55	0xbd885fae	-0.066588745
56	0xbd9abb41	-0.07555247
57	0xbcf6cf3d	-0.030128116
58	0x3d431d76	0.047635518
59	0x3da18491	0.07886613
60	0xbd6d9ef9	-0.058012936
61	0xbd75c18b	-0.05999903
62	0xbc56f7e3	-0.013120624
63	0x3d5d9f27	0.054106858
64	0x3d080076	0.033203565
65	0x3b85e562	0.0040861825
66	0xbc858fdd	-0.01630395
67	0xbd50df9f	-0.05099451
68	0xbc80326f	-0.015649049
69	0x3cd019b0	0.025402874
70	0x3c78e134	0.015190411
71	0x3c5e6938	0.013574891
72	0xbd2da24a	-0.0423911
73	0xbd1418b9	-0.03615639
74	0x3bd25715	0.0064190724
75	0xbd9fd7ca	-0.0780483
76	0x3d6eb5e6	0.05827894
77	0xbda890f0	-0.0823077
78	0x3d21e417	0.039524164
79	0xbd975f5d	-0.07391236
80	0x3d40263e	0.04691147
81	0x3d308f2d	0.043105293
82	0xbd84b1b4	-0.06479207
83	0x3d62b64f	0.055349644
84	0xbce1d45b	-0.02756708
85	0xbdbd19da	-0.092334464
86	0xbdc65e99	-0.09686012
87	0x3bb31595	0.0054652193
88	0xbd070e82	-0.03297282
89	0xbc5e55dd	-0.013570276
90	0xbd2ba72a	-0.041907467
91	0x3d3b674c	0.04575281
92	0xbd6b0e2e	-0.05738657
93	0x3d96697f	0.073443405
94	0x3da085c9	0.078380175
95	0x3d6a4cf1	0.057202283
96	0x3d1b0959	0.03785071
97	0xbc2c6796	-0.010522744
98	0x3d30a154	0.043122604
99	0x3d8ab60f	0.06773006
100	0x3cac550e	0.021036651
101	0xbc8daaa7	-0.017293287
102	0xbd75b4ae	-0.059986763
103	0x3ced2db1	0.028952451
104	0xbc83c0e7	-0.016083194
105	0x3d19af02	0.037520416
106	0x3d49a08b	0.04922537
107	0xbd65e397	-0.05612525
108	0xbbd8b800	-0.0066137314
109	0xbc94efb2	-0.018180702
110	0xbd63d197	-0.055619802
111	0xbda9441f	-0.08264946
112	0xbd242346	-0.040072702
113	0x3d24f38f	0.040271338
114	0xbc27009d	-0.010193017
115	0xbd1c0fc9	-0.03810099
116	0x3c95ef82	0.018302683
117	0xbccc9635	-0.024973968
118	0xbd5a551d	-0.053303827
119	0x3d1b8474	0.037968114
120	0x3d0e56f5	0.034750897
121	0xbc64e1e1	-0.013969869
122	0x3daf8abd	0.08571384
123	0xbda3f882	-0.080063835
124	0xbd5cf59a	-0.05394516
125	0x3d877c4b	0.06615504
126	0xbd23cf88	-0.03999284
127	0xbd6b0f0b	-0.057387393
128	0x3d4e7ee8	0.050413996
129	0xbc8a0df4	-0.016852356
130	0x3caa50f8	0.020790562
131	0x3c6b40a5	0.014358674
132	0x3c85c7db	0.01633065
133	0xbd352ce5	-0.044232268
134	0xbc60565a	-0.013692463
135	0x3d51ae3a	0.051191546
136	0xbc2f9dd4	-0.0107187815
137	0xbc6be8d3	-0.014398771
138	0x3d80dfd8	0.06292695
139	0x3c80fdc3	0.015746003
140	0xbc87a4c3	-0.016558057
141	0xbd760e05	-0.060071964
142	0x3d845392	0.06461252
143	0x3db7aef1	0.08968914
144	0x3c79d8d4	0.01524945
145	0xbceb81a5	-0.028748343
146	0xbd0035f5	-0.031301457
147	0xbd5816f0	-0.05275625
148	0x3da8f32c	0.08249506
149	0xbc928057	-0.017883463
150	0xbc860989	-0.016361969
151	0x3d874a21	0.06605936
152	0xbbd38b0e	-0.0064557856
153	0x3d4b8f7a	0.049697377
154	0x3c9a5c4d	0.01884284
155	0xbc105678	-0.008809678
156	0xbd37cc03	-0.044872295
157	0x3c3d43a6	0.011551773
158	0x3cf43e5e	0.029814895
159	0x3c51c281	0.012802721
160	0xbd3e4c4c	-0.04645948
161	0xbc0efe21	-0.008727581
162	0xbcf83741	-0.030299785
163	0xbcc91620	-0.024546683
164	0x3d93ec60	0.07222819
165	0x3d9268ce	0.07148896
166	0x3d032e80	0.032026768
167	0x3d136f38	0.03599474
168	0x3d0d6a14	0.034524992
169	0xbd39e80b	-0.04538731
170	0xbd4989f6	-0.049203835
171	0x3db6e572	0.08930482
172	0xbd80b8fd	-0.06285284
173	0xbd5f067f	-0.054449555
174	0x3d7788e9	0.060433302
175	0x3cd930a2	0.026512448
176	0x3d2fb109	0.042893443
177	0x3d6d079d	0.05786859
178	0x3c3a9088	0.011386998
179	0xbd6e2337	-0.058139052
180	0x3d3118ba	0.04323647
181	0x3d69e4f7	0.057103124
182	0x3d8a0ef2	0.06741132
183	0xbd0ab85a	-0.033867218
184	0xbc9908a5	-0.01868088
185	0xbdbeabc9	-0.09310109
186	0xbd588871	-0.052864496
187	0x3d82e06f	0.063904636
188	0xbc3d7862	-0.011564346
189	0x3cab4b30	0.020909876
190	0xbd0dcb50	-0.034617722
191	0xbd09ee6d	-0.033674646
192	0x3d2b2e45	0.041792173
193	0xbd838036	-0.06420939
194	0xbd585689	-0.0528169
195	0xbd7c9bca	-0.06167201
196	0xbcf8f608	-0.030390754
197	0xbd906445	-0.07050375
198	0xbd8af3b4	-0.06784764
199	0x3d7a4425	0.061100144
200	0xbd0efd0f	-0.034909304
201	0x3e055e65	0.1302429
202	0x3d52b327	0.051440384
203	0x3d11cf23	0.03559793
204	0x3d79785e	0.060905807
205	0x3db27d6a	0.08715327
206	0xbd5c1a06	-0.053735755
207	0x3d8970e3	0.067109846
208	0x3bea6077	0.007152613
209	0x3d56f96f	0.052483972
210	0x3c9e2c0d	0.019308114
211	0xbd2b4a83	-0.041819107
212	0x3da2a6bc	0.07941958
213	0xbd94fa8a	-0.07274349
214	0xbda40609	-0.080089636
215	0x3d244584	0.040105358
216	0xbd5bc2b1	-0.05365247
217	0x3dc96418	0.098335445
218	0x3db2cab8	0.08730072
219	0xbd7a4555	-0.061101276
220	0xbd54ede2	-0.051984675
221	0x3db13e57	0.086544685
222	0xbc3e4f02	-0.011615517
223	0xbd8bbc53	-0.06823029
224	0xbbae67de	-0.0053224405
225	0xbd5ac5e9	-0.053411398
226	0x3bb94a89	0.0056546372
227	0xbd8bfe0a	-0.068355635
228	0x3ce368dd	0.027759964
229	0x3da3de23	0.080013536
230	0x3d841c26	0.064506814
231	0xbd1db183	-0.038499366
232	0xbc92a139	-0.017899143
233	0x3d37c8ae	0.044869117
234	0x3ac9c208	0.0015392909
235	0x3d8ef07f	0.06979465
236	0x3d76e856	0.060280167
237	0xbdd021b3	-0.101626776
238	0x3cef839b	0.029237559
239	0x3d48a28b	0.048983138
240	0x3bbb3478	0.005713042
241	0x3d59a2ee	0.053133897
242	0xbd9ed0ef	-0.07754695
243	0xbccf630e	-0.025315788
244	0xbd588d74	-0.052869275
245	0xbdce4665	-0.100720204
246	0xbdc83ba6	-0.09777002
247	0x3bc6b69f	0.0060642506
248	0xbaa7c5ce	-0.0012800039
249	0xbc573073	-0.01313411
250	0x3d5cc1f3	0.053895902
251	0x3c265cd6	0.01015397
252	0xbd8644c5	-0.065560855
253	0xbda3437d	-0.07971857
254	0x3ca29e33	0.019850826
255	0x3d4f47ff	0.05060577

blocks.1.causal_conv.bias f4 [64]
0	0xbcd79485	-0.026315937
1	0x3cd81959	0.026379274
2	0xbc104294	-0.008804936
3	0x3c3314d8	0.0109302625
4	0xbd46de40	-0.048551798
5	0x3d7ba380	0.061435223
6	0x3ce3d5fe	0.027812
7	0x3de10747	0.10987716
8	0x3cb68677	0.022280915
9	0x3dd66087	0.1046763
10	0xbd87a2d2	-0.066228524
11	0x3d86cf17	0.06582468
12	0xbc8ccc8b	-0.017187377
13	0x3dd2109d	0.10257075
14	0xbc766884	-0.015039567
15	0x3d729f49	0.059233937
16	0x3dbd63b5	0.09247533
17	0x3d4ff73d	0.050772894
18	0xbca69b04	-0.02033759
19	0xbe065c6b	-0.13121192
20	0xba289917	-0.00064315036
21	0xbda4bd3c	-0.08043906
22	0xbcce1560	-0.025156677
23	0x3d823273	0.06357279
24	0x3dced7b2	0.10099734
25	0xbcf888bc	-0.030338638
26	0xbd83fdef	-0.06444918
27	0xbcef10d4	-0.029182829
28	0x3ba08ba4	0.004899459
29	0x3d91528c	0.07095823
30	0x3d7a4439	0.06110022
31	0x3d4b4c2d	0.049633194
32	0xbc10c033	-0.008834886
33	0x3c2fe4a7	0.010735667
34	0x3ca16cef	0.019705264
35	0x3d754c5f	0.059887286
36	0xbd92ec1f	-0.07173943
37	0xbd98cc14	-0.074608
38	0x3ded5acc	0.11589584
39	0x3dd3657f	0.10322093
40	0x3c86011f	0.016357956
41	0xbd5d01dc	-0.05395685
42	0xbdaf0b0e	-0.085470304
43	0xbdea1ff3	-0.11431875
44	0x3dc1ef49	0.09469468
45	0xbc9b1f6d	-0.018935883
46	0x3d945cfb	0.07244297
47	0xbd5ad9ff	-0.053430554
48	0x3e013284	0.12616926
49	0xbbec0222	-0.0072024027
50	0x3d064a92	0.03278596
51	0x3d85d9ef	0.06535708
52	0xbc18f5c4	-0.009335939
53	0xbc94aaa7	-0.01814778
54	0x3cb9936b	0.022653302
55	0x3d78af87	0.06071427
56	0xbe1bce37	-0.15215383
57	0xbcf82d11	-0.030294927
58	0xbd3b7271	-0.045763437
59	0xbe0ff20f	-0.14057182
60	0x3ca6b045	0.020347724
61	0xbb58a530	-0.0033057444
62	0xbc10315f	-0.0088008335
63	0x3d867c98	0.06566733

blocks.1.residual_conv.weight f4 [64, 64, 1]
0	0xbddb81c7	-0.107181124
1	0xbda06877	-0.07832425
2	0x3d999ea6	0.07500963
3	0x3e13f6a1	0.1444955
4	0xbb844db8	-0.004037585
5	0xbca32460	-0.019914806
6	0x3cbc2ae3	0.022969669
7	0xbda350a2	-0.07974364
8	0xbdc80a82	-0.09767629
9	0x3d70dbfe	0.05880355
10	0x3bf4f3b6	0.0074753417
11	0xbd1a281a	-0.0376359
12	0x3d341a3d	0.043970335
13	0xbb1e94bd	-0.0024197542
14	0x3d4146f3	0.047186803
15	0xbdbad24f	-0.091221444
16	0xbd8d38b5	-0.06895582
17	0x3d2baf0c	0.041914985
18	0x3d9939b9	0.07481713
19	0x3dbc21fc	0.091861695
20	0xbd701109	-0.058609996
21	0xbdfb5a58	-0.12273091
22	0xbde28114	-0.11059776
23	0x3d5868a7	0.05283418
24	0xbd1534ca	-0.036427297
25	0xbc4931e0	-0.0122799575
26	0x3d7f6368	0.06235066
27	0xbcde099b	-0.02710419
28	0x3caa7cbf	0.020811437
29	0xbd666918	-0.05625257
30	0x3e0971a5	0.13422258
31	0xbc8bb353	-0.017053282
32	0xbc3a2c0b	-0.01136304
33	0x3dc9ac8d	0.098473646
34	0xbcb05738	-0.021525964
35	0x3ca45dff	0.020064352
36	0x3dcec0ec	0.10095391
37	0x3d856b13	0.065145634
38	0xbd88ae26	-0.06673841
39	0xbddbe201	-0.10736466
40	0x3da2eb73	0.079550646
41	0xbd0eb20f	-0.03483778
42	0xbdb010b1	-0.08596934
43	0x3de43e09	0.11144645
44	0x3d9678ec	0.07347283
45	0xbda9c852	-0.08290161
46	0xbc54fb92	-0.012999432
47	0x3daa8490	0.083260655
48	0x3cde43c4	0.027131923
49	0x3d42eae2	0.047587283
50	0x3de1c055	0.110230125
51	0x3ceb39ae	0.028714027
52	0xbd683763	-0.056693446
53	0xbdfcc986	-0.12343125
54	0xbd251bb5	-0.040309627
55	0x3d5fec28	0.054668576
56	0xbcd8a934	-0.02644787
57	0x3d5b8e0c	0.053602263
58	0xbcebf1c1	-0.0288018
59	0x3da2eeef	0.07955729
60	0x3db18d76	0.0866956
61	0xbdf1678f	-0.1178733
62	0xbd833e10	-0.06408322
63	0xbda3a0df	-0.07989668
64	0x3a9f8285	0.0012169635
65	0xbccbd9fe	-0.02488422
66	0xbd459027	-0.048233178
67	0xba37b268	-0.00070074806
68	0x3ca4072f	0.020022957
69	0xbdb81a50	-0.08989394
70	0xbca527d9	-0.020160602
71	0x3d14927e	0.03627252
72	0xbde66cee	-0.112512454
73	0xbd9cd447	-0.07657676
74	0xbd276e2f	-0.040876564
75	0x3debf071	0.1152047
76	0xbc910089	-0.01770045
77	0xbde2fbd6	-0.1108319
78	0xbd2f507e	-0.042801373
79	0x3db93ba7	0.09044581
80	0xbd82c95c	-0.063860625
81	0xbddc84eb	-0.107675396
82	0xbdb86b61	-0.09004856
83	0xbdaff0a5	-0.08590821
84	0x3d204cd6	0.039135776
85	0x3d642a15	0.055704195
86	0x3dbfd989	0.093676634
87	0xbd5c57dc	-0.053794727
88	0x3ccc64ad	0.02495035
89	0xbd00865a	-0.031378128
90	0x3ad888e9	0.0016520295
91	0xbd10fb07	-0.03539565
92	0xbdf14a12	-0.11781706
93	0xbdcb0f7b	-0.09915062
94	0x3cc23c4d	0.023710394
95	0x3d32341b	0.043506723
96	0x3c9e6802	0.019336704
97	0x3c19d250	0.009388521
98	0xbd73dd98	-0.0595375
99	0x3dc519ab	0.096240364
100	0x3db9e701	0.090772636
101	0xbd5a8e53	-0.053358387
102	0x3cce38fb	0.025173655
103	0xbbdc7ea8	-0.006728966
104	0x3b84a29d	0.0040477053
105	0xbdd86a28	-0.10567123
106	0xbd82dcd2	-0.063897744
107	0xbd57733a	-0.052600123
108	0x3d265a9f	0.040613767
109	0xbcf46d5e	-0.029837307
110	0xbd42e2da	-0.047579624
111	0x3dd38742	0.10328533
112	0x3e16f008	0.14740002
113	0xbd89f2cc	-0.06735763
114	0xbd5b1521	-0.053486947
115	0x3d3485bf	0.044072863
116	0x3dc2b453	0.0950705
117	0xbd84d261	-0.06485439
118	0x3d4d0966	0.05005779
119	0x38aed90a	8.337393e-05
120	0xbe1c3e09	-0.1525804
121	0xbd5ba034	-0.05361958
122	0x3ca4e214	0.020127334
123	0xbdc0dc31	-0.09416998
124	0x3da54764	0.08070257
125	0x3d232d7e	0.039838307
126	0x3d3b8f03	0.045790683
127	0xbd71a317	-0.058993425
128	0x3d289f79	0.04116771
129	0x3d24631c	0.04013358
130	0xbd63a6e9	-0.0555791
131	0xbd85342d	-0.06504092
132	0x3dde087d	0.10841463
133	0x3dc3d437	0.09561961
134	0x3dbf792b	0.09349283
135	0xbd0c2277	-0.034212556
136	0xbddb1442	-0.10697223
137	0x3d6f18ae	0.058373146
138	0x3bb9c4c5	0.0056692087
139	0xbe02dbb8	-0.12779129
140	0x3dd036f0	0.101667285
141	0x3c6c846b	0.014435868
142	0xbdf28ca3	-0.118432306
143	0xbd7cbb38	-0.061701983
144	0x3dda114c	0.1064783
145	0x3cf2a3dc	0.02961915
146	0xbdc3f49c	-0.0956814
147	0x3c2c1f3d	0.010505495
148	0x3dc89194	0.09793392
149	0x3c390138	0.0112917945
150	0x3d153ddb	0.036435943
151	0xbdc4df00	-0.096128464
152	0xbdf640d0	-0.12024081
153	0xbdc87dbb	-0.09789606
154	0xbd5ef83c	-0.054435953
155	0x3d79601f	0.060882684
156	0x3cf79b52	0.03022543
157	0x3d5f45fd	0.054510105
158	0xbdd66fdb	-0.104705535
159	0x3d470ddc	0.0485972
160	0x3db80db9	0.089869924
161	0x3d4354c1	0.04768825
162	0xbd9fac59	-0.077965446
163	0x3c72bf2d	0.014816088
164	0xbd90064f	-0.07032453
165	0xbd30520a	-0.04304699
166	0x3d42e695	0.04758318
167	0x3da14b9e	0.07875751
168	0xbd8adcd2	-0.067803994
169	0x3cdbc162	0.02682561
170	0xbcd0562a	-0.025431711
171	0x3d3652fe	0.04451274
172	0x3bde0c73	0.0067763864
173	0x3dfc46e6	0.1231821
174	0xbd057fd8	-0.032592624
175	0x3c946a5d	0.018117124
176	0x3d840d76	0.0644788
177	0xbd036b7c	-0.032084927
178	0x3cf0c90a	0.029392738
179	0xbdf6e2de	-0.1205499
180	0x3db8e39d	0.09027789
181	0x3cd60534	0.026125528
182	0xbdb7fa28	-0.089832604
183	0xbdad481b	-0.08461019
184	0x3d9a8238	0.075443685
185	0xbd30173b	-0.042990904
186	0xbd26f3f0	-0.04075998
187	0xbc544a7f	-0.012957214
188	0xbc980f9e	-0.018562134
189	0x3d99c4ba	0.07508226
190	0xbde124ef	-0.10993373
191	0xbe0b436d	-0.1359994
192	0xbc0578c3	-0.008146468
193	0xbbbcd44c	-0.0057626124
194	0x3cc3e8a6	0.023914646
195	0x3d57dabb	0.052698832
196	0xbcf67d0d	-0.030088926
197	0xbcbc95a5	-0.023020575
198	0x3c72418c	0.014786135
199	0xbd0be02b	-0.03414933
200	0xbdcdfaf5	-0.10057632
201	0xbd5cbcdc	-0.053891048
202	0xbd0ee615	-0.034887392
203	0xbc80bcd6	-0.015715044
204	0x3d182e3b	0.037153464
205	0x3c944ccf	0.018103031
206	0xbc07d456	-0.008290371
207	0x3d937031	0.07199133
208	0x3ce67a86	0.028134596
209	0x3d1bb963	0.038018595
210	0x3c221310	0.00989224
211	0x3d78ecdb	0.060772758
212	0xbd30999e	-0.04311525
213	0xbd92f88d	-0.071763135
214	0xbaeaf2cb	-0.0017925141
215	0xbcab0e34	-0.020880796
216	0xbd7f2cae	-0.06229847
217	0xbde6a0d8	-0.11261147
218	0x3d599372	0.05311913
219	0x3d967f87	0.07348543
220	0xbe0107f0	-0.12600684
221	0xbd4882ac	-0.048952743
222	0xbc7f78c0	-0.015592754
223	0xbd973514	-0.07383171
224	0xbdc948ae	-0.09828316
225	0x3dbfbe87	0.09362512
226	0x3bcf9a0b	0.006335502
227	0xbe0579e4	-0.13034779
228	0xbdfbf244	-0.12302068
229	0xbd14a915	-0.03629406
230	0x3dda6830	0.106644034
231	0x3d58baaf	0.05291241
232	0x3cfe6e23	0.031058377
233	0xbd9ee090	-0.07757676
234	0x3d692151	0.05691654
235	0xbdd9795a	-0.10618849
236	0xbcb1c73d	-0.02170145
237	0x3d0e9352	0.034808464
238	0xbde4cd11	-0.11171926
239	0xbb0600c1	-0.0020447227
240	0x3c69be94	0.014266629
241	0xbd479d72	-0.048734136
242	0x39d8bf9a	0.00041341485
243	0x3dd7b62c	0.105327934
244	0x3dbe7c3e	0.09301041
245	0x3dabf226	0.083957955
246	0xbd8b926e	-0.068150386
247	0x3bfe1793	0.007754275
248	0x3d1136a0	0.035452485
249	0x3c85ac1b	0.016317418
250	0xbe130a25	-0.14359339
251	0x3dac1e9e	0.08404277
252	0xbe077d85	-0.13231476
253	0xbdfbc470	-0.12293327
254	0xbdd52050	-0.10406554
255	0x3dae27e8	0.08503705

blocks.1.residual_conv.bias f4 [64]
0	0x3cfa626d	0.030564511
1	0xbd8e9e8d	-0.06963835
2	0xbbde45c1	-0.0067832177
3	0x3da87689	0.08225734
4	0xbd2218e6	-0.039574526
5	0x3be966bb	0.007122842
6	0x3dd7c0e6	0.10534839
7	0x3e04ad91	0.12956835
8	0xbd861017	-0.06546038
9	0x3c0924a2	0.00837055
10	0xbbc63a5d	-0.006049438
11	0x3de957ba	0.11393686
12	0x3be9584a	0.0071211206
13	0xbe195df0	-0.1497724
14	0xbd60a571	-0.054845277
15	0x3d4ec4a7	0.05048051
16	0x3d7c7464	0.061634436
17	0x3de4cb9d	0.11171649
18	0x3d7e2d30	0.062054813
19	0x3d8012e4	0.06253603
20	0x3d0ed2e3	0.034869086
21	0x3dcb2210	0.09918606
22	0x3d178eed	0.03700154
23	0x3d5ca8df	0.053871986
24	0xbc24fc4d	-0.010069919
25	0xbce04d18	-0.027380511
26	0xbe145fd8	-0.14489686
27	0xbd35c7f8	-0.04438016
28	0xbd7fed0a	-0.062481917
29	0x3cd7627a	0.026292074
30	0xbda5dac7	-0.08098369
31	0x3c9619db	0.018322876
32	0x3d7c3f78	0.061583966
33	0x3e172ff9	0.14764394
34	0xbdb13383	-0.08652403
35	0xbd669749	-0.05629662
36	0x3da30d50	0.079615235
37	0x3dee40df	0.11633467
38	0x3df0f5e1	0.11765648
39	0x3cf18b66	0.029485416
40	0xbdb88960	-0.09010577
41	0x3e0119aa	0.12607446
42	0xbdad87ff	-0.08473205
43	0x3dfb96f4	0.122846514
44	0x3d97cbb2	0.07411899
45	0x3db6b089	0.0892039
46	0x3b9489c6	0.0045330254
47	0x3d49cc6e	0.049267225
48	0xbdbc124d	-0.09183178
49	0xbda6ca5f	-0.08144068
50	0x3db759ef	0.089527
51	0x3d823035	0.06356851
52	0xbd50ab2a	-0.050944485
53	0x3dbe412b	0.092897736
54	0x3dd9cb39	0.10634465
55	0x3d9bc834	0.07606545
56	0xbc314df4	-0.010821808
57	0xbdb6286a	-0.08894427
58	0xbb1e59da	-0.0024162442
59	0xbd03efb2	-0.032211013
60	0x3be92a89	0.0071156663
61	0x3dda9129	0.10672218
62	0xbda16ca3	-0.07882049
63	0xba08dc69	-0.0005220832

blocks.2.causal_conv.weight f4 [64, 64, 2]
0	0xbd35c1f7	-0.044374432
1	0x3d9265c8	0.071483195
2	0x3d3dbdda	0.046323635
3	0x3d807506	0.062723204
4	0x3d7ef69c	0.062246904
5	0x3d73b960	0.05950296
6	0x3d96c6a2	0.07362105
7	0xbdc11ecf	-0.094297044
8	0x3dccec18	0.10005969
9	0xbd11349a	-0.035450555
10	0x3e08e889	0.13369955
11	0x3d7c72e8	0.06163302
12	0xbcd528cc	-0.02602043
13	0x3c9de471	0.019273968
14	0xbd29e739	-0.041480277
15	0xbdd179e0	-0.10228324
16	0xbd3527cd	-0.04422741
17	0x3d6e1836	0.058128558
18	0xbdce9a5b	-0.10088035
19	0x3cf5d058	0.030006573
20	0xbd2d2a1d	-0.04227649
21	0xbdb66cce	-0.089074716
22	0x3d12d36e	0.035846166
23	0x3d681423	0.05665983
24	0x3db39a6d	0.08769689
25	0x3c3c95ec	0.011510354
26	0x3bce08f0	0.0062876865
27	0x3d8cd71a	0.06876965
28	0x3dc5e116	0.09662072
29	0xbdbc43ff	-0.09192657
30	0xbd9fc834	-0.078018576
31	0x3db095c7	0.08622318
32	0x3d8ea8d7	0.069657974
33	0xbb004813	-0.001957421
34	0x3d0e3191	0.03471524
35	0x3c9ad52c	0.018900476
36	0xbcae740d	-0.021295572
37	0xbd6030c9	-0.054734025
38	0x3cdc794a	0.026913304
39	0x3d6ea34d	0.058261205
40	0xbcc3f407	-0.023920072
41	0xbdcad7ef	-0.09904467
42	0xbcf51928	-0.029919222
43	0x3d9819b8	0.074267805
44	0x3d45582d	0.048179794
45	0x3ca7b3e9	0.02047153
46	0x3d80ae10	0.062832
47	0xbd7df099	-0.06199703
48	0x3cfd995a	0.030956913
49	0x3dcfee67	0.101528935
50	0xbd74cc78	-0.05976531
51	0xbd8713d8	-0.06595582
52	0xbca44fa2	-0.020057503
53	0xbd3a209b	-0.04544125
54	0x3d50990b	0.050927203
55	0x3da005ab	0.07813581
56	0xbd4bc376	-0.049746953
57	0x3d4a0796	0.04932364
58	0x3ca451ce	0.020058539
59	0xbd90ff93	-0.07079997
60	0xbd2d28ce	-0.042275243
61	0xbd979156	-0.074007675
62	0xbd75080a	-0.05982212
63	0x3db29f90	0.087218404
64	0x3cadf95e	0.021237072
65	0x3d040aa9	0.03223673
66	0x3d30dd32	0.0431797
67	0xbc9facf7	-0.019491656
68	0xbbf02700	-0.007328868
69	0xbcd9fb13	-0.02660898
70	0xbd513a6e	-0.051081114
71	0xbd521fc5	-0.05129983
72	0xbd19123b	-0.0373709
73	0xbd403054	-0.04692109
74	0xbda6aa53	-0.081379555
75	0xbdef5efd	-0.116880395
76	0xbcf1cd3a	-0.029516805
77	0x3d8a7aca	0.067617014
78	0x3d6e8d45	0.058240194
79	0xbbd89bbc	-0.006610362
80	0xbd84a735	-0.06477205
81	0xbdb95273	-0.09048929
82	0x3d7c97d1	0.06166822
83	0x3c921ae5	0.01783509
84	0xbc4a1523	-0.012334141
85	0xbd8b29a8	-0.06795055
86	0xbd61eb31	-0.055155937
87	0xbcb2dea3	-0.021834677
88	0x3ddabc5d	0.10680459
89	0x3d36e5c4	0.044652715
90	0xbdaf4de3	-0.085597776
91	0xbc93b147	-0.018028868
92	0x3d95fd86	0.073237464
93	0x3bf8be54	0.0075910483
94	0x39b4f637	0.0003451572
95	0x3d72c583	0.059270393
96	0x3d354cbe	0.04426264
97	0xbcca0e4c	-0.02466502
98	0xbd4a2d73	-0.04935975
99	0xbccb0f78	-0.02478765
100	0x3d2b9b11	0.04189593
101	0x3d99f904	0.07518199
102	0x3c830eeb	0.015998324
103	0xbc42db4e	-0.011893107
104	0xbd946034	-0.07244912
105	0xbdb28324	-0.08716419
106	0xbd68a99c	-0.056802377
107	0x3d776fb5	0.060409267
108	0xbdd3d096	-0.10342519
109	0xbd2bb12b	-0.041917007
110	0x3d789d8a	0.060697116
111	0xbdcc923b	-0.09988829
112	0x3d48765c	0.048941
113	0xbd92a17e	-0.071597084
114	0xbd14bc68	-0.03631249
115	0x3d1bcfea	0.03804008
116	0xbcd0b5af	-0.025477258
117	0xbd4d43bb	-0.05011342
118	0x3d9e77f0	0.0773772
119	0x3d87b1d5	0.06625716
120	0x3daf9854	0.08573976
121	0xbc4d1d84	-0.012519244
122	0x3db02e79	0.08602614
123	0x3d6b81cd	0.057496835
124	0xbc662d8f	-0.014048948
125	0x3da9f612	0.08298887
126	0x3d636d5c	0.055524215
127	0x3d68c10a	0.05682472
128	0x3cd59312	0.026071105
129	0xbd18f1ab	-0.037339848
130	0x3db5581e	0.08854698
131	0xbda1b755	-0.07896296
132	0x3db29a3a	0.08720823
133	0x3a1dc9ff	0.00060191745
134	0x3ddca1e5	0.107730664
135	0x3d45ec99	0.04832134
136	0x3d61c9d6	0.055124126
137	0x3d0fd321	0.035113458
138	0x3d03ff27	0.032225754
139	0x3d65297e	0.055947773
140	0xbd994267	-0.07483368
141	0x3d39bcd0	0.04534608
142	0xbd2d736b	-0.0423464
143	0x3d5b15d4	0.053487614
144	0x3b96109e	0.0045796176
145	0xbdbcd5fe	-0.09220503
146	0xbd7d672c	-0.06186597
147	0xbcc4123b	-0.023934474
148	0x3d280b42	0.04102636
149	0xbc233e97	-0.009963653
150	0x3c274e1e	0.010211496
151	0x3da271a4	0.079318315
152	0xbdc5a720	-0.09651017
153	0x3d807e26	0.06274061
154	0xbbb90ebb	-0.005647508
155	0x3d26073e	0.04053425
156	0x3c9d5bad	0.019208753
157	0x3d83e413	0.06439986
158	0xbdae1ac2	-0.085011974
159	0x3bdaa6a3	0.0066726967
160	0xbcb80971	-0.02246544
161	0x3de44d4a	0.11147554
162	0xbdb80595	-0.0898544
163	0x3a800fd1	0.0009770339
164	0x3c64bd38	0.013961129
165	0xbd41b563	-0.047292124
166	0xbdb72b6b	-0.08943828
167	0x3c2296b9	0.00992363
168	0xbc957aa0	-0.018246949
169	0xbc04ede9	-0.008113363
170	0x3ce300e1	0.02771038
171	0x3d2243b6	0.039615355
172	0x3dd6e6aa	0.104932144
173	0x3d8db444	0.069191486
174	0xbd129fba	-0.03579686
175	0xbd9fb8e6	-0.077989385
176	0x3ce76831	0.028247925
177	0xbceaa3cb	-0.028642556
178	0xbd57773d	-0.05260395
179	0x3c924c77	0.017858727
180	0xbd9cb2a4	-0.076512605
181	0xbc023279	-0.007946604
182	0xbb8a6c65	-0.0042243474
183	0xbca33520	-0.019922793
184	0x3cf32bec	0.02968403
185	0x3d7cf08a	0.061752833
186	0x3d793bee	0.06084817
187	0xba17c0a0	-0.0005788896
188	0xbd888b4f	-0.06667196
189	0x3b48f352	0.0030662608
190	0x3cf5d045	0.030006537
191	0x3d9e1fc9	0.07720906
192	0xba36b3a2	-0.00069695164
193	0x3d8c5ba7	0.06853419
194	0x3bd363e8	0.0064511187
195	0x3d65d126	0.056107663
196	0xbc966578	-0.018358931
197	0x3dc2fcb5	0.09520856
198	0x3dc7b0cd	0.09750519
199	0x3d8929e8	0.06697446
200	0x3d021453	0.031757664
201	0xbd484efb	-0.048903447
202	0x3d0338dc	0.032036647
203	0x3d2e0067	0.042480852
204	0xbdb5f806	-0.08885197
205	0x3bce87fe	0.0063028326
206	0x3ca04f0b	0.01956894
207	0xbcebf79a	-0.028804589
208	0xbb8220ee	-0.0039712107
209	0x3db739aa	0.089465454
210	0xbddbf501	-0.1074009
211	0xbc8240b0	-0.015899986
212	0xbdc05fef	-0.09393298
213	0x3d2c6035	0.042083938
214	0xbd9c50bb	-0.076325856
215	0x3d677b19	0.05651388
216	0x3bd6979a	0.006548834
217	0x3d4ee3da	0.050510265
218	0x3d121b08	0.03567031
219	0x3d306d01	0.043072704
220	0x3dc3ff5b	0.095701896
221	0x3dad95fa	0.084758714
222	0xbd797be5	-0.06090917
223	0x3d287c8c	0.041134402
224	0xbde746d3	-0.112928055
225	0xbdad1025	-0.08450345
226	0xbce53829	-0.02798088
227	0x3c133d06	0.008986717
228	0x3c300fc6	0.010745948
229	0x3c7b2a96	0.0153299775
230	0x3cd1ea0a	0.025624294
231	0xbd387643	-0.04503466
232	0x3d0df53a	0.034657694
233	0x3de69631	0.112591155
234	0xbc15512b	-0.00911359
235	0x3d83c3b1	0.064338095
236	0x3cbae536	0.022814374
237	0x3d40fa76	0.04711386
238	0xbceb41da	-0.028717924
239	0xbca95d47	-0.02067436
240	0xbb35224d	-0.0027638853
241	0xbd3cb999	-0.046075437
242	0x3d3524fd	0.044224728
243	0x3d3ec3ae	0.046573333
244	0xbcd0df67	-0.025497152
245	0x3dad1acf	0.08452379
246	0xbcc7116b	-0.024300298
247	0xbd93b8dc	-0.072129935
248	0x3c951e9d	0.018203074
249	0x3cd64e88	0.026160493
250	0x3b8d6a07	0.004315618
251	0x3cbb4514	0.022860087
252	0xbd273464	-0.040821448
253	0xbafef399	-0.001945126
254	0x3d75fc8c	0.0600553
255	0x3d9616e3	0.07328584
