model_checkpoint/hemanth/model_best_SlidingWindowWaveNet_mse_pronation.pth (torch, 425109 bytes, 25 tensors)

input_conv.weight f4 [64, 6, 1]
0.43122658 -0.23385505 -0.29661882 0.15469922 0.15850917 0.0021915492 -0.18867859 -0.34526017
-0.40420225 -0.27789518 0.1856565 0.3295101 -0.07072538 -0.259373 0.34173596 -0.27353612
-0.13485254 0.35491043 0.4104646 0.33126217 0.16443795 -0.3499361 -0.054295316 -0.13176635
0.4195131 0.1698175 -0.1331842 0.32328042 -0.3832763 0.036927007 0.3292693 -0.030505963
0.04322456 -0.016285459 -0.14559473 0.2859657 -0.30525783 0.20126288 -0.2906445 0.22159997
0.25819573 0.22077194 -0.22417247 -0.17564961 -0.029979728 0.08216899 -0.19379929 -0.18833181
-0.39050135 0.395639 0.16701442 0.31606284 -0.16594085 0.014156468 -0.014181431 -0.1288151
0.19939558 0.31353834 0.010694382 0.3940733 -0.1547936 -0.34080273 0.0033907592 -0.1916928
-0.057319324 0.06718834 -0.3721381 0.21677764 0.2221843 0.36799183 0.3358529 0.1070639
-0.19734538 0.14861156 0.11995401 0.20089835 0.017966501 0.3810309 -0.18802066 -0.0032316172
-0.0064888895 -0.24332541 -0.331772 0.29302204 0.43180683 -0.08975545 -0.4461179 -0.046101026
-0.17025676 -0.20402563 0.36205503 -0.07863598 -0.2099516 -0.3871824 0.33042535 -0.39094353
-0.19952418 0.2667615 -0.32865554 -0.07795659 -0.34456295 0.13345206 -0.13221666 0.17331822
-0.43385535 -0.11862183 -0.4019769 -0.35633677 -0.07057378 0.07319446 0.10048781 0.36806536
-0.035436932 -0.006809485 -0.012630008 -0.21310073 0.0042655044 0.13295165 -0.1653225 -0.11900066
-0.006918515 -0.1479375 0.48521343 0.14144972 -0.37174526 -0.21886803 -0.08370754 -0.39247304
-0.020764343 -0.31215274 -0.025495447 0.14681719 -0.3994908 0.38848555 0.3894274 -0.035158064
0.24877399 -0.25363103 -0.04220342 -0.21545343 -0.24823718 0.17599887 0.38760662 -0.22121108
0.054396648 0.11456201 0.38565677 -0.15510526 -0.24176995 0.4022048 -0.118816815 -0.038550578
-0.4521215 -0.20993584 0.19860156 0.30714372 -0.027369699 0.25655153 0.41601008 -0.34369332
0.35393867 -0.08256551 0.1652387 -0.35701302 0.4305501 -0.13493992 0.18093634 -0.0026920044
-0.3480713 0.010448064 0.46694723 0.31339338 0.0050884583 -0.17029925 0.20847838 0.009966814
0.11429918 0.10081077 0.374087 0.2605084 0.30786836 -0.39526471 -0.35116318 -0.14727303
0.16121854 -0.2093341 -0.25910312 -0.22457641 -0.45052615 -0.19656977 -0.3628537 -0.38093594
0.2850405 0.060611833 0.03633795 0.29075554 -0.3769623 0.37903947 -0.38253707 0.3377489
0.4098458 0.13015914 0.22318988 0.07272567 -0.0031172584 -0.40181923 -0.3705967 -0.17629758
-0.39102873 0.08685224 -0.26479474 0.40578672 -0.19447283 0.0067617674 0.14714988 0.34597307
-0.23525402 -0.0031420558 0.13328691 0.113687105 0.09707463 -0.34344852 0.012377049 0.22879438
0.13451295 -0.1728503 -0.23144472 0.2841755 -0.16712138 0.08672259 0.1489445 -0.22589883
-0.2438455 0.061113976 -0.31939787 0.16714318 0.18053694 0.08649601 -0.09994828 -0.17967178
0.009525348 -0.020203937 -0.08424681 -0.07011915 0.1884588 -0.27347186 -0.13424528 -0.11043577
-0.34169722 -0.19939846 -0.062806524 0.20773765 0.1062958 0.09677281 -0.40247595 0.0056118057
00000000: bbc9 dc3e b377 6fbe 6cde 97be 7969 1e3e
00000010: 3a50 223e 18a0 0f3b f634 41be f1c5 b0be
00000020: 99f3 cebe 4748 8ebe bd1c 3e3e 8cb5 a83e
00000030: 78d8 90bd 8acc 84be 04f8 ae3e ed0c 8cbe
00000040: c916 0abe d2b6 b53e 6b28 d23e 329b a93e
00000050: 6c62 283e d32a b3be c464 5ebd c2ed 06be
00000060: 6cca d63e a4e4 2d3e 7061 08be 0385 a53e
00000070: cb3c c4be c640 173d fc95 a83e a4e7 f9bc
00000080: 3c0c 313d 1569 85bc c916 15be 196a 923e
00000090: c14a 9cbe db17 4e3e 5bcf 94be 1aeb 623e
000000a0: 3b32 843e 0a12 623e 788d 65be 7edd 33be
000000b0: 0c98 f5bc 3748 a83d 5273 46be 0eda 40be
000000c0: cbef c7be 3291 ca3e d405 2b3e fdd2 a13e
000000d0: 66ec 29be 88f0 673c 3c59 68bc 1be8 03be
000000e0: 5b2e 4c3e 1988 a03e 7d37 2f3c fac3 c93e
000000f0: 3782 1ebe b27d aebe 8037 5e3b 1e4b 44be
00000100: abc7 6abd 0a9a 893d e388 bebe f5fa 5d3e
00000110: 4884 633e 6d69 bc3e e9f4 ab3e 5144 db3d
00000120: e814 4abe a12d 183e 73aa f53d 4cb8 4d3e
00000130: 7c2e 933c 7b16 c33e 7d88 40be 8ac9 53bb
00000140: c0a0 d4bb 4c2a 79be 05de a9be fc06 963e
00000150: c915 dd3e b5d1 b7bd 9169 e4be 6ed4 3cbd
00000160: ca57 2ebe 18ec 50be 475f b93e e70b a1bd
00000170: 8dfd 56be c63c c6be 832d a93e c029 c8be
00000180: 1150 4cbe f794 883e 8a45 a8be b4a7 9fbd
00000190: 8e6a b0be a8a7 083e ce63 07be 557a 313e
000001a0: 4a22 debe 01f0 f2bd ebcf cdbe c671 b6be
000001b0: fc88 90bd fae6 953d 8ecc cd3d 1073 bc3e
000001c0: 5126 11bd 1a22 dfbb 18ee 4ebc 1437 5abe
000001d0: a5c5 8b3b 7a24 083e 4d4a 29be 9eb6 f3bd
000001e0: b6b4 e2bb ee7c 17be e56d f83e 32d8 103e
000001f0: 6555 bebe f11e 60be dc6e abbd 3af2 c8be
00000200: fc19 aabc 7cd2 9fbe d4db d0bc 3f57 163e
00000210: 0f8a ccbe 94e7 c63e 0763 c73e e701 10bd
00000220: 9cbe 7e3e eddb 81be 7edd 2cbd d39f 5cbe
00000230: e331 7ebe 0c39 343e 6074 c63e 2885 62be
00000240: 05cf 5e3d 7d9f ea3d ce74 c53e ead3 1ebe
00000250: 8b92 77be caed cd3e 3b56 f3bd 36e7 1dbd
00000260: 787c e7be 6cf9 56be 355e 4b3e f141 9d3e
00000270: 6b36 e0bc b95a 833e 46ff d43e 92f8 afbe
00000280: 7337 b53e 1b18 a9bd 5534 293e 69ca b6be
00000290: 1071 dc3e b12d 0abe 6047 393e 576c 30bb
000002a0: 6736 b2be 5b2e 2b3c b513 ef3e 1975 a03e
000002b0: 15bd a63b ed62 2ebe 5b7b 553e d94b 233c
000002c0: b015 ea3d e175 ce3d 5588 bf3e 5b61 853e
000002d0: eca0 9d3e 2360 cabe a9cb b3be bece 16be
000002e0: 7916 253e ae5b 56be 2aa9 84be 5cf7 65be
000002f0: 5dab e6be 9649 49be f6c7 b9be 090a c3be
00000300: d4f0 913e 1d44 783d 1ad7 143d e9dd 943e
00000310: 3401 c1be 7611 c23e e6db c3be 6ced ac3e
00000320: 4fd7 d13e 7048 053e e38b 643e 32f1 943d
00000330: eb4a 4cbb 40bb cdbe dabe bdbe 5a87 34be
00000340: eb34 c8be 96df b13d 2d93 87be 47c3 cf3e
00000350: e323 47be d191 dd3b 75ae 163e 6223 b13e
00000360: 6ee6 70be f3ea 4dbb 5d7c 083e c9d4 e83d
00000370: 10cf c63d 7cd8 afbe 1bc9 4a3c 1349 6a3e
00000380: c3bd 093e abff 30be d8ff 6cbe 737f 913e
00000390: de21 2bbe 9d9b b13d e884 183e 0652 67be
000003a0: a2b2 79be a652 7a3d 1e88 a3be 9527 2b3e
000003b0: adde 383e d224 b13d afb1 ccbd e1fb 37be
000003c0: 3510 1c3c ba82 a5bc 9789 acbd a19a 8fbd
000003d0: 58fb 403e 8104 8cbe 9877 09be 262c e2bd
000003e0: f0f2 aebe 1c2f 4cbe b5a0 80bd 2eb9 543e
000003f0: 9db1 d93d d330 c63d 5411 cebe 3de3 b73b

input_conv.bias f4 [64]
-0.18627901 0.39840654 0.07654284 -0.39276204 0.09757841 0.020488616 -0.037887316 0.07855248
0.2868743 0.39138672 0.1845987 -0.3009222 -0.21752526 0.39036533 0.2830669 0.036283564
0.0453232 0.2111486 -0.191736 0.282844 0.15319714 0.07302175 -0.163329 -0.17203034
0.28720102 0.37231115 0.20386824 0.38670194 0.2574359 -0.10129191 -0.37505832 0.22084147
-0.42519358 0.06723153 -0.060132395 -0.19875956 0.17442347 0.3807711 0.035133675 -0.18470483
0.39273897 -0.17724212 -0.43732083 0.38614845 0.43087426 -0.3249139 0.14967279 -0.14693536
0.07309359 -0.3703507 -0.05240284 -0.39133248 0.14437215 -0.027061868 -0.115010515 0.2425132
0.15632574 -0.058590468 0.03334541 0.021357298 -0.38914388 0.3633549 -0.24921556 0.3839958
00000000: edbf 3ebe f1fb cb3e 7ec2 9c3d 1b18 c9be
00000010: 30d7 c73d bed7 a73c bb2f 1bbd 1fe0 a03d
00000020: 30e1 923e d763 c83e 7107 3d3e 7912 9abe
00000030: f1be 5ebe f7dd c73e 25ee 903e 139e 143d
00000040: d2a4 393d 5737 583e 7156 44be eed0 903e
00000050: b6df 1c3e 6d8c 953d b83f 27be b928 30be
00000060: 030c 933e 919f be3e d6c2 503e ccfd c53e
00000070: a3ce 833e 2272 cfbd a507 c0be 4424 623e
00000080: f9b2 d9be afb0 893d 634d 76bd a087 4bbe
00000090: 119c 323e 6ef4 c23e 54e8 0f3d 4323 3dbe
000000a0: 1515 c93e f57e 35be 84e8 dfbe 40b5 c53e
000000b0: 8d9b dc3e 1d5b a6be d343 193e 3976 16be
000000c0: 18b2 953d 9b9e bdbe 5ca4 56bd bb5c c8be
000000d0: 4bd6 133e dab0 ddbc a28a ebbd 6155 783e
000000e0: db13 203e 8ffc 6fbd 3295 083d 80f5 ae3c
000000f0: de3d c7be a709 ba3e 5d32 7fbe 199b c43e

blocks.0.causal_conv.weight f4 [64, 64, 2]
-0.015486705 -0.026970655 -0.06413351 -0.08460478 0.076940395 -0.092425734 -1.7002152e-05 -0.024411408
0.026864966 -0.052977506 0.0823727 -0.08530657 0.041555114 -0.06326416 -0.045167066 0.009270226
0.095211126 0.033748314 0.06081171 -0.08180207 0.08109833 0.00013457924 -0.087577134 0.024014411
-0.038272295 0.03918228 0.05194771 -0.08408471 -0.061708458 -0.026067741 0.06370431 -0.03141984
0.033692647 -0.017860219 0.029858144 -0.022261154 0.015665485 0.095123984 -0.021250423 0.11185214
-0.033711746 -0.035422638 -0.0033258083 -0.09209057 -0.02464261 -0.019294035 -0.09437576 0.11311333
0.073563635 -0.051311944 0.04105698 0.023484144 0.005373852 -0.08515335 -0.06443508 -0.035724565
0.008053524 0.09986983 -0.06654369 0.05325421 -0.11471082 -0.01355687 0.07047295 -0.03171969
0.06123577 0.060828548 -0.083815865 0.04602193 -0.03554378 -0.039653122 0.035011545 -0.07698909
-0.09871437 -7.7013e-05 0.068869755 0.011432403 -0.055953924 0.027737139 -0.016872687 0.067167476
-0.05270251 -0.02037563 -0.017804725 0.047103398 -0.05619751 0.0049113273 -0.001109884 -0.00047587152
-0.09304276 0.036193445 0.06966006 -0.04103743 -0.08022645 0.06586938 0.0111345695 -0.04797357
0.002567031 -0.09974426 0.024103418 -0.08889641 -0.08221473 -0.0064752228 -0.0086424295 0.06812104
-0.022200895 -0.05861137 0.055589896 0.06571105 -0.07241196 0.050703056 -0.010849661 0.078990094
-0.06559126 0.053640205 0.045742624 0.035868652 0.01567928 -0.0458818 0.017258486 0.06746046
-0.046938304 -0.050833113 0.001380485 -0.11597396 0.02113623 0.07336295 -0.039855305 0.035538293
-0.0181485 -0.0830297 0.027765194 0.013486519 0.055815555 -0.041969888 0.05859547 -0.034798887
-0.085969165 0.057168808 0.041753564 0.042575408 0.026503045 0.014269815 -0.09212928 -0.09215446
-0.06119673 0.06663829 0.055058867 0.0134246405 -0.014473986 0.03160642 0.07024078 0.021902768
0.03244242 0.051378064 0.029901844 0.0016578798 0.040796094 -0.023268642 0.0754334 0.052485157
0.083112605 -0.012564704 0.017452922 -0.08536234 -0.043838173 -0.033235908 0.040576145 -0.06964003
0.007768243 0.051661897 0.049428184 -0.08192051 -0.032686718 -0.070970766 -0.09032189 0.021531416
-0.00617962 0.048782982 -0.0052557588 0.06841399 -0.031691536 0.026790863 0.08303746 0.03929052
0.02288629 0.02113616 0.066890955 -0.044224147 0.022134373 0.069432385 0.060367208 0.08514877
-0.05207584 0.08831278 0.077007174 0.02396833 -0.05917271 -0.07621126 -0.012995056 -0.039303165
-0.08231988 -0.039362643 -0.07657468 0.030619659 0.012561235 0.030768191 -0.07631107 -0.035367437
-0.074232936 -0.014701162 -0.073592044 0.063134745 0.06327535 0.07050623 -0.051437054 -0.040774185
0.037224684 0.0241799 -0.022355815 -0.012024449 -0.06274407 -0.04466862 -0.022150451 -0.105219536
0.07290517 0.01620422 0.038719937 0.08266912 0.076972775 0.08075225 -0.022494847 -0.08263682
-0.016916092 0.012801126 -0.07524988 -0.022480424 -0.08804781 -0.051835682 -0.07663168 -0.08855819
-0.020336641 -0.06519912 -0.027995741 0.017442709 0.009408712 -0.07329976 0.05502956 -0.06700889
-0.0632551 -0.07108657 -0.0034980343 -0.059046924 -0.016202038 -0.058493793 0.018274575 -0.056780614
00000000: f3bb 7dbc 90f1 dcbc 6e58 83bd 4545 adbd
00000010: ed92 9d3d b449 bdbd d89f 8eb7 6ffa c7bc
00000020: eb13 dc3c f1fe 58bd 05b3 a83d 36b5 aebd
00000030: b235 2a3d a490 81bd 1a01 39bd 25e2 173c
00000040: 0dfe c23d ac3b 0a3d b315 793d d887 a7bd
00000050: e216 a63d d71d 0d39 a45b b3bd dfb9 c43c
00000060: 69c3 1cbd 997d 203d 1fc7 543d 9b34 acbd
00000070: 02c2 7cbd 048c d5bc 6877 823d 17b2 00bd
00000080: 4d01 0a3d 984f 92bc 1199 f43c 065d b6bc
00000090: e754 803c 5dd0 c23d 5e15 aebc bc12 e53d
000000a0: 5415 0abd 5417 11bd cef5 59bb fb99 bcbd
000000b0: 4ddf c9bc 860e 9ebc 1448 c1bd f6a7 e73d
000000c0: 88a8 963d 792c 52bd 5d2b 283d d261 c03c
000000d0: 2317 b03b e164 aebd 8af6 83bd ec53 12bd
000000e0: eef2 033c 8e88 cc3d 0f48 88bd 1621 5a3d
000000f0: 82ed eabd a21d 5ebc 1f54 903d 81ec 01bd
00000100: 5cd2 7a3d 5b27 793d a7a7 abbd 7e81 3c3d
00000110: 5b96 11bd 506b 22bd 4468 0f3d 75ac 9dbd
00000120: c22a cabd 0a82 a1b8 960b 8d3d f94e 3b3c
00000130: f12f 65bd ff38 e33c 9738 8abc 1a8f 893d
00000140: 96de 57bd cbea a6bc 37db 91bc 7eef 403d
00000150: 5c2f 66bd 33ef a03b 8779 91ba 657e f9b9
00000160: 348d bebd 943f 143d efa9 8e3d dd16 28bd
00000170: c44d a4bd 87e6 863d c56d 363c ef7f 44bd
00000180: a23b 283b b846 ccbd 8874 c53c 520f b6bd
00000190: 3260 a8bd 1b2e d4bb fa98 0dbc 0b83 8b3d
000001a0: a7de b5bc 7a12 70bd 3bb2 633d 8493 863d
000001b0: b94c 94bd 02ae 4f3d c7c2 31bc 8fc5 a13d
000001c0: b654 86bd d5b5 5b3d 9e5c 3b3d 02eb 123d
000001d0: d571 803c 8eee 3bbd ab61 8d3c b628 8a3d
000001e0: 6142 40bd 6236 50bd 64f1 b43a c183 edbd
000001f0: e325 ad3c 503f 963d 513f 23bd 9a90 113d
00000200: 2aac 94bc 7a0b aabd d573 e33c 90f6 5c3c
00000210: da9e 643d 9ee8 2bbd ce01 703d 4789 0ebd
00000220: 9a10 b0bd d729 6a3d c905 2b3d 8d63 2e3d
00000230: ea1c d93c f1cb 693c 47ae bcbd 7abb bcbd
00000240: 6ca9 7abd a879 883d 6885 613d 06f3 5b3c
00000250: 4c24 6dbc bc75 013d 66da 8f3d 6f6d b33c
00000260: 58e2 043d ce71 523d b6f4 f43c 374d d93a
00000270: ce19 273d e19d bebc d47c 9a3d adfa 563d
00000280: f136 aa3d 30dc 4dbc 6ef9 8e3c 73d2 aebd
00000290: a88f 33bd 6022 08bd 2c33 263d 6f9f 8ebd
000002a0: bf8c fe3b 6d9b 533d 3575 4a3d f1c5 a7bd
000002b0: 82e2 05bd 1f59 91bd affa b8bd a762 b03c
000002c0: 697e cabb aad0 473d 8038 acbb a21c 8c3d
000002d0: fcce 01bd 8378 db3c 8b0f aa3d 19ef 203d
000002e0: 077c bb3c bd25 ad3c 20fe 883d 6124 35bd
000002f0: 2553 b53c 9132 8e3d 9b43 773d 7a62 ae3d
00000300: 7a4d 55bd 55dd b43d f0b5 9d3d 3b59 c43c
00000310: 155f 72bd a614 9cbd 37e9 54bc 5bfc 20bd
00000320: 5397 a8bd b93a 21bd 30d3 9cbd 14d6 fa3c
00000330: a3cd 4d3c 930d fc3c fa48 9cbd 72dd 10bd
00000340: 7007 98bd 25dd 70bc 6db7 96bd ca4c 813d
00000350: 8296 813d 9265 903d a9af 52bd d502 27bd
00000360: e978 183d ed14 c63c 8b23 b7bc 3202 45bc
00000370: f77f 80bd 71f6 36bd dd74 b5bc 577d d7bd
00000380: 4e4f 953d b6be 843c cc98 1e3d 6d4e a93d
00000390: e7a3 9d3d 7061 a53d 1d47 b8bc 7e3d a9bd
000003a0: 9e93 8abc d0bb 513c 9c1c 9abd de28 b8bc
000003b0: 6952 b4bd a751 54bd 12f1 9cbd ff5d b5bd
000003c0: 0799 a6bc 1e87 85bd 5357 e5bc 03e4 8e3c
000003d0: 0027 1a3c 2f1e 96bd ad66 613d f53b 89bd
000003e0: e48b 81bd d695 91bd 473f 65bb 30db 71bd
000003f0: 23ba 84bc 3097 6fbd 90b4 953c ca92 68bd

blocks.0.causal_conv.bias f4 [64]
-0.019290816 -0.016182346 0.042184856 -0.01795206 0.054837465 -0.04207487 0.00062429224 -0.02995095
0.24931313 0.09746329 0.04571761 0.014811593 -0.037313763 0.025711618 0.08985751 -0.025396962
-0.012371638 0.039166875 0.037263643 0.09713557 0.017514143 -0.00023022326 0.023963472 0.0046705916
-0.047412146 0.06607383 0.14030686 0.085662305 0.14566995 0.026343865 0.066579096 0.045025572
0.1405157 -0.017154947 0.15975451 0.0039052314 0.25389633 -0.024055995 -0.10751671 0.05069674
0.005621705 -0.08384762 0.13980797 -0.041283 0.014813249 0.015491127 0.16701849 -0.10340253
0.064630255 -0.08282648 0.038555317 -0.16054712 0.050924566 -0.09071364 -0.07023236 -0.101882115
0.117824726 -0.02189757 0.06212407 -0.007202569 0.020143002 0.01832229 -0.08925013 0.09602358
00000000: c607 9ebc d790 84bc 07ca 2c3d 3310 93bc
00000010: 409d 603d b356 2cbd 8ba7 233a b25b f5bc
00000020: f14b 7f3e d59a c73d 6342 3b3d 53ac 723c
00000030: 51d6 18bd 2ca1 d23c 3707 b83d 4a0d d0bc
00000040: 69b2 4abc 726d 203d c3a1 183d 04ef c63d
00000050: d279 8f3c 1668 71b9 0b4f c43c c30b 993b
00000060: 3d33 42bd b751 873d 9aac 0f3e b86f af3d
00000070: 812a 153e 17cf d73c 9f5a 883d bc6c 383d
00000080: 59e3 0f3e 8888 8cbc b096 233e e9ee 7f3b
00000090: b3fe 813e 1411 c5bc b931 dcbd 63a7 4f3d
000000a0: 4836 b83b 4db8 abbd d229 0f3e 5d18 29bd
000000b0: 45b3 723c 7fce 7d3c e506 2b3e b5c4 d3bd
000000c0: de5c 843d eea0 a9bd 2eec 1d3d 7766 24be
000000d0: 4796 503d 13c8 b9bd fcd5 8fbd 92a7 d0bd
000000e0: 174e f13d 8862 b3bc cf75 7e3d 8703 ecbb
000000f0: f002 a53c a118 963c c6c8 b6bd 03a8 c43d

blocks.0.residual_conv.weight f4 [64, 64, 1]
0.029929925 -0.014713569 0.0010087705 0.043495964 -0.09977689 -0.0852648 -0.15746419 -0.03630025
-0.0645484 -0.07951504 0.059252918 -0.0033194495 -0.060007837 -0.06681056 -0.07097792 0.02993845
-0.041506294 0.039444346 -0.1149162 0.037655246 -0.06749958 -0.037355904 -0.040774755 0.13554886
0.09316559 -0.06245257 -0.14096102 0.07825783 0.07150211 -0.1348141 0.0068006003 -0.1300817
-0.10293574 0.024623618 0.022495514 0.08142349 -0.14444362 -0.02154328 -0.0979333 0.005857535
0.08244668 -0.050692182 -0.11638423 0.03844062 0.052416332 -0.068907656 -0.063490175 -0.021359028
-0.054510154 0.06770984 0.13662341 0.054054376 0.092165634 -0.015848316 0.11774635 0.11096802
-0.028815836 0.11160761 -0.07121653 -0.054920327 -0.1744182 0.0985857 -0.0062499763 -0.05583802
0.05700902 -0.06647395 0.12989298 -0.11690394 -0.14659724 -0.037539225 0.18916412 0.104187526
0.040680118 -0.005302307 -0.0033414613 -0.01643404 0.07674262 -0.044307835 0.061570484 0.08787128
0.0045144428 -0.012642116 0.010802069 -0.06388454 -0.0856835 0.07838266 -0.055776305 0.09046704
0.10108309 0.08112922 0.012904775 0.026807418 -0.006005173 0.0015036602 -0.058420543 0.053673606
-0.047893144 0.009513573 0.053535406 -0.033101 0.11385842 0.016207175 0.07356716 0.07401782
-0.10806459 -0.12763554 -0.06827625 -0.045696724 -0.05560217 0.08575233 -0.013724418 -0.03862632
0.031772185 -0.12715343 -0.121543184 -0.0046296325 -0.027586374 0.099173866 -0.059801426 -0.01458601
-0.118773386 0.09616039 -0.040273197 0.09882807 0.1382281 0.11300246 0.024535391 -0.06085765
0.08135502 -0.07912753 0.115705505 0.016494028 0.10614433 0.090408415 0.12352546 -0.04128188
0.050917413 -0.054353755 -0.05448036 -0.1094299 -0.040313564 -0.07496641 -0.09679397 -0.039151035
-0.106214926 0.107381456 0.034697607 -0.062806174 -0.07537663 0.059052072 -0.026413532 -0.06005438
-0.046036296 0.04548289 -0.05650748 -0.005873748 0.058040533 0.056663174 -0.041532274 -0.12887993
0.04652402 0.0956551 -0.04098772 0.06544043 0.010928968 0.046546824 -0.080830745 0.07261748
-0.1165986 -0.04121162 -0.12128367 0.04312193 -0.058262747 0.007081309 -0.083150946 -0.07960204
-0.016240904 0.09625583 -0.08537002 -0.03847558 0.035628613 -0.092758164 -0.0736162 0.06977613
-0.023855282 0.003319112 -0.026294472 -0.001885934 -0.00050928444 -0.001178568 0.03874983 -0.055187833
0.07308882 0.085775696 -0.08217473 -0.07436813 -0.061446294 0.109676726 -0.16521247 -0.04273402
0.07083085 0.01531445 0.027999496 -0.0751392 0.03438436 0.07137025 0.034916155 -0.059431527
-0.028969673 -0.101209946 0.01705369 -0.112657316 0.093965314 -0.104249716 -0.11647663 0.058791954
-0.048100196 0.074765556 0.018189337 0.053143654 -0.07424843 -0.063136876 0.016145604 -0.0645069
-0.031169144 0.038140412 0.21033265 0.009337895 0.01813961 0.028696062 -0.02450579 -0.14753959
0.11809215 -0.01291837 0.15282494 -0.04491985 -0.13003893 -0.12459629 -0.06707118 0.036537424
0.08608067 0.0051369374 -0.13335742 -0.042564914 -0.06164236 -0.10707874 -0.056512877 -0.140404
-0.11998605 -0.06988559 -0.026942749 0.0011981413 -0.05926175 0.08161337 -0.033673465 -0.052212767
00000000: 9a2f f53c 2e11 71bc b938 843a d328 323d
00000010: d357 ccbd 509f aebd 4b3e 21be 92af 14bd
00000020: f431 84bd c8d8 a2bd 30b3 723d 1f8b 59bb
00000030: c7ca 75bd fad3 88bd df5c 91bd 7b41 f53c
00000040: 8102 2abd 6590 213d 2f59 ebbd 633c 1a3d
00000050: 383d 8abd 8102 19bd 6e03 27bd 52cd 0a3e
00000060: 9acd be3d 44ce 7fbd 1658 10be a445 a03d
00000070: b36f 923d b50c 0abe 92d7 de3b 2334 05be
00000080: f9cf d2bd 78b7 c93c 8348 b83c 5cc1 a63d
00000090: 07e9 13be 887b b0bc 4191 c8bd 91f0 bf3b
000000a0: ced9 a83d 9ba2 4fbd db5a eebd e973 1d3d
000000b0: 82b2 563d 751f 8dbd 2307 82bd 21f9 aebc
000000c0: 0a46 5fbd 75ab 8a3d 02e7 0b3e 1f68 5d3d
000000d0: 56c1 bc3d 54d4 81bc 0025 f13d 3443 e33d
000000e0: 300f ecbc 8892 e43d f9d9 91bd 23f4 60bd
000000f0: af9a 32be 4de7 c93d 9acc ccbb 68b6 64bd
00000100: 4a82 693d 7f23 88bd aa02 053e 556b efbd
00000110: 961d 16be bbc2 19bd 3db4 413e 4560 d53d
00000120: 32a0 263d fabe adbb 6bfc 5abb aea0 86bc
00000130: 3c2b 9d3d 227c 35bd 5531 7c3d dcf5 b33d
00000140: e4ed 933b e120 4fbc 29fb 303c e6d5 82bd
00000150: d57a afbd 1787 a03d b275 64bd c946 b93d
00000160: a704 cf3d 1427 a63d 8d6e 533c 3b9b db3c
00000170: 0bc7 c4bb 7716 c53a 614a 6fbd dbd8 5b3d
00000180: 9a2b 44bd d1de 1b3c f147 5b3d ea94 07bd
00000190: 9a2e e93d e9c4 843c 61aa 963d a896 973d
000001a0: f850 ddbd e4b2 02be 6bd4 8bbd 7d2c 3bbd
000001b0: 1abf 63bd eb9e af3d 62dc 60bc a236 1ebd
000001c0: 8d23 023d 8234 02be a2eb f8bd 2cb4 97bb
000001d0: d2fc e1bc ab1b cb3d 57f2 74bd 29fa 6ebc
000001e0: 763f f3bd bdef c43d 82f5 24bd 5f66 ca3d
000001f0: ab8b 0d3e d56d e73d 72fe c83c df45 79bd
00000200: 769d a63d 9d0d a2bd 02f7 ec3d 7c1e 873c
00000210: 3362 d93d 0c28 b93d ebfa fc3d 3017 29bd
00000220: c78e 503d 0ba2 5ebd cc26 5fbd c91c e0bd
00000230: d61f 25bd fd87 99bd eb3b c6bd d65c 20bd
00000240: 3687 d9bd cfea db3d 141f 0e3d 86a0 80bd
00000250: 105f 9abd 96e0 713d 3161 d8bc 95fb 75bd
00000260: 8e90 3cbd 444c 3a3d 6374 67bd 9278 c0bb
00000270: e9bb 6d3d a517 683d bf1d 2abd 1af9 03be
00000280: f98f 3e3d d2e6 c33d bde2 27bd a205 863d
00000290: 6a0f 333c e2a7 3e3d 978a a5bd 79b8 943d
000002a0: 3fcb eebd 84cd 28bd 9363 f8bd 9fa0 303d
000002b0: eba4 6ebd 530a e83b 0b4b aabd 6506 a3bd
000002c0: a50b 85bc c721 c53d 7ad6 aebd 9298 1dbd
000002d0: 4fef 113d fef7 bdbd 17c4 96bd cae6 8e3d
000002e0: 276c c3bc 7585 593b 8167 d7bc 7231 f7ba
000002f0: 8081 05ba 2e7a 9aba 24b8 1e3d a30c 62bd
00000300: 97af 953d 2bab af3d 3a4b a8bd 514e 98bd
00000310: 1caf 7bbd 319e e03d 752d 29be de09 2fbd
00000320: c40f 913d 75e9 7a3c 335f e53c 95e2 99bd
00000330: 9dd6 0c3d 912a 923d 3e04 0f3d 796e 73bd
00000340: cf51 edbc 2947 cfbd 2eb4 8b3c e1b8 e6bd
00000350: e370 c03d e080 d5bd 4d8b eebd d5cf 703d
00000360: b604 45bd af1e 993d ce01 953c 29ad 593d
00000370: 900f 98bd e84d 81bd c943 843c 321c 84bd
00000380: 6f56 ffbc 1f39 1c3d 7161 573e f8fd 183c
00000390: 8599 943c 0114 eb3c 5ec0 c8bc 9e14 17be
000003a0: 4cda f13d 92a7 53bc 247e 1c3e e0fd 37bd
000003b0: ed28 05be 572c ffbd 9d5c 89bd 44a8 153d
000003c0: 104b b03d c153 a83b d98e 08be 8c58 2ebd
000003d0: b37c 7cbd 194c dbbd 0c7a 67bd 11c6 0fbe
000003e0: 3fbb f5bd 2d20 8fbd 0ab7 dcbc f30a 9d3a
000003f0: 73bc 72bd e924 a73d 30ed 09bd 0edd 55bd

blocks.0.residual_conv.bias f4 [64]
0.0029052002 0.016186595 0.024306003 0.0962722 -0.01179132 -0.22361562 0.12215421 0.027697468
0.036376752 -0.0060989754 -0.189351 -0.011945815 0.096028395 0.0017350342 -0.054238383 -0.081939675
-0.022821238 0.0035446745 0.017986314 0.0525745 0.009408435 0.17198092 0.106873356 -0.034199815
-0.11266093 0.021964943 0.041397825 -0.024134016 -0.028794505 0.12475267 -0.057390332 -0.10849955
-0.058324903 0.11213706 0.08212426 0.10959348 0.04297836 0.055986688 0.027007187 -0.09096771
-0.07114795 -0.20440571 0.022996463 0.15175565 0.08113903 0.02870743 0.017766172 -0.14977412
0.1366189 -0.13690001 -0.06857162 0.011090536 0.0014728408 -0.12052544 0.010226795 0.12695988
0.00588948 0.0031436787 0.025308087 0.02024784 0.05052989 0.20703961 0.1156916 -0.05092178
00000000: 2c65 3e3b c099 843c 621d c73c 5c2a c53d
00000010: 6130 41bc 7efb 64be fd2b fa3d cde5 e23c
00000020: caff 143d ead9 c7bb 3be5 41be 61b8 43bc
00000030: 89aa c43d 166a e33a 1129 5ebd fdcf a7bd
00000040: 9bf3 babc c54d 683b 0958 933c 5c58 573d
00000050: d625 1a3c c41b 303e 6be0 da3d 1b15 0cbd
00000060: c6ba e6bd d3ef b33c c490 293d b3b4 c5bc
00000070: 74e2 ebbc 547e ff3d 2012 6bbd 0335 debd
00000080: 18e6 6ebd 1da8 e53d c430 a83d 8c72 e03d
00000090: 140a 303d 4c52 653d 2d3e dd3c 474d babd
000000a0: 04b6 91bd bb4f 51be 1463 bc3c d565 1b3e
000000b0: 382c a63d d82b eb3c 5d8a 913c 635e 19be
000000c0: d3e5 0b3e 842f 0cbe 476f 8cbd 14b5 353c
000000d0: 560c c13a 0bd6 f6bd 4a8e 273c c501 023e
000000e0: 8afc c03b 2d06 4e3b e852 cf3c ccde a53c
000000f0: 6ef8 4e3d 3102 543e b8ef ec3d 5b93 50bd

blocks.1.causal_conv.weight f4 [64, 64, 2]
0.062960416 -0.04067965 -0.059014823 -0.049858768 -0.06467127 -0.090341225 -0.082307994 0.01817825
-0.011381169 -0.094703816 -0.04478129 -0.054724317 -0.050675526 0.01066303 0.043552704 -0.024409968
0.05953506 -0.029781595 0.0903456 0.060705677 -0.09009595 0.06879674 0.050037183 0.05678042
-0.0015829859 -0.07766296 -0.059585452 -0.018038085 -0.013682084 -0.01582988 0.021715699 0.0052822684
-0.118135415 -0.0054489137 -0.017711813 0.0810112 0.11248108 0.04623008 0.078114495 -0.038618576
0.07276915 0.034503456 0.019184077 -0.015809845 0.026120737 0.09798149 0.01874512 -0.011387319
-0.005950326 -0.09936631 -0.07283258 0.01438177 0.032633852 0.062931836 -0.06739167 0.076403975
0.111402646 0.07356911 0.07905399 -0.07344343 -0.012544113 -0.03860788 0.084149465 -0.026086982
0.03972325 -0.04119945 0.09720958 0.04337829 -0.0011708861 0.023129158 -0.03206416 0.051429976
0.0066773784 0.11626235 -0.11750116 0.040412866 -0.10604495 -0.0837661 0.0031071214 0.043727323
0.13923171 0.08919186 -0.15080445 -0.0027497644 -0.03065558 -0.045904137 -0.11966986 -0.11793985
0.108808145 0.11189302 -0.053629577 0.014929803 -0.013638928 0.016431456 0.0697895 0.11099955
-0.14041878 -0.040479116 -0.016544987 0.06991303 0.095648244 0.094255745 0.04437687 -0.104547665
-0.113616854 0.012108537 0.02657709 0.037096027 -0.048341732 0.10496506 -0.036991265 0.032214418
0.08708142 0.06562897 0.1169679 0.12347919 -0.07947665 -0.12050192 0.060519766 -0.030483725
-0.053806588 0.08074484 -0.07066495 0.04085968 -0.04971986 0.10121695 0.0009957445 -0.086017475
-0.012562605 -0.06595952 0.04734935 0.11066307 0.011355918 0.06113217 -0.01631827 0.0622197
-0.09320929 -0.054287538 0.0013241405 0.06327397 0.01019384 0.021100132 -0.1124462 -0.007860838
0.04902375 -0.039414577 -0.080389656 -0.034651536 -0.030223507 0.03950835 -0.017597264 0.021304332
-0.09314856 0.04937129 -0.029648855 0.048996985 0.091857076 -0.002251667 0.06325912 -0.03117381
0.05581327 -0.06528464 -0.009889689 0.078599654 -0.062760524 -0.09781245 0.00888157 -0.03208695
0.077138044 -0.02436581 0.043141223 0.09648563 0.083836034 0.08249494 0.007123847 0.035308458
0.057520777 0.096845925 -0.01854574 0.0132354 0.006686542 0.08404964 0.103073865 0.013182304
0.073669866 -0.047871523 0.067699976 -0.033733696 -0.03271103 0.082353264 -0.040011153 0.059262194
0.019007986 -0.024523895 0.0018796853 -0.031008 -0.03172772 0.0030933793 0.026549771 0.038005322
0.009388734 -0.05113553 0.09971059 -0.032141723 0.105100855 0.035042092 0.04052464 -0.031278383
0.04404631 0.015164251 -0.0624034 0.0036601669 0.015487512 -0.028087365 0.08632368 -0.031384837
0.03152737 0.08195279 -0.015135336 -0.079617694 0.0221197 0.040877882 0.0017665697 0.004736169
0.0419331 0.09250027 -0.079645716 0.08075082 -0.0990452 -0.01928016 -0.04809196 0.06063916
-0.02363805 0.026027981 0.021801805 0.0410222 -0.0526498 -0.014450301 -0.06706805 0.015998768
-0.07116218 0.034784563 -0.0057555092 -0.010634721 0.049314197 0.023706535 -0.009024061 0.036065944
-0.06252487 -0.021566885 0.012311594 -0.05794744 -0.040321026 -0.05351931 0.03959198 0.06620558
00000000: 64f1 803d b49f 26bd 87b9 71bd b538 4cbd
00000010: 5f72 84bd d204 b9bd 1891 a8bd 8eea 943c
00000020: 1578 3abc 13f4 c1bd 966c 37bd 9b26 60bd
00000030: 2491 4fbd fdb3 2e3c 5264 323d 6af7 c7bc
00000040: 09db 733d 88f8 f3bc 1d07 b93d 84a6 783d
00000050: 3a84 b8bd 4ee5 8c3d caf3 4c3d 9692 683d
00000060: 317c cfba c20d 9fbd e00f 74bd 9bc4 93bc
00000070: d22a 60bc aaad 81bc 1fe5 b13c e116 ad3b
00000080: fbf0 f1bd cd8c b2bb 5d18 91bc 33e9 a53d
00000090: 7b5c e63d c15b 3d3d 7efa 9f3d 832e 1ebd
000000a0: fe07 953d 7f53 0d3d ed27 9d3c a683 81bc
000000b0: 28fb d53c 85aa c83d 5e8f 993c e191 3abc
000000c0: f4fa c2bb 9080 cbbd 3f29 95bd 84a1 6b3c
000000d0: 13ab 053d 68e2 803d a504 8abd b079 9c3d
000000e0: 1227 e43d 67ab 963d 0fe7 a13d 8269 96bd
000000f0: d385 4dbc 4c23 1ebd 8e56 ac3d 5eb4 d5bc
00000100: d9b4 223d c1c0 28bd d115 c73d 6fad 313d
00000110: 6b78 99ba 5c79 bd3c b555 03bd 3da8 523d
00000120: e9cd da3b f41a ee3d 73a4 f0bd f687 253d
00000130: 182e d9bd 908d abbd d9a0 4b3b 6c1b 333d
00000140: c292 0e3e 39aa b63d 7b6c 1abe 6435 34bb
00000150: 6921 fbbc fa05 3cbd 7915 f5bd 738a f1bd
00000160: ced6 de3d 2b28 e53d b0aa 5bbd 229c 743c
00000170: cf75 5fbc 439b 863c cced 8e3d bb53 e33d
00000180: f1c9 0fbe 6ecd 25bd 5a89 87bc 902e 8f3d
00000190: 3ae3 c33d 2809 c13d 85c4 353d 161d d6bd
000001a0: f4af e8bd e362 463c 33b8 d93c 01f2 173d
000001b0: fb01 46bd ecf7 d63d 2784 17bd 44f3 033d
000001c0: be57 b23d 7b68 863d de8c ef3d a8e2 fc3d
000001d0: a7c4 a2bd b6c9 f6bd 93e3 773d 01b9 f9bc
000001e0: 4c64 5cbd 8d5d a53d c9b8 90bd 7b5c 273d
000001f0: 0da7 4bbd d54a cf3d a483 823a ee29 b0bd
00000200: 62d3 4dbc c915 87bd 64f1 413d 52a3 e23d
00000210: 2c0e 3a3c ba65 7a3d e4ad 85bc 16da 7e3d
00000220: 83e4 bebd 9c5c 5ebd c88e ad3a c895 813d
00000230: 1004 273c 2fda ac3c 314a e6bd bfca 00bc
00000240: 21cd 483d 2e71 21bd 55a3 a4bd c5ee 0dbd
00000250: 4a97 f7bc 82d3 213d 2328 90bc 6c86 ae3c
00000260: acc4 bebd 8d39 4a3d 28e2 f2bc 10b1 483d
00000270: 901f bc3d b490 13bb ff8d 813d 3860 ffbc
00000280: 759c 643d f4b3 85bd 5d08 22bc dbf8 a03d
00000290: 9788 80bd e551 c8bd 0184 113c 9b6d 03bd
000002a0: 8dfa 9d3d cf9a c7bc dab4 303d 429a c53d
000002b0: 3ab2 ab3d 1bf3 a83d 296f e93b 9a9f 103d
000002c0: e89a 6b3d 2857 c63d 3ced 97bc 4bd9 583c
000002d0: c81a db3b 3822 ac3d 6418 d33d 97fa 573c
000002e0: 3ae0 963d ee14 44bd 49a6 8a3d 582c 0abd
000002f0: 00fc 05bd d4a8 a83d bce2 23bd eabc 723d
00000300: a3b6 9b3c 56e6 c8bc c65f f63a 7d04 febc
00000310: edf4 01bd 4bba 4a3b e87e d93c 78ab 1b3d
00000320: 34d3 193c 7d73 51bd 1135 cc3d 0aa7 03bd
00000330: 1e3f d73d 4c88 0f3d 2afd 253d c31d 00bd
00000340: e769 343d 7b73 783c b59a 7fbd 69df 6f3b
00000350: 55bf 7d3c 7917 e6bc 78ca b03d 638d 00bd
00000360: d822 013d ddd6 a73d 33fa 77bc 9a0e a3bd
00000370: 6034 b53c 916f 273d 3e8c e73a dd31 9b3b
00000380: 0bc2 2b3d c870 bd3d 4b1d a3bd b060 a53d
00000390: 36d8 cabd 6df1 9dbc 13fc 44bd c560 783d
000003a0: 95a4 c1bc a238 d53c b399 b23c e506 283d
000003b0: 51a7 57bd f5c0 6cbc f95a 89bd d90f 833c
000003c0: 7abd 91bd 427a 0e3d b698 bcbb 413d 2ebc
000003d0: affd 493d 3534 c23c a8d9 13bc e2b9 133d
000003e0: 0a0d 80bd 09ad b0bc 91b6 493c 4b5a 6dbd
000003f0: a927 25bd 1037 5bbd 332b 223d cb96 873d

blocks.1.causal_conv.bias f4 [64]
0.008608806 -0.029776622 -0.042064782 0.071706556 0.06373227 0.075831935 0.092374094 0.048736162
0.09696957 -0.02745895 0.05210655 0.052254308 0.02051651 -0.08199306 0.07439847 0.009215567
-0.113843046 -0.042638462 0.006617045 0.10096738 -0.02136671 0.13565546 0.019615246 -0.053516213
0.03586536 -0.08724415 -0.02647443 -0.069570124 0.0025206716 0.054113697 0.072649285 0.047139462
0.0071115145 -0.005526256 0.01066451 0.014118269 0.13394406 0.046562117 0.015090959 0.018804492
-0.1266881 -0.05448626 -0.10285791 -0.004598164 0.011667697 0.09327132 0.021449579 0.20916754
-0.1462067 0.0916678 -0.07879136 0.010205563 0.096775174 -0.022393025 0.16706653 0.04216909
-0.019237192 0.18996805 0.032741785 0.10002168 -0.031738326 0.022965558 0.028921936 0.13382427
00000000: f30b 0d3c 1aee f3bc 1f4c 2cbd e3da 923d
00000010: 1086 823d c64d 9b3d a12e bd3d 929f 473d
00000020: fb97 c63d 98f1 e0bc ae6d 553d 9d08 563d
00000030: 3d12 a83c faeb a7bd 3a5e 983d e4fc 163c
00000040: 8b26 e9bd aba5 2ebd ccd3 d83b fcc7 ce3d
00000050: 3d09 afbc 44e9 0a3e 27b0 a03c d133 5bbd
00000060: 8ee7 123d 10ad b2bd e7e0 d8bc c87a 8ebd
00000070: da31 253b 53a6 5d3d 26c9 943d 4f15 413d
00000080: b507 e93b 9815 b5bb 32ba 2e3c 5050 673c
00000090: a228 093e ebb7 3e3d 1240 773c e10b 9a3c
000000a0: 86ba 01be fc2c 5fbd 2ba7 d2bd 32ac 96bb
000000b0: de29 3f3c 0905 bf3d 07b7 af3c 0430 563e
000000c0: 36b7 15be 54bc bb3d 5d5d a1bd 3c35 273c
000000d0: 1032 c63d 9471 b7bc 7d13 2b3e 7fb9 2c3d
000000e0: 5197 9dbc fc86 423e 401c 063d 2bd8 cc3d
000000f0: 0c00 02bd 4422 bc3c b2ed ec3c 3b09 093e

blocks.1.residual_conv.weight f4 [64, 64, 1]
-0.003988499 0.030060079 -0.06501698 -0.013135753 -0.052231863 0.03874807 0.008271418 0.11722021
-0.037968025 0.038672112 -0.08156453 0.08295812 0.035112966 -0.09603302 -0.010775648 0.03864172
0.007676904 -0.0076773455 -0.012275533 -0.04172318 0.09348034 0.14166482 0.0059601087 0.04276346
-0.10283983 -0.03030746 -0.09033113 -0.108021334 0.14715643 0.09353306 0.01074899 -0.058413047
0.018828822 0.094717085 -0.118377596 0.10422594 0.049434874 0.005161874 0.12564027 0.1512308
0.002473954 0.12024864 -0.031044703 0.0692524 0.12678276 0.09316562 0.13230713 0.114060126
-0.05372435 -0.12205313 0.047405317 -0.02352406 -0.08005078 -0.01460727 0.041251026 0.030516442
0.1128709 -0.046785403 0.062838174 -0.04871368 -0.023351818 0.01272738 -0.05148727 -0.050810765
-0.12517802 -0.1488627 -0.12013482 -0.0982403 -0.12599632 0.08471747 0.10314906 -0.06088075
-0.040213924 0.07027676 -0.1421451 -0.018148366 -0.07829856 0.06920744 0.056200907 0.0067887614
0.030933352 -0.090296336 -0.1107831 -0.13314185 0.08419498 0.06279538 -0.024199206 -0.059513442
0.023059445 -0.04506903 -0.020791996 0.0031136589 -0.015672585 0.010055836 0.06524525 0.022808375
0.013738359 0.03986822 0.04932803 0.026639625 0.05745028 -0.013298005 0.069135174 -0.08677636
0.029112604 -0.012734771 0.04772821 0.012292152 0.0022667465 0.12580706 -0.11818006 0.03532498
0.059122898 -0.017469317 -0.045383405 -0.13998477 0.01750001 -0.04280989 0.12580289 0.09107705
-0.1347705 -0.01874209 -0.051127426 -0.05694657 0.044484347 0.042935465 0.13683997 -0.10682392
0.096809715 0.021230172 -0.08382899 0.00066842284 0.0287483 0.099363044 -0.11230446 0.023127977
-0.07082477 -0.16354793 -0.058398683 -0.10231865 0.09843594 0.06981497 0.0816552 0.053299718
0.06542241 0.046419412 -0.048040207 0.08164503 0.13249099 -0.080575585 -0.10109284 0.04619803
-0.14679588 0.0748851 -0.10566962 -0.024902994 0.10968153 -0.055840924 0.0765971 0.042120002
0.091322266 -0.069941565 -0.041107666 0.13334164 0.043848258 0.04156648 0.0016844013 0.15613312
-0.077601686 -0.0819343 -0.0966911 0.10687206 0.10479058 -0.039341565 0.10457294 -0.13043058
-0.13395329 0.10826445 -0.1261822 -0.07597023 -0.040129848 -0.034480944 0.091650225 -0.05614386
-0.11122656 -0.10771184 0.035763588 0.017615782 -0.120808944 -0.046688106 0.03139346 -0.12208543
0.07073356 0.06958611 0.035356097 -0.07057516 -0.017183779 -0.093099885 -0.10985791 0.09357997
0.08502571 0.103336304 0.06851406 0.09395326 0.09769871 -0.0046047894 -0.019176686 0.0995783
0.07556556 -0.039336957 -0.1270374 -0.11128977 0.013012407 0.06898459 -0.058911975 -0.019268814
0.12350113 -0.04212243 -0.030029073 -0.024382243 -0.12663247 -0.11026606 -0.028341733 -0.12470771
-0.082834095 0.0057053603 0.028615544 0.118669845 0.069334045 0.07315222 -0.029764317 -0.050848585
-0.13979621 0.09782745 0.020557854 0.14266366 0.02893104 -0.04401966 -0.14944524 -0.025297126
0.05331528 0.025438912 -0.027111791 -0.013527218 0.09468173 -0.12857965 0.02510984 -0.1210828
-0.054385845 0.05363833 0.0803582 0.13080013 0.050147418 -0.067392476 0.03465277 -0.09403034
00000000: f4b1 82bb 8e40 f63c 9f27 85bd 5737 57bc
00000010: 14f1 55bd 4cb6 1e3d d784 073c 2611 f03d
00000020: 5c84 1bbd a666 1e3d 4e0b a7bd f2e5 a93d
00000030: 9dd2 0f3d f6ac c4bd 588c 30bc c846 1e3d
00000040: 8a8e fb3b 3e92 fbbb 511f 49bc ede5 2abd
00000050: 9f72 bf3d 9510 113e 044d c33b bd28 2f3d
00000060: b09d d2bd 5a47 f8bc 87ff b8bd 4a3a ddbd
00000070: 2db0 163e 438e bf3d 881c 303c 8542 6fbd
00000080: e73e 9a3c 08fb c13d f46f f2bd 6974 d53d
00000090: 397c 4a3d f024 a93b d8a7 003e 3fdc 1a3e
000000a0: 1022 223b eb44 f63d 7651 febc 34d4 8d3d
000000b0: 57d3 013e 9ecd be3d 857b 073e 5b98 e93d
000000c0: 100e 5cbd fef6 f9bd 142c 423d 88b5 c0bc
000000d0: aaf1 a3bd 5553 6fbc d6f6 283d 9efd f93c
000000e0: dc28 e73d 0da2 3fbd 4db1 803d ff87 47bd
000000f0: 504c bfbc 8086 503c 51e4 52bd f31e 50bd
00000100: ab2e 00be 776f 18be 3f09 f6bd 3632 c9bd
00000110: 2e05 01be 5a80 ad3d d03f d33d 185e 79bd
00000120: 5bb7 24bd 43ed 8f3d 7c8e 11be e2ab 94bc
00000130: ff5a a0bd a1bc 8d3d ec32 663d 4274 de3b
00000140: f167 fd3c 49ed b8bd 40e2 e2bd 5656 08be
00000150: 6b6e ac3d dd9a 803d 6a3d c6bc 5ec4 73bd
00000160: 29e7 bc3c 4e9a 38bd fa53 aabc 870e 4c3b
00000170: cb63 80bc 3cc1 243c 4d9f 853d a1d8 ba3c
00000180: db16 613c dc4c 233d 300c 4a3d 583b da3c
00000190: fc50 6b3d e0df 59bc be96 8d3d ceb7 b1bd
000001a0: 8e7d ee3c 80a5 50bc a87e 433d 0665 493c
000001b0: b28d 143b 91d3 003e 6308 f2bd edb0 103d
000001c0: da2a 723d d01b 8fbc f3e3 39bd 2b58 0fbe
000001d0: 2e5c 8f3c 6c59 2fbd 79d2 003e 9b86 ba3d
000001e0: 4701 0abe 0389 99bc fe6a 51bd ce40 69bd
000001f0: 3835 363d 19dd 2f3d c71f 0c3e 80c6 dabd
00000200: 2c44 c63d e6ea ad3c 89ae abbd 1939 2f3a
00000210: 8e81 eb3c da7e cb3d e1ff e5bd e276 bd3c
00000220: 940c 91bd 1c79 27be 7533 6fbd 718c d1bd
00000230: c898 c93d 27fb 8e3d d73a a73d ce50 5a3d
00000240: 2ffc 853d 4822 3e3d cfc5 44bd 8235 a73d
00000250: b8ab 073e d004 a5bd c309 cfbd 253a 3d3d
00000260: a951 16be 5c5d 993d 5069 d8bd 5d01 ccbc
00000270: b6a0 e03d 74b9 64bd f1de 9c3d 0686 2c3d
00000280: 2b07 bb3d 863d 8fbd 8360 28bd b68a 083e
00000290: 3b9a 333d 9d41 2a3d 21c7 dc3a 5ce1 1f3e
000002a0: a2ed 9ebd 2ccd a7bd fc05 c6bd bddf da3d
000002b0: 729c d63d 9f24 21bd 562a d63d 988f 05be
000002c0: 0d2b 09be c1b9 dd3d e835 01be 4896 9bbd
000002d0: 325f 24bd e43b 0dbd 1db3 bb3d 1bf7 65bd
000002e0: c0ca e3bd 0698 dcbd d77c 123d f94e 903c
000002f0: ae6a f7bd 073c 3fbd 6e96 003d ed07 fabd
00000300: c2dc 903d 2a83 8e3d 8ed1 103d b689 90bd
00000310: ffc4 8cbc 27ab bebd 2ffd e0bd dba6 bf3d
00000320: f621 ae3d fca1 d33d 1951 8c3d 916a c03d
00000330: 4316 c83d c6e3 96bb 6d18 9dbc b5ef cb3d
00000340: 1ec2 9a3d ca1f 21bd 1816 02be e4eb e3bd
00000350: fe31 553c cb47 8d3d af4d 71bd a2d9 9dbc
00000360: 29ee fc3d 9288 2cbd 88ff f5bc 45bd c7bc
00000370: f1ab 01be 2cd3 e1bd ec2c e8bc c266 ffbd
00000380: eca4 a9bd 08f4 ba3b 256b ea3c 2d09 f33d
00000390: 02ff 8d3d d5d0 953d 4cd4 f3bc 9b46 50bd
000003a0: bd26 0fbe c259 c83d f268 a83c 6c16 123e
000003b0: ca00 ed3c f64d 34bd 2c08 19be eb3b cfbc
000003c0: 1f61 5a3d 4465 d03c 8c19 debc 44a1 5dbc
000003d0: 7fe8 c13d 62aa 03be 27b3 cd3c 42fa f7bd
000003e0: b1c3 5ebd deb3 5b3d d792 a43d 78f0 053e
000003f0: 6167 4d3d 1105 8abd 10f0 0d3d fb92 c0bd

blocks.1.residual_conv.bias f4 [64]
-0.045195658 0.08143885 -0.19435817 0.07634868 0.08878731 -0.21331002 0.032718517 0.104806915
0.01560755 0.21718203 -0.19327159 0.06381118 0.121587515 -0.14147535 -0.025554502 0.050931215
-0.029895913 0.024210516 0.016715765 0.12434239 0.07169628 0.08830992 -0.035767972 0.021870987
0.06903366 0.03975787 0.025112135 0.07189835 0.0066878377 0.10380714 -0.15027733 -0.031101426
-0.11259574 0.111084506 -0.045008533 -0.01941782 0.09467524 0.08928998 -0.085199095 -0.05810715
-0.1051719 -0.18173921 -0.159594 -0.0031357687 0.09298948 0.042062227 0.048234284 -0.12056358
-0.07133627 0.010021213 -0.025980612 -0.18965599 -0.07851026 0.045170378 -0.04445406 0.032267664
0.08261573 0.013454205 0.07594538 0.04830991 -0.046045333 0.01673586 -0.035404563 -0.10826257
00000000: 151f 39bd 69c9 a63d d405 47be b25c 9c3d
00000010: 1fd6 b53d f16d 5abe da03 063d 02a5 d63d
00000020: cfb6 7f3c f764 5e3e fde8 45be 70af 823d
00000030: e002 f93d eade 10be ad57 d1bc 409d 503d
00000040: 46e8 f4bc 2255 c63c 80ef 883c 39a7 fe3d
00000050: 80d5 923d d5db b43d 7081 12bd c92a b33c
00000060: 8561 8d3d 26d9 223d f7b7 cd3c 713f 933d
00000070: a625 db3b d698 d43d 4de2 19be 6bc8 febc
00000080: 9898 e6bd 4680 e33d de5a 38bd 1f12 9fbc
00000090: 18e5 c13d aadd b63d dd7c aebd c301 6ebd
000000a0: 5d64 d7bd d819 3abe 9c6c 23be 7881 4dbb
000000b0: 4571 be3d 7149 2c3d 5091 453d 0aea f6bd
000000c0: c018 92bd 0430 243c 4bd5 d4bc 2e35 42be
000000d0: fdc9 a0bd 9304 393d 7615 36bd 192b 043d
000000e0: 7032 a93d 076f 5c3c 4089 9b3d 9de0 453d
000000f0: 089a 3cbd a419 893c 6004 11bd c4b8 ddbd

blocks.2.causal_conv.weight f4 [64, 64, 2]
-0.07591155 0.039160676 -0.02019774 -0.05176409 -0.04564007 0.013104516 -0.012473181 -0.01224861
-0.07038507 -0.03244719 0.030926881 0.086827844 -0.049040094 -0.024436152 0.003936791 -0.04539943
0.025912097 -0.042795874 0.027937466 -0.063353635 -0.038328573 0.09187857 -0.004153257 -0.015404481
-0.023252979 -0.008985863 -0.08356621 0.060800187 0.051502805 0.0536389 -0.02117447 -0.0018794615
0.04460443 0.031043636 -0.07883794 0.030217947 -0.012344869 -0.047153786 -0.011811491 -0.0041520516
-0.05804123 -0.0039944467 -0.04290396 -0.06258242 0.0017613191 -0.03131289 -0.022371324 -0.08696042
0.07721103 0.07755465 -0.009450726 0.01921149 0.040425487 -0.058615584 -0.05214292 -0.07078583
-0.007757626 0.0018081411 -0.02939575 -0.016536621 0.00499719 -0.0080000805 0.06165186 0.005477607
0.060788404 0.021308985 0.020494532 0.07492091 0.0451882 0.026382623 -0.010581133 0.022658855
-0.017415928 0.00350117 -0.0311929 -0.067882314 0.053474814 -0.05901368 0.03166039 -0.05549407
-0.04791307 -0.026983667 -0.083675615 -0.06350706 -0.080508366 0.018934634 -0.038662866 0.05152814
0.062310115 0.09018158 -0.078313574 -0.0021031143 -0.056974035 -0.016532626 0.050154284 -0.044694852
0.004404854 0.044137683 -0.07661521 0.024337182 -0.08543785 0.009924221 -0.037615653 -0.070565365
0.027153097 0.08013098 -0.097923115 -0.054683194 0.024589544 0.08414125 -0.07855526 -0.011388357
0.061761357 -0.03438144 -0.04535901 0.026342949 0.0888478 0.028195783 0.06542271 0.021586888
-0.015913751 0.043083932 -0.014078349 -0.026815748 0.029359903 -0.06294313 -0.08648345 0.038004335
0.0412686 -0.002666708 -0.03819344 0.026116226 -0.040483855 0.10202454 0.0076318732 0.05263751
0.04985362 -0.12636088 0.06977214 0.035399072 0.017631523 0.015132236 0.022402087 0.048149474
0.05000458 -0.08815849 0.032586362 -0.090956084 -0.05176745 0.04204619 -0.006750355 -0.08589949
0.047157146 -0.004027796 0.014525166 0.11943401 0.0020740074 -0.05196937 0.11354092 0.03141243
-0.023704402 0.018334813 -0.054522816 0.036435936 0.012816307 -0.08514798 -0.03650971 -0.04821806
0.03293538 -0.058731254 0.05743645 0.044390786 -0.0278984 0.08706207 0.05050737 -0.02478252
0.07981538 0.09475366 -0.01890052 0.10416474 0.059386436 0.033773184 -0.06307745 0.015225997
-0.059894774 0.042777773 -0.054648783 -0.09346671 0.0944929 -0.00670832 0.01605031 -0.036562517
-0.024832629 -0.105153 0.051451 -0.07711318 -0.037738044 0.039462913 0.053985626 0.049268406
-0.07781009 -0.05183226 -0.0026934112 0.06445625 -0.00482177 -0.0214162 -0.1058289 -0.025002468
-0.013678641 0.082294546 -0.056007296 0.11411626 -0.052688517 -0.0039022395 0.0009957802 0.0066881604
-0.012786334 -0.023250807 -0.008409141 -0.027886879 0.014566807 0.008229302 -0.0052208332 -0.0071878023
-0.054000307 0.026666762 0.066175535 0.049786136 0.028843766 -0.039656654 -0.11446701 0.059497226
0.0954976 0.016436564 -0.09136731 -0.09616648 -0.05286386 0.041561753 -0.045206625 0.0288133
0.007372054 -0.015008369 0.07356444 0.070267454 -0.06111602 -0.030895183 0.04124712 -0.01302661
0.04985801 -0.06940706 0.046769038 -0.029158665 -0.051936127 -0.09936269 -0.0129084 0.01493322
00000000: 8477 9bbd f266 203d bb75 a5bc 9506 54bd
00000010: 15f1 3abd 53b4 563c 505c 4cbc 65ae 48bc
00000020: 0c26 90bd 58e7 04bd 5f5a fd3c ccd2 b13d
00000030: 44de 48bd 532e c8bc 3200 813b c1f4 39bd
00000040: 9b45 d43c ba4a 2fbd 1ddd e43c 8dbf 81bd
00000050: 6cfe 1cbd d52a bc3d 0b18 88bb 1463 7cbc
00000060: 087d bebc 7139 13bc c324 abbd 9e09 793d
00000070: 9bf4 523d 77b4 5b3d 1576 adbc 4358 f6ba
00000080: 23b3 363d 394f fe3c c975 a1bd a18b f73c
00000090: 2242 4abc 5424 41bd fc84 41bc ef0d 88bb
000000a0: a4bc 6dbd d9e3 82bb 10bc 2fbd 362b 80bd
000000b0: 10dc e63a f241 00bd 1144 b7bc 4e18 b2bd
000000c0: d120 9e3d f9d4 9e3d 38d7 1abc 6a61 9d3c
000000d0: 3295 253d e516 70bd d193 55bd 29f8 90bd
000000e0: af33 febb 26ff ec3a 5bcf f0bc cf77 87bc
000000f0: 78bf a33b c512 03bc a986 7c3d 7f7d b33b
00000100: 43fd 783d 2e90 ae3c 26e4 a73c 2270 993d
00000110: 4317 393d 5f20 d83c 7d5c 2dbc 109f b93c
00000120: d9ab 8ebc e373 653b 4188 ffbc e205 8bbd
00000130: 6808 5b3d 54b8 71bd 53ae 013d c04d 63bd
00000140: 7f40 44bd da0c ddbc 1f5e abbd fd0f 82bd
00000150: 92e1 a4bd ce1c 9b3c f45c 1ebd 2c0f 533d
00000160: e438 7f3d 1fb1 b83d de62 a0bd 67d4 09bb
00000170: 9b5d 69bd 6e6f 87bc 946e 4d3d f311 37bd
00000180: 9856 903b b7c9 343d 6fe8 9cbd c55e c73c
00000190: 0afa aebd 3399 223c df12 1abd 9384 90bd
000001a0: 2c70 de3c b61b a43d ea8b c8bd 7cfb 5fbd
000001b0: 0370 c93c 3f52 ac3d 95e1 a0bd 3b96 3abc
000001c0: 7af9 7c3d 8ed3 0cbd 5fca 39bd 2bcd d73c
000001d0: d6f5 b53d d8fa e63c 57fc 853d fcd6 b03c
000001e0: 8e5d 82bc c778 303d e0a8 66bc b3ac dbbc
000001f0: 2e84 f03c 54e8 80bd 3c1e b1bd 6faa 1b3d
00000200: 4309 293d f0c3 2ebb b970 1cbd b2f1 d53c
00000210: 66d2 25bd 3ef2 d03d cb14 fa3b 6e9a 573d
00000220: 4f33 4c3d bf64 01be b2e4 8e3d 9efe 103d
00000230: fc6f 903c 33ed 773c 9584 b73c 6238 453d
00000240: 9ad1 4c3d 708c b4bd 4779 053d 2f47 babd
00000250: 1b0a 54bd a038 2c3d 1532 ddbb 12ec afbd
00000260: da27 413d 9afb 83bb f6fa 6d3c d199 f43d
00000270: 12ec 073b d6dd 54bd 2488 e83d 52aa 003d
00000280: bc2f c2bc e432 963c 5153 5fbd d93d 153d
00000290: 7dfb 513c 1062 aebd 358b 15bd 4d80 45bd
000002a0: 40e7 063d 2f90 70bd 7c42 6b3d 1dd3 353d
000002b0: 2f8b e4bc 994d b23d d1e0 4e3d b604 cbbc
000002c0: 3f76 a33d 350e c23d 43d5 9abc 5354 d53d
000002d0: 313f 733d c055 0a3d c02e 81bd 7676 793c
000002e0: 3954 75bd bf37 2f3d 67d7 5fbd 796b bfbd
000002f0: 7e85 c13d 78d1 dbbb f17b 833c 94c2 15bd
00000300: cc6d cbbc 755a d7bd 49be 523d 84ed 9dbd
00000310: 3593 1abd dda3 213d 0820 5d3d abcd 493d
00000320: e55a 9fbd 104e 54bd f183 30bb a301 843d
00000330: f0ff 9dbb 0771 afbc d3bc d8bd fad1 ccbc
00000340: 611c 60bc 0b8a a83d e867 65bd c9b5 e93d
00000350: eacf 57bd b7bc 7fbb d784 823a 5b28 db3b
00000360: c67d 51bc 7a78 bebc 7ec6 09bc 0673 e4bc
00000370: 9ea9 6e3c 32d4 063c 8613 abbb a887 ebbb
00000380: 6d2f 5dbd 4174 da3c 0a87 873d 8cec 4b3d
00000390: c349 ec3c 046f 22bd ae6d eabd 5db3 733d
000003a0: 3f94 c33d f9a5 863c c91e bbbd eef2 c4bd
000003b0: c687 58bd a83c 2a3d 952a 39bd df09 ec3c
000003c0: 4591 f13b aae5 75bc f4a8 963d 62e8 8f3d
000003d0: cb54 7abd e517 fdbc bdf2 283d 906d 55bc
000003e0: ea37 4c3d 4a25 8ebd e490 3f3d 27de eebc
000003f0: faba 54bd aa7e cbbd c17d 53bc 77aa 743c

blocks.2.causal_conv.bias f4 [64]
0.18307753 -0.053375322 0.006806642 0.14807501 -0.014593296 0.15498202 -0.012989148 -0.044219866
0.09330903 0.09176723 -0.044510968 -0.06330507 0.010655071 0.10464758 0.020554954 0.02721484
0.14706732 -0.025578292 -0.10824407 -0.11235827 -0.07781092 0.034762744 0.037512872 0.04671989
0.033960886 -0.11323485 0.13333671 -0.0043839533 0.04830491 0.0069552585 0.07687431 -0.014327101
-0.05378956 -0.09917706 0.03812201 -0.018049529 0.072180465 0.068973064 -0.05490395 -0.036905907
0.06567331 0.11747793 0.0885348 0.18844709 0.015200652 -0.08457798 0.045518927 0.004364417
0.21448755 -0.09799602 -0.0063904845 -0.059274703 0.042885136 0.09344009 -0.038019616 0.07795168
0.019177636 0.1273488 -0.012843542 -0.009934118 0.17093875 0.039781526 0.0046907994 0.011932491
00000000: ad78 3b3e 15a0 5abd 400a df3b faa0 173e
00000010: b818 6fbc 9bb3 1e3e 6fd0 54bc e41f 35bd
00000020: ce18 bf3d 75f0 bb3d 2251 36bd 17a6 81bd
00000030: 9b92 2e3c 7851 d63d dd62 a83c a8f1 de3c
00000040: d198 163e 9189 d1bc 11af ddbd 181c e6bd
00000050: 555b 9fbd 6163 0e3d 19a7 193d 5b5d 3f3d
00000060: 921a 0b3d ace7 e7bd 6b89 083e 44a7 8fbb
00000070: 5fdb 453d f0e8 e33b 4770 9d3d 38bc 6abc
00000080: 7152 5cbd 581d cbbd d325 1c3d 9bdc 93bc
00000090: 5ad3 933d c041 8d3d f7e2 60bd a62a 17bd
000000a0: ba7f 863d 4598 f03d bc51 b53d 46f8 403e
000000b0: 280c 793c 3837 adbd 0e72 3a3d 6203 8f3b
000000c0: a0a2 5b3e 23b2 c8bd 4567 d1bb 08ca 72bd
000000d0: 53a8 2f3d 855d bf3d 75ba 1bbd 21a5 9f3d
000000e0: 6b1a 9d3c b967 023e b86d 52bc b6c2 22bc
000000f0: 910a 2f3e f4f1 223d 47b5 993b 7f80 433c
