model_checkpoint/hemanth/model_best_SlidingWindowWaveNet_mse_supination.pth (torch, 425141 bytes, 25 tensors)

input_conv.weight f4 [64, 6, 1]
000000 35 9d aa 3e e8 75 75 3e 6f 56 e2 3d d4 b8 5f 3e
       0.33323064 0.23970759 0.11051642 0.2184785
000010 be 45 51 be 85 de 96 be a0 b7 a1 3e 36 12 25 be
       -0.20436761 -0.29466644 0.31585407 -0.16120228
000020 04 d6 06 3e dd 41 79 be 7a 0a 4e 3e 1f 32 17 be
       0.13167578 -0.24341531 0.20121184 -0.14765213
000030 bb 3f dc bd 80 cd 52 3e 47 c4 c4 3e 1a 30 3a be
       -0.10754343 0.20586205 0.38430998 -0.18182412
000040 53 ef 4a be aa 82 e0 3d a5 cb 2b be d0 7f 84 3e
       -0.19817857 0.10962422 -0.16776903 0.25878763
000050 02 4b aa be 0d d9 11 be 42 3d 5c 3b fe 27 2a 3e
       -0.3326035 -0.14242955 0.0033605848 0.16616818
000060 0c cf 76 be fa ab 1d be b9 0a 5d 3e 74 3c 57 be
       -0.2410242 -0.15397635 0.21586122 -0.21019155
000070 30 04 7d bd b1 4d bd bd f2 02 cf bd fc e0 9d 3e
       -0.06177157 -0.09243334 -0.10107984 0.30835712
000080 1a ed 12 bd bf 39 85 3e be 9c ad 3e d7 73 bc 3d
       -0.03587065 0.2602062 0.33908647 0.09201782
000090 7f 8b 64 be 53 1f a9 be 79 c9 9c 3e 15 77 a1 3e
       -0.22318839 -0.3303171 0.3062246 0.31536165
0000a0 4c 38 a5 be 85 c0 ce bd 92 14 0c bd f9 c7 27 be
       -0.32269514 -0.10095314 -0.034199305 -0.16384877
0000b0 a5 7d cc 3e d2 b9 1d be 86 f2 09 be 3c 6f bd be
       0.3993961 -0.15402916 -0.13471422 -0.36998928
0000c0 45 6d 4d be bf 36 4a bc 3b 12 d6 3d 35 69 8d be
       -0.20061214 -0.012342154 0.10452696 -0.2761933
0000d0 2a 5a d1 3e 21 94 c1 3e 7a 1f aa be bd ff 9a 3d
       0.40889102 0.37808326 -0.3322714 0.075683095
0000e0 4d 6a 4e 3e c3 c5 b6 be 39 0a c0 3e ee 4d d1 3e
       0.20157738 -0.35697755 0.375078 0.40879768
0000f0 bd 25 1c 3e e6 b8 82 be b8 f9 1f 3e 32 cb 77 3d
       0.15248771 -0.2553169 0.15622604 0.060496517
000100 d6 c2 36 3d b5 83 84 3e 5a 63 5d be 74 f4 eb 3d
       0.044619404 0.25881734 -0.21619931 0.11521235
000110 1e 6a 6e 3e 16 de f4 3d b2 8f 11 3d 46 47 46 3d
       0.23282668 0.11956422 0.03553743 0.048407815
000120 86 82 b3 be be 6b 1d be 53 a7 4e 3e c0 54 b3 3d
       -0.3506052 -0.15373132 0.20181017 0.08756399
000130 f7 7f 22 be 72 eb 83 be 91 aa 3b 3e ed 0d 3d 3e
       -0.15869127 -0.25765568 0.18326785 0.18462344
000140 d5 4d a2 3e e5 dd 73 3e 73 dc 81 3e 6d 81 98 be
       0.31700006 0.23815115 0.25363502 -0.29786244
000150 4f 1d a9 be b7 6f a8 3e c2 1b da 3d f0 15 52 be
       -0.33030173 0.32897732 0.10649826 -0.20516181
000160 3b fe d4 bd 1f 88 b9 3e 9a f5 6b be db 7a d5 be
       -0.10400053 0.36236665 -0.23042908 -0.41695294
000170 77 6a c2 3e 65 cb b3 3e 4a f1 fb 3d f6 db d2 3d
       0.3797185 0.35116115 0.123018816 0.102958605
000180 c7 54 c5 be 34 51 56 be e3 f8 fb 3d c9 bf bf 3e
       -0.38541242 -0.20929414 0.12303331 0.37451008
000190 de a3 9c 3d 85 12 45 3e 56 d2 97 be 18 97 18 be
       0.07648443 0.19245346 -0.2965266 -0.14901388
0001a0 27 22 4e 3d c5 ad 2a 3d ca fc fa bd 84 fe 57 3e
       0.05032554 0.041669626 -0.12255247 0.21093184
0001b0 61 b1 fb bd dd 93 56 bd b0 f0 cb be 3f 9e cb bd
       -0.12289692 -0.052387107 -0.39832067 -0.099422924
0001c0 1f 2b 71 be 22 3c 97 3e 4a 4d 43 3e 6d d4 90 be
       -0.23551606 0.29538065 0.19072452 -0.28287068
0001d0 40 01 95 3d 92 63 60 3d bc 35 c7 3d 7c 0b c6 3e
       0.07275629 0.054782458 0.09727046 0.38680637
0001e0 3b 45 bf be 44 09 45 3e 9d c0 8e bd 04 13 16 be
       -0.37357506 0.19241816 -0.06970332 -0.14655691
0001f0 07 8c b7 bc 7a a7 b3 bc 65 0b a2 3e 18 90 27 be
       -0.022405637 -0.021930445 0.31649318 -0.16363561
000200 0f b0 d2 3c ab 16 8e be bf c0 94 3e 60 60 d4 3d
       0.025718717 -0.2775167 0.29053304 0.103699446
000210 92 3e 35 be c7 a8 c6 be b1 6a c9 bd cf 2f 25 3e
       -0.1769965 -0.38800642 -0.09834803 0.16131519
000220 a6 2b 8e be 8f 5d b2 be 7a 55 fc bc b7 a6 58 3e
       -0.27767676 -0.34837005 -0.030802477 0.21157347
000230 aa 4a bd bc 38 e8 08 3e 95 04 4c 3e db e3 f4 3c
       -0.023106892 0.13369834 0.19923623 0.029893806
000240 7e 75 6a 3d 3f 9a ea bc be 5c 56 3e 4d 7a ad be
       0.057240956 -0.028638003 0.20933816 -0.3388237
000250 d8 45 98 3e 38 df 59 3e fc 14 70 be b7 c3 21 bd
       0.29740787 0.21276557 -0.23445505 -0.03949329
000260 1f 8f 02 be 02 37 98 be 64 b8 8f 3e 11 b7 08 3e
       -0.12749909 -0.29729468 0.28070366 0.13351084
000270 21 86 15 3e 68 11 64 be 5f 46 9a be 52 76 50 3d
       0.14601947 -0.22272265 -0.30131814 0.05089409
000280 7d 93 8a 3e da 19 e8 bd 1a 91 c3 be 77 a1 12 be
       0.2706565 -0.11333056 -0.3819664 -0.14319406
000290 b6 d8 d3 3d 3d b0 ed 3c 78 e0 15 3d c2 4d a6 be
       0.10344069 0.029014701 0.036591023 -0.324812
0002a0 a6 4b a9 bd 8d 3a 97 be 57 f0 9f be d7 9c 18 be
       -0.08266382 -0.29536858 -0.31238052 -0.1490358
0002b0 3f 15 03 bd 96 ce 95 be 81 49 c8 bd a5 22 8a be
       -0.032002684 -0.29259175 -0.09779645 -0.26979557
0002c0 40 18 4f bd 65 12 7c bd b1 08 6b be 5e 0b c8 3e
       -0.050560236 -0.06154098 -0.22952534 0.39071172
0002d0 db 45 b2 3e c3 b7 9a bd 18 d5 7b be 2e 64 8b 3a
       0.3481892 -0.07554581 -0.24593008 0.0010634714
0002e0 6b 77 bb be 68 47 2d 3e 89 b9 b4 be d0 06 d9 3d
       -0.36614546 0.1692177 -0.35297802 0.105970025
0002f0 25 6e de bd 73 f8 60 be ff 96 49 3e c1 77 84 bd
       -0.10860852 -0.21969776 0.19686507 -0.06468154
000300 53 2b 9f be a4 79 89 3e b7 d8 d1 3e 38 aa 43 be
       -0.3108774 0.26850617 0.40985653 -0.19107902
000310 82 1a 2f be 38 3c f4 3d 61 f4 70 3d 7e 90 c0 3e
       -0.17099956 0.11925548 0.058826808 0.3761024
000320 09 c2 5f be a7 50 2e 3e d1 27 40 bd c6 89 4d 3e
       -0.21851362 0.17022954 -0.046912972 0.20072088
000330 f6 f0 89 be b9 f5 0f 3e 11 e1 78 be 6f 88 86 be
       -0.2694165 0.1405858 -0.24304606 -0.26275966
000340 83 a1 b9 3e e4 6f a6 3e 48 b4 df bd 68 76 b7 be
       0.36256036 0.3250724 -0.10923058 -0.35832524
000350 b4 3b 26 3e 89 58 41 be 45 0d cc 3d ce 0d a6 3d
       0.16233712 -0.1888143 0.099634685 0.08108102
000360 7e 23 46 bc 1f 39 fb bd 51 4b ae 3e 7d 4b 90 be
       -0.012093423 -0.12266754 0.34041837 -0.28182593
000370 e1 ba 09 3e 47 76 9e bd f3 45 ab be e3 3d bc 3d
       0.13450195 -0.07737403 -0.33451805 0.091914915
000380 07 94 83 3d fc bc f8 3d 74 3c 67 be 7b e3 9c 3e
       0.06424718 0.12145421 -0.22581655 0.30642304
000390 16 9a 77 be f5 89 46 3d 84 3f 56 be a6 9a 4b 3e
       -0.24179873 0.04847141 -0.20922667 0.19883212
0003a0 51 8b e7 bc 70 e5 f6 bd cc 13 cf 3d 76 29 72 be
       -0.028264673 -0.120554805 0.10111198 -0.23648629
0003b0 48 00 65 3d b0 70 6e 3d 7e 57 cb 3e f2 66 b3 3d
       0.05590847 0.058212936 0.3971519 0.0875987
0003c0 8c 32 1f be a6 0f 5c 3e 14 e9 d4 be 3c 39 4e 3e
       -0.15546626 0.21490344 -0.41584074 0.2013902
0003d0 ac 06 ba be c3 2c 8b bd 50 9e 97 3d 56 62 0e be
       -0.36333215 -0.06795647 0.074032426 -0.139047
0003e0 7a dd 66 3e 19 36 bc 3e ea 5b dc bd 45 68 ca be
       0.22545424 0.36760023 -0.10759719 -0.39532676
0003f0 79 67 83 3e 23 70 d5 be 53 06 af be a5 57 7e 3e
       0.2566488 -0.41687116 -0.34184512 0.24838121

input_conv.bias f4 [64]
000000 23 c7 2c 3e 6b 2c 6a 3e 1f 22 ba be cb 01 8b 3e
       0.1687284 0.22868507 -0.36354157 0.27149805
000010 fb ae c4 be 4a 36 04 be d3 83 c6 be c4 c6 80 bc
       -0.3841475 -0.12911335 -0.3877245 -0.015719779
000020 eb 00 7d be e8 32 53 3d 92 c5 bb be b3 90 9d 3e
       -0.24707381 0.05156222 -0.36674172 0.3077446
000030 5a d0 b7 be d1 05 84 3e 41 94 ee bd 02 b9 ef bd
       -0.35901147 0.25785688 -0.11649371 -0.11705209
000040 d5 c8 8b 3e a2 88 cf 3e 60 9e 03 be 38 f0 a1 3d
       0.2730166 0.4053393 -0.12853384 0.07907146
000050 1d cd 1d 3e 56 b6 31 be a5 21 83 be 2f a8 35 bc
       0.15410276 -0.17354712 -0.25611606 -0.011087461
000060 b6 db c9 be 76 cb 61 3e 1a 8c 00 3e 6f d5 72 be
       -0.3942544 0.2205027 0.12553445 -0.23714231
000070 87 54 95 bd c3 b3 42 bc 72 51 10 be d9 f9 c8 3d
       -0.07291513 -0.011883679 -0.14093569 0.0981328
000080 cb ff 10 3d 4b 2b 03 3e d0 60 9a 3e 15 3a fd 3d
       0.035400193 0.12809484 0.30151987 0.12364594
000090 ea 60 c9 3e 17 fb 8b 3e e8 6d 94 3d ff f3 b4 bc
       0.39331752 0.27340004 0.072475255 -0.022089003
0000a0 91 0a 62 3e 94 cc a2 be dd 44 9e be ed 29 8f 3e
       0.22074343 -0.31796706 -0.30911914 0.27961674
0000b0 b9 0d 9a 3e fb 5d 89 bd 1b da 77 3e da ed c4 be
       0.30088595 -0.067073785 0.24204294 -0.38462716
0000c0 52 bc a0 3e 91 cf 81 3e ea 23 0b 3e 2c 45 85 3e
       0.31393677 0.25353673 0.13587919 0.26029336
0000d0 7b 04 08 be 3f c4 26 be e9 7e 87 3d e5 46 65 bd
       -0.13282959 -0.162858 0.06616003 -0.055975813
0000e0 2f a1 91 3e 0b 72 90 3e 9d e2 27 3e 7e 19 87 be
       0.28443286 0.28212008 0.1639504 -0.26386636
0000f0 dd 20 ec 3d b6 a7 3a 3e 14 e4 66 be 66 6a 8f be
       0.11529706 0.18228039 -0.22547942 -0.28010863

blocks.0.causal_conv.weight f4 [64, 64, 2]
000000 15 0a 3e bd ff 4f ff 3c 2c d4 d4 3c e1 e6 0b bd
       -0.046396334 0.031166075 0.025980078 -0.03415573
000010 8a 33 f3 3c 71 ac 79 bc eb 91 b8 bc 79 9d a7 3d
       0.029687662 -0.015238867 -0.022530517 0.081843324
000020 ca 30 d7 3b 52 65 14 bd 3d 8b d7 3c c3 28 86 bd
       0.0065670954 -0.03622944 0.026311511 -0.065507434
000030 1a 36 d9 bc 42 f2 3f 3d 1b 8e c6 bc d8 d6 a6 bd
       -0.026515055 0.046861894 -0.024237683 -0.08146447
000040 5f a0 f9 3c df 9d 85 bd 28 d7 71 bd d6 c2 8e 3d
       0.030471979 -0.06524252 -0.05904308 0.06970756
000050 e9 42 87 3d cd ed 18 bd 2f 6d 48 bc 7c c3 98 bd
       0.06604559 -0.03733616 -0.012233063 -0.07459161
000060 9c 02 39 3d 68 22 a0 3a 35 8d 93 3c fe d5 94 bd
       0.045168504 0.0012217285 0.018011669 -0.07267378
000070 8d 95 d3 bb cd d1 e5 bc db c0 96 bc dc c4 98 bb
       -0.006457037 -0.028054142 -0.018402508 -0.0046621393
000080 20 1d 4a bc 2b a0 94 3c 0d 0b 63 bb 2d c3 c8 bc
       -0.0123360455 0.01814278 -0.0034644038 -0.02450713
000090 89 f7 8c bc f0 1a 48 bd fb 64 31 3d d7 d9 f8 bb
       -0.017207878 -0.048853815 0.043309193 -0.007594328
0000a0 cd be ff 3c ff 9f 60 3d c0 75 23 bd eb 3d 9c bd
       0.03121891 0.054840084 -0.039907217 -0.076289974
0000b0 00 6f 56 bd 64 bd 29 3d de 02 77 bd 43 cd 1a 3d
       -0.05235195 0.041440383 -0.06030547 0.03779341
0000c0 3d db e0 3c 04 b7 92 3c 06 fe 0e 3d e7 17 f8 3b
       0.027448291 0.017909534 0.034910224 0.0075712088
0000d0 eb 67 80 bd 78 8c 40 3d 6b 91 86 3c d5 09 ba bd
       -0.06269821 0.04700896 0.016426763 -0.090839066
0000e0 bd f9 88 bd 6b 11 43 bc 26 9e 75 3d 33 22 56 bd
       -0.06688259 -0.011906008 0.059965275 -0.05227871
0000f0 d7 90 41 3d e3 94 17 3c 95 0e 0a 3d 7b 86 3d bd
       0.04725727 0.009251806 0.033705313 -0.04627083
000100 05 34 e6 bc fc e1 8a bd b7 ce 95 3d 7f 40 a3 bc
       -0.028100977 -0.06781384 0.07314818 -0.019928215
000110 9b 29 61 3d de 2b 8b bd 38 60 a6 3c 46 29 db 3c
       0.05497132 -0.067954764 0.020309553 0.02675308
000120 9c 51 b4 3c ac 4a de 3c f0 28 b6 bd 07 fe dd 3c
       0.02201157 0.027135216 -0.08894527 0.027098669
000130 04 df 1e 3d 57 69 8d 3d 12 d2 ab bd cc ec 6e 3d
       0.038786903 0.069048576 -0.08389677 0.058331296
000140 f7 6f bd bd 8b 4f 0f bd 6d 25 db 3c 3c 19 9d bb
       -0.09249871 -0.034987967 0.026751244 -0.004794268
000150 6c 8d 46 3d 40 c6 9d bd cf 1e 99 3d 99 42 82 3d
       0.048474714 -0.07703829 0.074765794 0.06360359
000160 4b 78 15 3d ce 54 81 3c 61 16 7a bd 35 f6 01 3d
       0.036491673 0.015787508 -0.0610565 0.031728942
000170 da b5 73 3d 86 a8 12 bd 74 f5 34 bd 8c d3 81 3c
       0.0594996 -0.035805248 -0.044179395 0.015847944
000180 bc db 86 bd 23 85 29 bd 5d 36 77 3d 59 e2 3f 3a
       -0.0658488 -0.041386735 0.06035458 0.00073198
000190 cb 08 9e 3d c8 fa d9 3c 9f 1e b5 3d b2 20 04 3d
       0.07716521 0.02660884 0.08843731 0.032257743
0001a0 6b e7 7d 3c 1e 6d 90 3d cb 20 a4 bd 7d 60 12 bd
       0.015497069 0.070520625 -0.08014067 -0.03573655
0001b0 45 d0 68 3d 3a 67 1d bd 02 be 68 3c dd 1b 00 bd
       0.056839246 -0.038428523 0.014205458 -0.031276572
0001c0 bc 1e 29 bd d0 af 74 3d 5b 25 9a bd 35 d7 67 3d
       -0.041289076 0.05973798 -0.07526656 0.05660172
0001d0 a5 55 ad 3d 5e e3 0a 3c 34 21 91 3c b8 d8 31 bd
       0.08463601 0.00847706 0.017716028 -0.04341957
0001e0 b7 d1 d9 bc e9 a5 9a bd a4 21 be bc c1 67 12 3d
       -0.026589258 -0.07551176 -0.0232094 0.03574348
0001f0 2a 18 a0 bd 2f e4 55 3c 8a 1e ff 3b 8e 2b 6d 3d
       -0.07817109 0.0130548915 0.007785623 0.057902865
000200 af a1 10 3d f8 9c d1 3c 25 ea 0e 3d e5 54 67 3c
       0.035310443 0.025587544 0.034891266 0.0141193615
000210 9e 18 47 3c 6a 6a 41 bd 7f 74 48 bc c1 d6 cd 3c
       0.012151865 -0.047220625 -0.012234806 0.025126817
000220 39 77 bf bc 61 2d 8d bd e8 14 3c 3d a4 e5 f4 3a
       -0.02337228 -0.06893421 0.045918375 0.0018684161
000230 23 08 a6 3d ae 5a 2a 3d 1d 5e b9 3d 3c 51 69 3b
       0.08107021 0.041590385 0.09051154 0.0035601398
000240 32 07 16 bd fa 6c 89 3d c6 1e 4b bd 6d 7a a4 bd
       -0.036627956 0.06710239 -0.049589895 -0.08031163
000250 b7 4f 12 3d ce 25 ae 3d c0 66 e1 bd cc f2 7a 3d
       0.035720553 0.085033044 -0.11005926 0.061266705
000260 82 30 76 3d c2 94 bf 3b 4f 8a cd 3c a8 46 ab 3c
       0.060104854 0.0058465907 0.025090365 0.020907715
000270 79 12 39 bd f0 61 0c 3d b8 ea 2b 3c 7d cf 64 bd
       -0.045183633 0.034273088 0.010492973 -0.05586194
000280 10 0f be bd 99 e3 66 3d 9f 46 f3 bd 85 ce 48 bd
       -0.09280217 0.056369398 -0.11878704 -0.049025077
000290 b5 33 b6 3d be 12 ca 3b 74 6d 25 3d e1 d6 53 bd
       0.08896581 0.006166785 0.040387586 -0.051718596
0002a0 cb 98 3e 3d 7b ad a7 bc 13 16 b1 3d be bb 8a 3c
       0.046532433 -0.020468464 0.086467884 0.016935226
0002b0 58 b5 4c bd e0 11 65 3d ba 06 28 3d 1d ba 7d bd
       -0.04997763 0.05592525 0.04102204 -0.06194507
0002c0 ec 76 18 3d 18 cf c1 3d 56 71 09 bd ea d5 ab 3d
       0.037222788 0.09463328 -0.03355535 0.0839041
0002d0 01 24 5f 3d 63 41 17 bd a1 ed 68 3c 52 85 24 bb
       0.054477695 -0.036927592 0.014216811 -0.002510388
0002e0 ae f5 a8 3d 48 65 2d bb f8 6c 3f 3d ef d7 66 3c
       0.08249985 -0.0026458073 0.04673478 0.0140895685
0002f0 7e da 01 3d e1 ef c3 3c 82 73 50 bd 53 48 c6 3c
       0.03170251 0.023918094 -0.050891407 0.024204409
000300 96 fd 9a 3d 02 ce 8a 3d b7 5c 2e bd 56 61 b5 3c
       0.07567899 0.06777574 -0.04256889 0.02214114
000310 8c c5 71 3d f7 c9 5d bd c8 58 a1 bc f3 a3 9d bd
       0.059026286 -0.054147687 -0.019695655 -0.076972865
000320 77 dd 1b bd 66 1b 8e bd 26 a8 ad bd ae 6a a1 bc
       -0.038053002 -0.069388196 -0.084793374 -0.01970419
000330 a1 67 13 3d 04 69 76 bd cf 4b 78 bc 96 ee 8d 3d
       0.0359875 -0.060158744 -0.015154793 0.06930272
000340 cd 0e 1f bd d3 1e 0c bd 46 3c 01 bb c1 23 94 3d
       -0.038832474 -0.034209084 -0.0019719764 0.07233382
000350 99 7d 9f bd 34 a2 a5 3c bc df 25 3c db 3b 29 bd
       -0.07787628 0.020218946 0.010124143 -0.04131685
000360 1c 5e 22 3d 43 7f 2e bd 90 c2 28 bc ab ea 22 3d
       0.03964053 -0.042601835 -0.010300294 0.039774578
000370 49 66 bb 3c 20 3b a3 3d 5e ab e4 3c e0 73 d0 bc
       0.022875922 0.079702616 0.027913745 -0.025445879
000380 50 9e 55 bd c5 a4 47 bd d6 f9 89 bd e9 29 1c 3c
       -0.05215293 -0.04874112 -0.067371055 0.009531477
000390 67 77 4a bc 9c 4b 99 bc 17 16 8c bd 17 95 46 bc
       -0.012357569 -0.018712811 -0.06840151 -0.012120507
0003a0 b3 2b 8a bd d3 70 25 bd 41 17 7c 3d 1e 24 d8 bb
       -0.06746616 -0.0403908 0.061545614 -0.0065961024
0003b0 0a 67 30 bd 8b de 9b 3d 00 58 98 ba 91 1b 04 bd
       -0.043067016 0.07610806 -0.0011622906 -0.032252852
0003c0 37 76 35 bd 8c 87 ad bc 52 c9 d7 3b 7f 68 83 bc
       -0.04430219 -0.021182798 0.0065852785 -0.016041039
0003d0 ea 56 0e bd b4 5f 5d bd b1 ac a3 bd 53 56 54 bd
       -0.034750856 -0.054046348 -0.07991923 -0.051840138
0003e0 e1 e9 d9 bc 20 a3 cd 3d da 87 96 3d d0 13 9d bd
       -0.02660078 0.10040879 0.073501304 -0.076697946
0003f0 eb 97 8d 3d 48 11 94 3d 44 30 95 3d 7e a1 7b 3d
       0.06913742 0.07229859 0.072845966 0.061433308

blocks.0.causal_conv.bias f4 [64]
000000 4e ab 54 3c 03 b4 52 bd 35 7b 56 3d 8d a8 16 bd
       0.012980295 -0.051441204 0.052363593 -0.036781836
000010 97 c3 4f bd 7a 51 31 3d 57 53 a1 3d f7 47 92 bd
       -0.05072364 0.043290593 0.07877224 -0.071426325
000020 3c 62 07 3d 24 11 9d 3d bd 26 2e bd eb e6 83 3d
       0.033052668 0.07669285 -0.042517412 0.064405285
000030 c8 a4 1f 3b 5b 41 72 3d fc bb ac 3d ac 2d fa bc
       0.0024359692 0.05914436 0.08434293 -0.030539356
000040 fd dd b5 bd df 10 94 3d ca b9 e3 ba 91 4a 3a 3d
       -0.088802315 0.072297804 -0.0017374095 0.04548127
000050 fb 66 7a bd ce b6 80 3d 32 6a 9e 3d 2a 0d c0 bb
       -0.061133366 0.06284867 0.07735099 -0.0058609443
000060 ca 35 5a 3b ee 2d c4 3b d9 a1 dc 3d 0e 9e a2 3d
       0.003329622 0.0059869206 0.107730575 0.07940303
000070 f5 6d 26 3d b7 ef 18 3c 1f 87 98 3c 03 b6 d2 3b
       0.040632207 0.009334496 0.018619118 0.006430389
000080 b7 b8 e6 3c 49 34 ef bc 5e 69 86 bd 92 34 15 3d
       0.02816425 -0.029199736 -0.06563066 0.036427088
000090 41 ad 52 3b 5e 59 b6 3c 52 73 84 bd ae 96 23 bd
       0.0032146724 0.02225941 -0.06467308 -0.03993862
0000a0 50 ab bb bd 1e 91 c5 3c 8d 7b 6e bc cd 13 c6 3d
       -0.09163535 0.024117049 -0.014555824 0.096717454
0000b0 6b 4c 00 3e 5a 64 b7 3c b7 f9 77 bd 13 f7 4c bd
       0.12529151 0.022386719 -0.06054088 -0.050040316
0000c0 45 c5 b1 bd c7 72 96 bd b9 bd b5 3c fd 9d 8b bd
       -0.08680204 -0.07346111 0.022185193 -0.06817243
0000d0 68 55 a4 3b c4 c4 d3 bd b8 50 16 bd f7 fb 2c 3d
       0.005015064 -0.103402644 -0.036698073 0.04223248
0000e0 ab cd 7b bd b5 8e b4 bd 2d b1 57 bd eb 86 64 3c
       -0.061475437 -0.08816282 -0.052659202 0.013948183
0000f0 24 52 aa 3c f2 03 86 bd 75 8a a4 3d 1b 81 99 3d
       0.02079112 -0.06543721 0.08034221 0.07495328

blocks.0.residual_conv.weight f4 [64, 64, 1]
000000 4e 90 68 3d f9 44 cf 3d 6c 86 8e 3d ee 95 26 bd
       0.056778245 0.10120577 0.06959233 -0.040670328
000010 3a 57 6b 3b 99 26 77 bd a3 4a b9 bd b4 b3 a1 3c
       0.0035910145 -0.060339544 -0.09047439 0.01973901
000020 5b 76 e7 3d 86 69 d8 bd 8a 33 d4 bd b2 dc ec 3d
       0.113018714 -0.10567002 -0.10361393 0.11565532
000030 33 a9 85 3d 99 22 97 3d 3a c6 1e 3c ef d7 75 3c
       0.06526413 0.07379646 0.009690816 0.015005096
000040 ec b2 b0 3d 99 3e d8 bd bb e5 c7 3d 1f c8 5c 3d
       0.08627877 -0.105588146 0.097606145 0.053901788
000050 39 ba b3 3d 29 7d 8f bd 14 05 14 3b 19 63 e7 bd
       0.087757535 -0.07006294 0.0022586035 -0.11298198
000060 a2 19 d2 bd 43 47 ad 3d ef bf 90 3d 86 c3 87 3d
       -0.10258795 0.08460858 0.070678584 0.0662909
000070 13 35 5a bd 99 48 9f bb 27 90 da 3d 82 31 d0 bd
       -0.05327327 -0.0048609492 0.10672026 -0.10165693
000080 26 8d e4 bd d2 13 2d 3d 1a aa 00 be 22 36 9d 3d
       -0.111597344 0.04225523 -0.12564889 0.07676341
000090 c5 e3 0a be 36 5f 4c 3b 4b 84 56 bd 41 ef e5 bd
       -0.1356345 0.003118468 -0.05237226 -0.11227275
0000a0 6d e9 c8 bd 50 68 b8 3d 08 9f af 3d 20 de 18 bb
       -0.098101474 0.09004271 0.08575255 -0.0023325756
0000b0 3a 7d 36 3c 86 34 3b 3d 19 de 1c 3e d0 92 66 bd
       0.011138255 0.045704387 0.15319099 -0.056292355
0000c0 a2 23 94 bc 00 b5 1f 3d 08 7a c9 bc ab ff 0a bd
       -0.018083397 0.038990974 -0.024594322 -0.03393523
0000d0 05 ce da bc 9b 3f 03 3e d7 a1 a3 3d 66 ff 1e bd
       -0.026709566 0.12817232 0.07989853 -0.038817786
0000e0 be a9 82 3d f5 60 6c bd c4 30 d0 3b 62 0b 0d be
       0.06380032 -0.057709653 0.0063534696 -0.13773873
0000f0 f6 2b dd 3d 14 50 9e ba 78 dd d0 3c 5e ff d2 3a
       0.107994005 -0.0012078309 0.02549623 0.0016097834
000100 87 d3 98 bd c0 dd ca bc 7c b2 d0 bd e1 17 8e bd
       -0.07462221 -0.024763942 -0.10190293 -0.06938148
000110 18 bc 38 bd c2 f4 88 3b c2 6c 3a bd 81 a5 62 bb
       -0.045101255 0.004179568 -0.045513876 -0.0034583511
000120 86 48 bb bd 49 93 02 bd d8 f0 be 3d b4 62 d5 bd
       -0.09144692 -0.031878743 0.09323281 -0.10419217
000130 0e 31 c2 3b 1d 0f ca 3d 8d 57 d3 3c c3 3d ff 3c
       0.005926258 0.09866164 0.025798583 0.03115738
000140 4b 6c 10 bd ff 3f 26 3d 35 59 b9 bd 25 8b 75 bc
       -0.035259526 0.040588375 -0.09050218 -0.014986788
000150 0c 81 e3 3d fb dc ec 3d 65 92 0b be 1e c8 ca 3b
       0.11108598 0.11565586 -0.13630064 0.0061884066
000160 72 e4 16 bd 53 32 1d 3c ee 4d 02 be cb fd 0d bc
       -0.036838956 0.009594518 -0.1272504 -0.008666466
000170 6c dd 86 3d 72 3a cb bd fa 63 b4 bc 5b 6c a3 3d
       0.065852016 -0.09923257 -0.022020329 0.079796515
000180 0b d0 f1 3d 45 34 3d bd aa 06 27 3d 7d e9 58 3c
       0.11807259 -0.046192426 0.04077784 0.013239262
000190 42 c1 58 bd 31 84 fd 3c ea 14 0c 3d f5 14 e2 3c
       -0.05291868 0.030946823 0.034199633 0.027597884
0001a0 02 0e a4 3d 78 fe 58 3d 31 ef 64 bd bb cf b6 3c
       0.08010484 0.052977055 -0.055892173 0.02231585
0001b0 46 df ff 3c 3b 1c f2 3d 48 b8 02 ba ae 19 25 be
       0.031234395 0.11821791 -0.00049865665 -0.16123077
0001c0 a1 57 3b bd a4 dc 04 3d a0 5e 81 bd 28 15 bb bd
       -0.045737866 0.03243698 -0.063168764 -0.091348946
0001d0 af 22 46 3d 6d 30 ba 3d f9 49 a5 3c d4 d6 b2 bc
       0.04837292 0.09091268 0.020176874 -0.021830954
0001e0 6e 65 d6 3d 9f e2 bd bc ed e5 3f 3d 82 72 08 3e
       0.10468565 -0.02317935 0.046850134 0.13324931
0001f0 3f 56 9e bc 20 1b 35 3d 3f 17 65 bd a0 65 b9 3c
       -0.019328235 0.04421532 -0.055930372 0.022631466
000200 63 3a b4 bd 85 f3 15 bd a1 a8 98 3b 73 f7 85 3c
       -0.08800199 -0.03660919 0.004658774 0.016353345
000210 cc d7 b2 3d f7 fd 9e 3d 70 32 97 3d 8a e3 b5 3d
       0.08732566 0.07763284 0.07382667 0.0888129
000220 26 d3 d4 bd b5 c2 ed bd 73 5b 08 be db a9 0d 3d
       -0.10391836 -0.11609403 -0.13316135 0.034585815
000230 1e c7 f6 bd 74 cd 18 3e 59 87 2c bd 14 a9 7c 3d
       -0.12049697 0.14922124 -0.042121265 0.061684683
000240 ea 4b 3b bc 58 18 cb ba d8 41 b5 3d 8c 54 11 3e
       -0.011431674 -0.0015494926 0.08850449 0.14192408
000250 e9 e9 c0 bd 44 a1 ff bc e1 a1 0a 3e 74 25 a3 3d
       -0.09419615 -0.031204827 0.13538314 0.07966128
000260 08 bb e6 3d c4 eb c7 bd 23 bb 1f 3d 9d d6 d6 3d
       0.11266142 -0.097617656 0.038996827 0.10490153
000270 d2 a7 a7 bd a8 da a8 3c 68 be 04 3e 4b 61 0e bd
       -0.08186306 0.020612076 0.12963259 -0.034760755
000280 2e 5e 23 bd 62 8e fa bd e1 0f c3 3d 70 c0 91 bd
       -0.03988474 -0.122341886 0.09524513 -0.07116783
000290 da 63 3c 3d c5 9f 36 bd 25 57 b5 3d 71 2f ab bd
       0.045993663 -0.04458596 0.08854512 -0.08358658
0002a0 1f ac 8d bd 4d da c7 bd 79 3f 06 3d 01 51 5d bd
       -0.06917595 -0.097584344 0.032775376 -0.05403233
0002b0 4b 09 9e bc 6f 62 91 bd a4 2e 6a bd f6 1a 7d bc
       -0.01929154 -0.07098853 -0.057173386 -0.0154483225
0002c0 08 ef ac bd 1d 06 7b 3d af c0 f9 bd 38 0b 2a bd
       -0.08444029 0.061285127 -0.121949546 -0.041514605
0002d0 4f ad 21 bd b9 8f 1e bd 92 05 28 3d 2b 00 f7 3d
       -0.03947192 -0.038711283 0.041020937 0.12060579
0002e0 43 8c 98 3d 51 68 2e bd 3d 76 bf 3d ac 4a 82 bd
       0.07448628 -0.042579953 0.09348724 -0.06361899
0002f0 73 54 a0 3d 6f 43 1f bd 62 8a b3 bc 44 bc 45 bc
       0.078286074 -0.03888267 -0.021916572 -0.012068812
000300 fc 2d e5 bd f7 1a f6 3d ec 1b 23 3c a7 8e 91 bd
       -0.111904114 0.12016862 0.009955388 -0.07107287
000310 fd 93 cb bd eb 60 46 3d 26 42 c0 bc c7 bb d1 bd
       -0.09940336 0.048432272 -0.023469042 -0.10240894
000320 a7 7c d5 bc 62 2c 8b bc 28 e1 93 bd 2e 82 27 bd
       -0.026060415 -0.016988937 -0.072206795 -0.040895633
000330 d2 d0 f9 bd ed e6 1a 3e c6 64 a7 3d 13 93 88 3d
       -0.121980324 0.15127154 0.08173518 0.06668677
000340 80 ec 83 3c 05 bf d3 bd 09 00 ba 3d 3f 7c 09 3d
       0.016103983 -0.103391685 0.09082038 0.033565756
000350 75 28 e6 3d 30 43 bd bc 9b ec 9b 3d 3f ad 5b bd
       0.11238185 -0.023103327 0.07613488 -0.053632017
000360 b1 34 25 3d 9b 4a 2d ba 45 b4 c3 3d 10 b6 6c 3d
       0.040333454 -0.00066105434 0.09555868 0.057790816
000370 5e f7 b4 bb a6 74 0f 3e e0 dd c7 3d 69 86 72 3c
       -0.0055226525 0.14009342 0.09759116 0.014802554
000380 7e a3 4e bd 91 9a 9c bd fd 40 95 3d 39 57 d8 3c
       -0.050448887 -0.07646669 0.07287786 0.026408779
000390 4d 30 2e 3d b8 8e bd 3d ec 27 ef bd dd 54 16 3d
       0.042526532 0.09255737 -0.11677536 0.036702026
0003a0 dc d0 e6 bd 22 7d 62 3c 76 77 58 3d 71 ec bf 3d
       -0.112703055 0.013823779 0.0528483 0.093712695
0003b0 32 5b 85 bc 40 7d 76 bd e3 86 cd bb d5 71 05 3d
       -0.016278837 -0.06017804 -0.0062721833 0.03257926
0003c0 c5 73 4e bd 05 24 ab bd 58 d9 e3 3d c1 06 e7 3c
       -0.050403375 -0.083564796 0.111254394 0.028201463
0003d0 0f 12 22 3d 9e ec c7 bb 58 88 b2 bd 1e 9d 2c bc
       0.039568003 -0.006101205 -0.08717412 -0.0105355065
0003e0 d7 81 96 3b a5 2e b9 3d ac 25 c6 bd bb 6f d9 3d
       0.004593115 0.090421 -0.09675154 0.10617014
0003f0 dc 5d d7 3d 42 03 a6 bd e4 e9 26 bd a5 37 01 3d
       0.10515949 -0.0810609 -0.0407504 0.031547207

blocks.0.residual_conv.bias f4 [64]
000000 61 7b 84 bc 47 85 06 be 79 92 af bc c3 b9 80 3d
       -0.016172113 -0.13136779 -0.021432148 0.06285431
000010 6d 64 48 3c fd af ff bd 44 8b 73 bd 42 f9 46 bd
       0.012230975 -0.12484739 -0.059458986 -0.048577555
000020 94 b4 5d 3d ec 3e 4f 3d 03 d6 ae bd 78 4a ea bd
       0.05412729 0.050597116 -0.08536913 -0.11439985
000030 4c 25 95 bd 9b c7 85 bd 67 bf 14 bd a7 cf 2c bc
       -0.072825044 -0.06532212 -0.036315348 -0.010547555
000040 3f 29 ba 3c 69 5e 9d 3d 1c 3c 08 3e 07 4d 9b 3d
       0.022724746 0.07684023 0.1330418 0.07583051
000050 2d b6 94 bc ef a7 11 bc 01 13 82 3d 19 b6 14 be
       -0.018153274 -0.008890136 0.06351281 -0.1452259
000060 e6 96 ae ba 75 11 e8 3d 3d 53 0b 3d 08 a5 aa bd
       -0.0013320118 0.11331455 0.03401493 -0.083322585
000070 ad bf 6a 3d b1 20 f4 3d 8e 14 0b be 15 6c 4f 3d
       0.057311703 0.11920298 -0.1358206 0.050640184
000080 da 5a 11 3d 8e ba 01 be 83 69 93 bd 24 db 7b bd
       0.035487033 -0.12668821 -0.07197859 -0.061488286
000090 33 e8 e2 bc 5a 5b c4 3d fa 8f d5 3d 60 c0 d5 bd
       -0.027698612 0.095877364 0.10427852 -0.10437083
0000a0 4c 5d df 3d 2f 63 a1 3d f5 df 89 bd 87 0f 16 bd
       0.10906467 0.07880246 -0.067321695 -0.0366359
0000b0 b8 92 54 bb ac ce cc bc 41 c3 83 bd 05 1a 81 3c
       -0.0032436084 -0.025000893 -0.06433726 0.015759477
0000c0 ca 9b 34 3c 68 5e ae bb 4f e6 87 3c 6f ee 8e 3d
       0.011023471 -0.0053213127 0.016589312 0.06979071
0000d0 fd 14 bf 3c ec d5 94 3d 89 f5 cb bc d9 75 f5 bb
       0.023325438 0.07267365 -0.024897354 -0.007490855
0000e0 7d a0 29 3d b8 b5 e9 bc 28 8c fc bc c6 2f ce bc
       0.04141282 -0.028529033 -0.03082855 -0.025169265
0000f0 d5 73 93 bd 7b 8b d7 bc 13 c4 e1 bd ca 6d 93 3d
       -0.071998276 -0.026311627 -0.11023726 0.07198675

blocks.1.causal_conv.weight f4 [64, 64, 2]
000000 4e 3f 17 bd c0 5c 09 3d fb 68 d9 bc 43 ee 7f 3c
       -0.036925606 0.03353572 -0.026539316 0.015620771
000010 95 4a ec bc f1 fa 85 bc 5b d3 e2 bc 62 00 ae bd
       -0.028844157 -0.01635501 -0.027688673 -0.08496167
000020 e9 d6 12 3d 9f dc bb bd 83 ee 52 bb da 48 99 3d
       0.035849486 -0.091729395 -0.003218562 0.074845985
000030 00 84 b1 3c f4 f4 99 3d 6d 82 23 3d 12 29 0c 3d
       0.021669388 0.07517424 0.039919306 0.034218855
000040 53 53 b3 bd 7a 5e e6 bd 70 f2 e8 3c 60 3a 5c 3d
       -0.08756127 -0.11248489 0.028435916 0.05376661
000050 5c 6a c9 3d 00 b7 c1 3c bd bc 87 3d 3c 31 27 bd
       0.098347396 0.023646832 0.06627796 -0.040818438
000060 fc 6d 5d 3d dd 28 13 3d 24 03 01 3d 8d d5 c0 bc
       0.054059967 0.035927642 0.031497136 -0.023539329
000070 b0 d8 38 bd 1f e5 b9 bd b3 74 88 3d 0c 79 7d ba
       -0.045128524 -0.090769045 0.066628836 -0.00096692215
000080 90 07 34 bd 59 69 5e 3d f9 d6 f8 bc be 94 26 bd
       -0.043952525 0.054299686 -0.030375944 -0.040669195
000090 bf 82 4f bd 7c 30 82 bd 5c a4 e7 bc e6 ad 36 bd
       -0.0506618 -0.06356904 -0.028276615 -0.044599436
0000a0 e0 e9 eb bc 1f 8e 6b bc 43 2f da bd b1 6c 10 bd
       -0.028798044 -0.014377146 -0.10653546 -0.035259906
0000b0 f0 2d 99 bd e8 ed a4 3d 2e 41 c7 3d 7b 39 a6 3d
       -0.07479465 0.080531895 0.09729229 0.08116432
0000c0 62 5a 17 bd 19 ca 3c 3d 77 8c 37 bc 41 14 e4 bd
       -0.03695143 0.046091173 -0.011202923 -0.111366756
0000d0 d5 8e 52 bd ff ae c4 bd fc 4a 49 bd 36 e1 4e 3c
       -0.051405746 -0.0960369 -0.049143776 0.012626937
0000e0 93 13 b6 bb 5c c1 4b bd 9f 97 69 3d 02 48 7d bc
       -0.0055565326 -0.04974495 0.057029363 -0.0154590625
0000f0 5e e3 7e bd 1d ec a1 3c ba 1a 64 bd 9a 20 f6 bd
       -0.062228553 0.019765908 -0.05568955 -0.12017937
000100 de cc 20 bd 87 0c 95 3a 61 f5 8f 3d a7 4e a1 3d
       -0.039257877 0.0011371531 0.07029224 0.0787633
000110 6a 07 22 3d 38 a0 e6 bc 67 49 cc bb 47 0e fd bc
       0.03955785 -0.02815257 -0.006234336 -0.030890597
000120 cf db ce 3c fb 62 7d 3b 3e 18 e8 3d 53 a8 0d 3c
       0.025251297 0.0038663733 0.11332749 0.008646089
000130 e5 ab d0 3d 17 ce bd 3d 4a b9 75 3d 20 af 2e bc
       0.10189036 0.09267824 0.05999116 -0.01066187
000140 28 b4 47 3d ab 6e 50 3d 60 fd a0 3d d7 19 92 3d
       0.048755795 0.05088679 0.078608274 0.07133835
000150 e9 6b 9e 3d b3 6d ac 3d 3f 50 bd 3c e8 a4 39 bd
       0.07735426 0.08419361 0.023109553 -0.045323282
000160 42 9f e8 bd af c4 72 3c 19 57 c3 bd 33 f6 b4 bc
       -0.11358501 0.014817401 -0.09538097 -0.022090053
000170 a8 a7 55 3d 4e d4 d5 3d 5e e9 2f 3c 44 6a c1 3c
       0.052161843 0.104408845 0.010736791 0.023610242
000180 27 94 da bd f4 d4 bc 3c cd 95 6d 3d c9 95 89 3d
       -0.10672789 0.023050763 0.05800419 0.067180224
000190 b9 a7 6c 3d 87 5c 0e 3d 0f 16 49 3d e7 38 08 3b
       0.05777714 0.03475621 0.049093302 0.002078587
0001a0 75 b5 df bb 64 0c e5 3b 1a 40 9b 3c 7d 3c 55 3c
       -0.0068270513 0.0069900025 0.018951464 0.01301491
0001b0 73 2b a8 bd cb 02 11 bb fc f5 fe 3c 24 bd 9b bd
       -0.08211412 -0.002212691 0.031123154 -0.07604435
0001c0 4a 8f ee bb 6b 1c ae 3d e2 83 54 3d 79 19 e7 3d
       -0.007280265 0.08501514 0.051883586 0.112841554
0001d0 7c 86 f8 3c 38 34 09 bd 5e 79 87 3c 26 a3 29 bd
       0.030337565 -0.033497065 0.016537365 -0.041415356
0001e0 c3 f4 c9 3d ff ae 91 3c 10 5d 07 bd ae c9 e8 bd
       0.09861138 0.01778364 -0.033047736 -0.11366592
0001f0 d0 59 ea bd 76 e9 d5 3c fc c3 3b 3d 7b dc 93 3d
       -0.114429116 0.0261123 0.045841202 0.07219788
000200 4f 9a 5c 3d ba c0 0f bd ce 90 16 bd 9b 60 86 bd
       0.053858098 -0.035095908 -0.03675919 -0.06561395
000210 3b f3 5a 3d 9c e1 c1 bd 9a d1 ea 3c 15 fd 23 3d
       0.05345462 -0.0946686 0.028664399 0.04003628
000220 36 55 a6 3a 3b 1d 39 bd 31 1a 84 bd c6 a7 75 3d
       0.001269019 -0.045193892 -0.06450308 0.059974454
000230 7d e0 ac 3d ca 26 bd 3d f5 db b6 bd 35 2c b4 bd
       0.08441255 0.09235914 -0.08928672 -0.08797494
000240 ed 3d 4e 3d 45 43 54 bd 2a 6b f9 3b c8 1a 01 3c
       0.050352026 -0.051821966 0.007611652 0.00787992
000250 60 97 9a 3d 94 62 d5 3d a2 2f b7 3c eb ee 20 bb
       0.07548404 0.10419193 0.02236158 -0.0024556469
000260 46 7a ca bc 11 71 4e bd 05 4b 72 bd 53 bb 0e bd
       -0.024716508 -0.050400797 -0.059153575 -0.034846615
000270 ec 64 6a bd 44 e9 38 bd 0c a0 c5 3d fb a0 a3 3d
       -0.057225153 -0.045144334 0.09649667 0.07989689
000280 bb 84 ef 3c 9c c4 d0 3d 5a a2 a9 3d e7 00 95 3d
       0.029238096 0.1019375 0.08282919 0.07275563
000290 bc 2b a5 bd 4e cd 1a 3d 60 50 ef ba ac 39 18 bc
       -0.08064982 0.03779345 -0.0018258207 -0.009291094
0002a0 35 c7 d6 bd c8 98 55 3c 3c d4 6a bc ec da 9a bd
       -0.104872145 0.013036914 -0.014332827 -0.07561287
0002b0 85 39 c0 3d 12 a3 3d 3d 42 97 b9 3d f0 c6 c8 3c
       0.09385971 0.046298094 0.09062053 0.024508923
0002c0 2c 6c 24 bc ed f1 4a bd 18 01 07 bd 7b ce 73 bd
       -0.010035556 -0.049547125 -0.032960027 -0.059523087
0002d0 57 51 38 bd 00 f8 95 bd 83 20 38 bd a9 b0 83 3d
       -0.044999447 -0.07322693 -0.04495288 0.064301796
0002e0 82 0a 40 3c 97 d0 6b 3d e6 95 cf bc 46 d8 d2 bd
       0.011721255 0.057571974 -0.025340032 -0.10295157
0002f0 df 84 79 bd df 2a d9 bd 1c a0 fb 3c 32 80 41 bd
       -0.06091773 -0.1060388 0.030715995 -0.047241397
000300 4f 72 97 bc 2b e0 0e 3d 8f 90 ea bb 05 39 98 3c
       -0.018487124 0.034881752 -0.007158346 0.018581877
000310 f7 0a 07 3d 76 66 92 3c 25 5b d9 3c e0 84 01 3d
       0.03296944 0.017871123 0.026532719 0.03162086
000320 7a c7 4d bc 39 ad 50 bb d3 3d 59 bc 6a a7 bf 3d
       -0.012559766 -0.003184153 -0.013259369 0.093581036
000330 5f e1 77 3d bc 5d 32 3c 72 e5 83 3d 63 a1 cb bc
       0.060517665 0.010886606 0.064402476 -0.024857229
000340 69 4a a2 bc 05 9a 25 3d 17 c4 07 bb 8a c6 51 bd
       -0.019810872 0.040430088 -0.0020716244 -0.051214732
000350 f3 5d 3a bc 07 89 4b ba 0e 1b b3 bd 32 0f a5 bd
       -0.011374938 -0.0007764254 -0.08745395 -0.08059539
000360 8f 1f 8c bd bc 52 b8 bd 51 71 c4 3c c9 d7 0b 3d
       -0.06841957 -0.09000155 0.023979815 0.034141336
000370 85 3a ff bb b5 85 80 3d 91 b1 ae bb 00 6d af bc
       -0.0077889585 0.062755026 -0.005331226 -0.02141428
000380 d8 0d 48 3d 08 92 82 3c ba ec 43 bb b3 5c a2 3d
       0.048841327 0.015938774 -0.0029895739 0.07927837
000390 87 c2 4b 3c cf bd d7 3d fc 6d de bd 05 95 0d 3d
       0.012436516 0.1053425 -0.108608216 0.034565944
0003a0 8f 9f 2c bd ee ed 94 3b 44 62 d6 bd 5c 7c ae bd
       -0.042144354 0.004544965 -0.104679614 -0.085198134
0003b0 e8 aa b4 3b 4d b8 c0 bd 71 c5 1f 3d 1d 35 fd bc
       0.0055135377 -0.094101526 0.039006654 -0.030909115
0003c0 9c 2d 4a bd a5 c8 f3 3c 25 92 dd 3b f5 cd b3 3c
       -0.049359903 0.02975876 0.0067618066 0.021948794
0003d0 f1 9a b9 bd 99 74 00 bb 76 4a 42 bc 20 3a 9a 3d
       -0.09062756 -0.0019600748 -0.011858573 0.07530618
0003e0 44 3e 1f bc 2a a9 d9 3d b0 99 d2 bd ff 34 e3 bd
       -0.009719435 0.106279686 -0.1028322 -0.110940926
0003f0 5c 63 d5 bc 3a dd 21 bd 0e 14 79 bd 89 d1 70 3d
       -0.026048355 -0.03951762 -0.06081014 0.05879358

blocks.1.causal_conv.bias f4 [64]
000000 78 25 53 3d db 05 12 3d 92 ad 40 3d 5e 69 76 bd
       0.051549405 0.035650115 0.04704053 -0.06015908
000010 d0 4b 22 bd 6a b8 b1 3d 43 77 3e bc e5 dd 39 bc
       -0.03962308 0.08677752 -0.011625114 -0.011344408
000020 8f 90 d2 3d 25 5e 49 3d 19 d2 ed 3c d2 b5 41 bb
       0.102814786 0.04916205 0.029030846 -0.0029557836
000030 3f af 9b bd 60 62 50 bd 04 87 35 bc 62 3f ab 3d
       -0.07601785 -0.050875068 -0.0110795535 0.08361699
000040 19 c5 a1 3c c4 1d ac bd e8 2a b9 bc ce e4 75 bb
       0.019747304 -0.08404115 -0.022603467 -0.0037520411
000050 ce a1 ab 3c 4e 7e 8a bd 4a 51 ad bc 50 6e c1 bc
       0.020951178 -0.06762372 -0.021156926 -0.023612171
000060 c7 4f 81 3d 06 0c 77 bd 57 19 bb bd 37 81 7c bc
       0.063140444 -0.0603142 -0.091356926 -0.015411667
000070 44 82 b3 3d f4 e7 20 3d 7f 7b ad 3d 5a eb fe 3c
       0.087650806 0.039283708 0.08470821 0.031118084
000080 a2 6f 5b bd b1 10 63 bc b5 67 c3 bc 14 c8 5a 3d
       -0.05357326 -0.01385896 -0.023853162 0.053413466
000090 4c e8 5a 3d 55 7e 8e 3c d8 ad 3a bd 5a 4f 17 bd
       0.05344419 0.017394224 -0.045575947 -0.03694091
0000a0 88 72 1c bd 5a 4e e8 bc 32 29 64 3d 76 b5 21 3c
       -0.038195163 -0.028357673 0.05570335 0.009869924
0000b0 8a 62 a0 3d 69 26 72 bd e3 3a 83 bd 4c fc 7d 3d
       0.07831295 -0.059118662 -0.06407716 0.062008187
0000c0 28 4c 52 bd a0 89 73 b9 21 05 a4 3d 3a 9d 31 bd
       -0.05134216 -0.00023225555 0.08008791 -0.043362834
0000d0 38 c3 aa bd ee 8d 6f 3d 49 9c e0 bc 0e 93 8f 3d
       -0.08338016 0.058484964 -0.027418273 0.0701047
0000e0 41 fc c8 3d fc 0c e8 bc 59 d1 56 bd 38 62 8c bd
       0.098137386 -0.028326504 -0.052445743 -0.06854671
0000f0 cd fc 6c bd 59 0e 60 3c 34 0d 95 bd 62 12 4c 3c
       -0.057858277 0.013675296 -0.07277909 0.012455555

blocks.1.residual_conv.weight f4 [64, 64, 1]
000000 64 0f 1a 3d f4 f9 b3 3d e6 6b ef 3d c0 02 9e bd
       0.037612334 0.08787909 0.11690502 -0.07715368
000010 f7 5c e6 3d a5 69 bb 3d 01 42 87 3c 54 e5 82 ba
       0.112482004 0.091510095 0.016510965 -0.0009986558
000020 73 29 ab 3d 07 fb e3 bd 67 e9 d2 3d c3 9c e8 bc
       0.08357515 -0.11131864 0.10298424 -0.028395062
000030 df a7 82 bb d0 f1 fb bd 0e 75 66 3d ba 45 cf bc
       -0.003987297 -0.123019814 0.056263976 -0.025301803
000040 d7 7c e6 3d d1 38 42 3d f7 f6 fc bd bb f7 2c bd
       0.1125428 0.047417466 -0.12351792 -0.04222844
000050 fa 38 78 3d c5 8f 6a 3d d1 c8 d5 bd 85 d4 b1 bd
       0.060601212 0.057266016 -0.10438693 -0.08683113
000060 fa 26 f1 3c 15 2e ca 3d 76 4a 8b 3c d1 c6 67 3c
       0.02943753 0.09872071 0.01700328 0.014146523
000070 5e f8 c1 3d 8e 07 92 bd e6 37 02 3d ca 66 a8 3d
       0.094712004 -0.07130347 0.03179159 0.082227305
000080 bd 7a c9 bd 80 35 d4 3c ad 07 97 3d cc 83 f3 bc
       -0.098378636 0.025904417 0.07374511 -0.029725932
000090 06 6c 64 3d bb 78 14 bd 7f 9e 06 be 5c d8 ca 3c
       0.05576708 -0.03624795 -0.13146399 0.024761371
0000a0 77 4d e8 3d 4c 0e c0 bb 79 47 bf 3d 27 ba 63 bd
       0.113429 -0.0058610793 0.09339804 -0.05559745
0000b0 55 18 90 bd b8 92 68 bd 6d 84 00 be 63 07 44 3d
       -0.07035891 -0.056780547 -0.12550516 0.047858607
0000c0 e6 db c0 3c c5 59 a3 bd ee 70 0c 3c 96 3d d0 bd
       0.023542356 -0.079761066 0.008571846 -0.101679966
0000d0 81 24 d2 3d c8 74 63 ba 2d db 69 3d 7b 94 a3 bd
       0.10260869 -0.00086767646 0.057093788 -0.07987305
0000e0 fc 6d bb bd 35 b0 cf 3d 73 bf 6d bd fe 60 20 bc
       -0.09151837 0.10141031 -0.05804391 -0.00978875
0000f0 41 91 b4 3d 23 82 96 3d 4b 93 63 3d 48 ed 4a bc
       0.088167675 0.0734904 0.05556039 -0.012385674
000100 ca 8d e7 3d 5f 5a 80 bd 60 4d 15 3d be 53 15 3e
       0.11306341 -0.06267237 0.036450744 0.14582726
000110 a1 48 e3 3c ac 73 86 bd 4d ec 10 3e 8d b6 91 3d
       0.027744593 -0.065650314 0.14152642 0.07114897
000120 e4 6c 45 bd ba 28 89 bd 7f 53 c1 bd 71 61 b0 3d
       -0.04819955 -0.06697221 -0.09439754 0.086123355
000130 37 a1 45 3c 1c d5 64 bd 67 28 85 3c 32 30 24 bd
       0.012062362 -0.0558673 0.016254617 -0.040085025
000140 95 cd ed bc 58 d9 f2 bd bb 68 91 bd db bf a4 3c
       -0.029028693 -0.11857861 -0.07100054 0.020111015
000150 1e ce 5f bc fa 91 30 3d 9c c7 89 3c f6 c4 d5 bd
       -0.013659982 0.043107964 0.016818814 -0.10437958
000160 45 ed 91 bd 75 85 ad 3d ba 77 23 be ad 84 b5 3d
       -0.07125334 0.084727205 -0.15963641 0.088631965
000170 71 cd b8 bd b6 13 1c be 05 d2 89 bc 78 41 fd bc
       -0.0902356 -0.15241894 -0.016823778 -0.030915007
000180 ec 2c 01 3e db 19 49 bd 2b 43 59 3d 92 ca 45 bd
       0.12614793 -0.049096923 0.053042572 -0.04828889
000190 7e 30 c4 bd db 9d fa 3d 68 12 bf bd 7b 12 03 be
       -0.09579562 0.1223714 -0.093296826 -0.12800018
0001a0 e3 60 c3 bd 8f 08 b2 3c 31 2c 0f bd 42 35 47 bb
       -0.09539964 0.021732597 -0.034954254 -0.0030396734
0001b0 25 d6 b7 bd 77 9d 9d 3d ac dd 94 bd 59 79 6b bd
       -0.08976392 0.0769605 -0.07268843 -0.057488773
0001c0 37 75 e3 3d 55 98 8c bc 3d 35 84 3c 9a 22 b6 3d
       0.11106341 -0.017162481 0.016138667 0.088933185
0001d0 8c 62 a3 bd b9 33 45 bd 4f 54 d2 3d f2 8e 09 3e
       -0.07977781 -0.04814503 0.10269987 0.13433436
0001e0 1e dd 3f bd 87 07 85 3d 64 f9 e0 3c 7d 2f 68 3d
       -0.046841733 0.06495576 0.027462669 0.056685913
0001f0 61 cd b4 bd 93 d3 a8 bd b9 fc 1d 3e b0 2e 77 bb
       -0.088282354 -0.082434796 0.15428437 -0.0037717037
000200 76 59 77 bc f7 3a 9a bd 4d ff d4 bd a6 1d 24 3d
       -0.015097013 -0.07530778 -0.10400257 0.040067337
000210 ed 9c 37 3d 46 62 80 3d bd 09 b0 bb f9 2c 17 bd
       0.04482739 0.06268744 -0.0053722546 -0.036908124
000220 33 7b d7 3d 82 97 19 3d 2f 0a 02 3e 97 cb cb 3d
       0.10521545 0.037498005 0.12699197 0.09950941
000230 dd 29 15 be 75 86 63 bd 12 68 1a 3e e1 c3 b4 bd
       -0.14566751 -0.05554815 0.15078762 -0.088264234
000240 b5 65 af 3d 0c 3a db bc 6b 4e 49 bd 6a 4c 54 bd
       0.08564321 -0.026761077 -0.04914705 -0.051830687
000250 04 0d 0a 3d de ef e2 3d 34 1c d9 3b 22 04 3b 3d
       0.03370382 0.11080907 0.0066256765 0.04565824
000260 b4 c0 44 bd 17 00 33 3c 13 de e0 bd 82 93 8b bd
       -0.04803534 0.010925314 -0.10979857 -0.06815244
000270 4d 15 c7 bc 3f 5c 42 bc 51 24 48 bd a7 f6 a0 bd
       -0.02430215 -0.0118628135 -0.04886276 -0.07859545
000280 c6 7c 67 3d 19 55 ff 3d 26 33 02 be 65 8f 94 bd
       0.056515478 0.12467403 -0.12714824 -0.07253913
000290 b2 9f b7 bd c9 42 19 3e 1f e4 2b 3c e6 ff a6 3c
       -0.08966006 0.14966883 0.0104914 0.020385694
0002a0 17 f7 db 3c be 1e 5c bd 00 1a 97 bc 94 91 d9 bd
       0.02685122 -0.053740256 -0.018445015 -0.1062347
0002b0 3c 22 db bd 7e 07 8f 3b db da e5 3d b2 28 d5 3d
       -0.10699889 0.004364907 0.11223384 0.10408153
0002c0 0b c9 94 3d 60 c8 eb bd 7c b7 29 3d af 7d 45 3d
       0.072649084 -0.11512828 0.04143475 0.048215564
0002d0 3c 5e ff 3d 14 2b 03 3c 02 97 5c 3b 28 8c b7 3d
       0.12469146 0.008005876 0.0033659344 0.089622796
0002e0 91 da 55 bd e7 2c 5a 3d 50 f9 92 bd c8 5a ab 3d
       -0.052210394 0.05326548 -0.07176459 0.083669245
0002f0 1f e1 0d 3d 13 2d e1 3d ff e8 56 3c 94 44 e2 3d
       0.03463852 0.10994925 0.013117074 0.110482365
000300 8d cf 0f bc e6 33 58 bd 7b 86 93 3d f7 fc f4 bd
       -0.008777511 -0.05278387 0.072033845 -0.11962312
000310 4a 50 d4 bd a4 3e 82 3d 2f 36 95 bd 31 50 99 3d
       -0.103668764 0.06359604 -0.07285725 0.074859984
000320 73 35 08 3e 0d f2 bc bc 04 5e 77 bc 46 c9 43 bd
       0.1330164 -0.023064638 -0.015098099 -0.04779937
000330 73 4c f2 bd 91 5d 0f 3e 2e 2d 30 38 7e 28 a1 3b
       -0.11830988 0.14000537 4.2003747e-05 0.004918157
000340 cf 26 06 3d 5f 05 e4 bc cf e1 a9 bd 9a b7 7d bd
       0.032751855 -0.027834592 -0.08295023 -0.061942674
000350 94 3a 38 3d 2e a1 bb 3d 55 01 17 3e 2b 52 1b 3e
       0.04497774 0.09161602 0.14746602 0.15168063
000360 9b a4 33 3d a1 65 b4 bd ee 9b 8d bd 59 59 3a 3d
       0.043858152 -0.08808447 -0.06914507 0.045495365
000370 f6 56 91 bc 07 b9 bc 3b 25 ae f0 3c 0b 92 ba 3d
       -0.017741662 0.0057593617 0.029379914 0.09109887
000380 ec ac 17 3b f6 1c d6 3d 7d e3 38 bd 0b a0 55 bd
       0.002314384 0.104547426 -0.045138825 -0.052154582
000390 b5 43 53 bd 64 ac 2a bd 29 f8 f1 bd a2 9e c5 bc
       -0.051578242 -0.04166831 -0.11814911 -0.024123494
0003a0 8d 50 8e 3d 12 0f d3 bd 99 58 bc 3d e8 8c 74 bd
       0.069489576 -0.10305609 0.09196586 -0.05970469
0003b0 eb 27 4c 3d e2 b4 97 3d e3 b7 52 bc f4 d4 01 3e
       0.049842756 0.074075475 -0.012861225 0.12678891
0003c0 cd bf b1 3d dd 01 ac bd cf 34 c3 bb 3a ff 3d 3d
       0.08679161 -0.08398793 -0.005957223 0.04638598
0003d0 d9 81 0b 3e 93 52 ef 3d e6 c8 8a bd ec e2 10 3d
       0.13623752 0.11685672 -0.067765996 0.03537266
0003e0 83 11 b9 3d 86 1f 8d bd 69 0d 23 bc c0 64 4b 3c
       0.09036543 -0.06890778 -0.009951928 0.012414157
0003f0 cb 2d c5 bd 4b 9f a0 3d 4e c4 0a bd cf 1a da bd
       -0.09627875 0.07842883 -0.033878617 -0.106496446

blocks.1.residual_conv.bias f4 [64]
000000 75 60 38 3d 81 28 b9 3c 89 76 b5 3d c1 79 af 3c
       0.045013864 0.022602322 0.088604994 0.021420361
000010 39 5b a6 3d 0e 4e cc 3d 1e 46 6f bd f4 c7 92 bd
       0.08122868 0.09975825 -0.05841648 -0.07167044
000020 9d 9c fe 3c 6a 58 d0 3d db dc d1 bc be 89 d7 bd
       0.031080538 0.10173114 -0.025618007 -0.10524319
000030 30 1a 27 3d 05 f6 80 bd 26 fb ce bd f0 14 0f bd
       0.04079646 -0.062969245 -0.101064965 -0.034932077
000040 f6 b4 df bd 8d 0f e7 bc ec f6 84 3d ef 03 a5 bd
       -0.109231874 -0.028205657 0.06492409 -0.08057391
000050 3d 57 5d bd 9a 68 bd bc da 6d 92 3d ab b3 02 be
       -0.054038275 -0.023121167 0.07149859 -0.1276385
000060 52 59 b4 3d b8 2a 5a bd d8 e8 38 bd 9b 41 4a 3c
       0.08806099 -0.053263396 -0.045143932 0.012344743
000070 67 9c 06 ba ce 82 22 3d d4 54 dd bc 1a 33 99 bd
       -0.0005135 0.039675526 -0.027017988 -0.0748045
000080 f6 79 a6 bd 1d 1d bf 3d c9 a8 bb 3d 39 11 55 3d
       -0.08128731 0.09331725 0.091630526 0.052018378
000090 59 6c 01 3e b7 77 14 be e3 0c 24 bc 35 6d e7 bd
       0.12638988 -0.14498793 -0.010012838 -0.113001265
0000a0 4a 80 37 bd d6 3f e2 bd b4 be d0 bd 45 c4 c0 3d
       -0.04480008 -0.11047332 -0.10192624 0.094124354
0000b0 ba 17 0c bd 2d 2b a2 bd 07 71 99 bd bc bc 9c bd
       -0.034202315 -0.079183914 -0.074922614 -0.07653186
0000c0 bf e5 b0 3d 10 bf a5 3d c6 76 4c 3d 9e 71 fb 3d
       0.086375706 0.08093083 0.04991796 0.1227753
0000d0 de 57 ef ba d9 97 b5 bc c8 1f 59 3d df b9 c8 3c
       -0.0018260439 -0.022167133 0.053008825 0.024502693
0000e0 fb 6e 73 3d b9 1b bc 3d 05 da cc bd 95 83 37 bd
       0.05943201 0.09184975 -0.100025214 -0.04480322
0000f0 21 82 08 be f3 94 6d 3d d1 4d fb 3d 50 05 a9 3d
       -0.1333089 0.058003377 0.12270702 0.082529664
